chebyshev_1.pt (torch, 259913 bytes, 27 tensors)

linear_relu_stack.0.weight f4 [28, 14]
0	0x3e79c9bd	0.24393363
1	0xbdeff9fd	-0.11717603
2	0x3da1b5ef	0.07896029
3	0x3e22d439	0.15901269
4	0xbe6f000b	-0.2333986
5	0x3d53c011	0.05169684
6	0x3e187473	0.14888172
7	0xbe3b1ebf	-0.18273447
8	0x3dd9c0cc	0.10632476
9	0x3d2b2014	0.04177864
10	0xbcfd698d	-0.03093412
11	0xbe5a0bf4	-0.21293622
12	0xbd6cca88	-0.057810336
13	0xbe11b93b	-0.14230816
14	0x3e2e09dd	0.1699595
15	0x3d6fa929	0.058510933
16	0xbe2190dc	-0.15777916
17	0xbe00f8c2	-0.12594894
18	0xbe357f72	-0.17724398
19	0xbe1e4b00	-0.15458298
20	0x3e41f941	0.18942739
21	0x3e3d852c	0.18507832
22	0x3e5757ea	0.2102963
23	0x3e0bf8fe	0.13669202
24	0xbe70bac7	-0.2350875
25	0x3d965c38	0.07341808
26	0xbd6c6192	-0.057710238
27	0x3e4dbf2f	0.20092462
28	0xba8ec300	-0.0010891855
29	0xbe870702	-0.26372534
30	0xbdd20658	-0.10255116
31	0xbe414277	-0.1887301
32	0x3ddb0180	0.106936455
33	0xbe23e3fd	-0.1600494
34	0x3e5f8410	0.21827722
35	0x3d889c44	0.0667043
36	0x3e757cba	0.2397336
37	0x3e1115be	0.1416845
38	0xbdd0e4e6	-0.10199909
39	0x3e6cc762	0.23122934
40	0xbe558c4b	-0.20854299
41	0x3c39f1e0	0.011349171
42	0xbe61bfa7	-0.22045766
43	0xbd15450c	-0.0364428
44	0x3e86f683	0.2635995
45	0x3d4667e0	0.048438907
46	0x3e5c54d0	0.21516728
47	0xbd86943e	-0.06571244
48	0xbda2323e	-0.07919739
49	0x3e48f9a6	0.19626483
50	0xbe86b4d9	-0.2630985
51	0xbe280a4e	-0.16410181
52	0x3e584d10	0.21123147
53	0xbe81ee2b	-0.2537702
54	0xbe3e9fbd	-0.18615623
55	0xbe46d3f0	-0.19416785
56	0xbe2ec6ac	-0.17067975
57	0xbdf50d48	-0.11965424
58	0xbe79cc33	-0.24394302
59	0xbdbebfa8	-0.09313899
60	0xbddcf714	-0.10789314
61	0xbc90aa7a	-0.017659415
62	0xbe84e113	-0.25952968
63	0xbe7971f0	-0.2435987
64	0xbde48e0d	-0.111599065
65	0xbd985e86	-0.07439904
66	0x3d2adbd9	0.04171357
67	0x3e3a2a88	0.18180287
68	0xbe09863a	-0.1343011
69	0xbd91a218	-0.07110995
70	0xbccc0f58	-0.02490966
71	0x3e6152ac	0.22004193
72	0x3e24b0fe	0.16083142
73	0xbe33e07e	-0.17566106
74	0xbe3922f4	-0.1807974
75	0x3e292896	0.16519389
76	0xbe0e9db0	-0.1392734
77	0xbe6b7a5c	-0.22995895
78	0x3c9a5fe0	0.018844545
79	0xbdad60a0	-0.084656954
80	0xbe32e45e	-0.17469928
81	0x3ccfc9e0	0.025364816
82	0xbd9fc3c2	-0.0780101
83	0x3d967f90	0.07348549
84	0x3dcb6dc8	0.099330485
85	0xbe86aea0	-0.26305103
86	0xbe570b8f	-0.21000503
87	0x3e6d06ca	0.23147121
88	0x3d26adae	0.040692978
89	0xbded2b9b	-0.11580583
90	0xbdcab98d	-0.09898672
91	0xbe558f91	-0.20855547
92	0xbe5e0fb5	-0.2168568
93	0x3da79890	0.08183396
94	0x3de86b16	0.1134855
95	0x3d8ddc87	0.06926828
96	0x3dd60f16	0.10452096
97	0x3e0ae4e3	0.13563876
98	0x3e0fdfba	0.14050189
99	0xbe5f9c7e	-0.21837041
100	0x3d815bfe	0.06316374
101	0xbe88a3b2	-0.2668739
102	0x3dd5bbd4	0.10436216
103	0xbdeb04b8	-0.114755094
104	0xbe62dbce	-0.22154161
105	0xbe2d5d8f	-0.16930221
106	0x3dd6d937	0.10490649
107	0xbdedf3e6	-0.116187856
108	0x3d612407	0.054966
109	0xbe856e66	-0.2606079
110	0x3dbd6f77	0.09249776
111	0xbe346ba6	-0.1761919
112	0x3e2c6b9c	0.16837925
113	0xbe1b05d2	-0.15138939
114	0x3e7d3b9b	0.24729769
115	0xbe165aaa	-0.14683023
116	0xbe2aea98	-0.16691053
117	0xbd8b5479	-0.06803221
118	0xbe69309e	-0.22772452
119	0xbe3ea20e	-0.18616506
120	0x3d9a2c6d	0.07528005
121	0xbded613d	-0.11590812
122	0x3e4b1d80	0.19835472
123	0x3df4642e	0.1193317
124	0x3df0625d	0.11737511
125	0x3d6e99f7	0.0582523
126	0xbe258f00	-0.16167831
127	0x3d5d1836	0.053978167
128	0x3e0f5687	0.13997851
129	0x3b99b70f	0.0046910117
130	0x3e00e0ce	0.12585756
131	0xbe51240b	-0.20423906
132	0xbc528b1e	-0.012850551
133	0xbd4a8e86	-0.049452327
134	0xbdc085e1	-0.094005354
135	0x3e7eed2c	0.24895161
136	0x3e19a75a	0.15005246
137	0x3e42aed7	0.19012009
138	0x3e0d4614	0.13796264
139	0x3e16013c	0.14648908
140	0xbd8f297c	-0.069903344
141	0x3e0bdcbc	0.13658422
142	0x3db31774	0.08744708
143	0x3d853a2c	0.06505236
144	0x3de41190	0.11136162
145	0x3cffae60	0.031211078
146	0xbd8413ce	-0.0644909
147	0xbe206876	-0.15664849
148	0x3dbe1bf4	0.092826754
149	0xbe4ef1f4	-0.20209485
150	0x3e88642f	0.26638934
151	0x3dccae84	0.09994224
152	0xbd976af0	-0.073934436
153	0xbe850bad	-0.2598547
154	0xbe24dd94	-0.1610015
155	0x3ddf906c	0.10916218
156	0x3cb99220	0.022652686
157	0xbdb4a730	-0.08820951
158	0xbe3064eb	-0.17225997
159	0xbe733684	-0.23751265
160	0x3dfe40f8	0.124147356
161	0x3e84ff71	0.25976136
162	0xbdc58826	-0.09645109
163	0x3d7cb4c8	0.061695844
164	0x3e7f12ea	0.24909559
165	0x3d8600c0	0.06543112
166	0xbddc9280	-0.1077013
167	0x3c9a94b0	0.018869728
168	0x3e7dfa01	0.248024
169	0x3e007cbf	0.12547587
170	0x3e4c7b19	0.19968833
171	0x3d80ccb4	0.06289044
172	0xbdffe7b6	-0.12495367
173	0x3e276e84	0.16350752
174	0x3ce2e848	0.027698651
175	0x3e61c608	0.22048199
176	0x396543f8	0.00021864462
177	0x3e646ec4	0.22307879
178	0xbe632abb	-0.22184269
179	0xbe899b8d	-0.26876488
180	0xbdc1c59d	-0.0946152
181	0x3e127ef7	0.14306246
182	0xbe36901c	-0.17828411
183	0xbcf116ed	-0.029429877
184	0xbdcc58ca	-0.09977873
185	0xbdd021ab	-0.10162672
186	0x3e24bcac	0.16087598
187	0x3e4603d1	0.19337393
188	0xbe7a6f40	-0.24456501
189	0x3e3bc951	0.18338515
190	0x3e5975ed	0.21236391
191	0xbe0f543f	-0.13996981
192	0x3d7ab7ae	0.061210327
193	0x3dbcc122	0.09216525
194	0xbe602572	-0.21889284
195	0xbe7a673f	-0.24453448
196	0xbda1c896	-0.07899587
197	0x3d2c7238	0.042101115
198	0x3b1aa280	0.0023595393
199	0xbe4c648e	-0.19960234
200	0xbdd19aa0	-0.102345705
201	0xbe81c6a7	-0.25346872
202	0xbdcfda0e	-0.101490125
203	0xbd8d6dba	-0.06905694
204	0x3d8b91cc	0.06814918
205	0x3e50dab2	0.20395926
206	0x3d55ee20	0.052229047
207	0xbe86e193	-0.26343974
208	0xbe077bb8	-0.13230789
209	0xbba64d00	-0.005075097
210	0xbe274d7c	-0.16338152
211	0x3e1d9834	0.15390092
212	0xbe000d56	-0.12505087
213	0x3d90372c	0.07041773
214	0xbe349fd8	-0.176391
215	0x3dc19298	0.09451789
216	0x3e295414	0.1653598
217	0xbe532f0c	-0.20623416
218	0x3e151186	0.14557466
219	0x3e874e85	0.26427093
220	0xbc0c3700	-0.008558035
221	0xbde4f38a	-0.11179264
222	0x3e08e9a0	0.13370371
223	0x3e50a9ee	0.20377323
224	0xbdfbaae6	-0.12288456
225	0xbd8f98c0	-0.070115566
226	0xbc40e320	-0.011772901
227	0xbce1ee88	-0.02757956
228	0x3db99174	0.09060946
229	0x3c8f0ba0	0.017461598
230	0x3e6f30d2	0.23358467
231	0xbd7d3ad0	-0.061823666
232	0xbddba0de	-0.10724042
233	0x3e365d52	0.17809036
234	0x3e4c2b8e	0.1993849
235	0xbd9e9666	-0.0774353
236	0x3c96f940	0.018429399
237	0x3e49e0d0	0.19714665
238	0x3d88c608	0.066783965
239	0xbe498fbb	-0.19683735
240	0x3e197678	0.14986598
241	0xbe0eeca3	-0.13957457
242	0x3e1d57b3	0.15365486
243	0x3e4fcfb1	0.20294072
244	0x3ca89410	0.020578414
245	0xbd3d3339	-0.046191428
246	0x3c66d56d	0.014088971
247	0x3d31f2f7	0.0434446
248	0x3d3a6308	0.0455046
249	0x3e0da0a8	0.13830817
250	0x3e83b949	0.257273
251	0xbd1b820d	-0.037965823
252	0xbe785cfd	-0.24254222
253	0x3e85f6f3	0.2616497
254	0xbb002080	-0.0019550622
255	0xbb868e80	-0.004106343

linear_relu_stack.0.bias f4 [28]
0	0xbdf67fdc	-0.12036106
1	0xbe09f71b	-0.1347317
2	0xbdc72b80	-0.09725094
3	0x3e509228	0.20368254
4	0xbdabafde	-0.083831534
5	0xbe73f1b7	-0.23822676
6	0x3dc68978	0.09694189
7	0x3dccf7d3	0.10008206
8	0xbd8b6ee7	-0.06808262
9	0x3e0935f8	0.13399494
10	0xbdcc9436	-0.099892065
11	0x3d4743a0	0.048648477
12	0x3dd843de	0.1055982
13	0xbe4dd4d0	-0.20100713
14	0xbe64762a	-0.22310701
15	0xbe29bcd8	-0.16575944
16	0xbd85669c	-0.06513712
17	0x3d9c041d	0.07617972
18	0xbdede322	-0.11615588
19	0x3dff7d8c	0.12475118
20	0xbd85ca88	-0.065327704
21	0xbdebe956	-0.11519115
22	0x3e7553c0	0.2395773
23	0x3e67449d	0.22584768
24	0xbd6a2430	-0.057163417
25	0x3e6504d2	0.2236512
26	0x3e7972be	0.24360177
27	0x3e1c03aa	0.15235773

linear_relu_stack.2.weight f4 [28, 28]
0	0x3daa401f	0.083130114
1	0xbc6e7701	-0.01455474
2	0x3cf1eab8	0.029530868
3	0x3d3331b0	0.043748558
4	0xbdaecf2e	-0.0853561
5	0x3e1eb819	0.15499915
6	0x3da75667	0.08170777
7	0x3de14c43	0.11000874
8	0x3d37a579	0.04483554
9	0x3ce75577	0.028238995
10	0x3c7bbf80	0.015365481
11	0xbd1bb3bc	-0.038013205
12	0x3e250258	0.16114175
13	0x3e1264c8	0.14296257
14	0xbd7ae4ec	-0.061253473
15	0x3d47aa38	0.048746318
16	0x3d7d8144	0.061890855
17	0xbe1bb7a0	-0.15206766
18	0x3dfbe9b2	0.12300433
19	0xbdcfab00	-0.101400375
20	0x3dd7ac96	0.10530965
21	0x3e0a696d	0.13516779
22	0x3e1b56ac	0.15169781
23	0xbde814ae	-0.11332069
24	0xbe2347b0	-0.15945315
25	0xbd4d1b2e	-0.05007475
26	0x3dd91f1e	0.10601638
27	0xbcd10428	-0.025514677
28	0x3da0fdd8	0.07860917
29	0x3d881511	0.06644643
30	0xbdb95a0a	-0.09050377
31	0xbdff9574	-0.12479678
32	0x3a4f6372	0.0007911242
33	0xbd495434	-0.049152568
34	0xbdb59632	-0.08866538
35	0xbe349759	-0.1763586
36	0xbc9b2877	-0.018940194
37	0x3e0c5ee4	0.13708073
38	0xbdb4900a	-0.08816536
39	0x3c77a050	0.015113905
40	0xbde53cf0	-0.111932635
41	0x3e2381ce	0.15967485
42	0xbd229a74	-0.03969808
43	0x3e37e7c9	0.17959513
44	0x3d795d34	0.0608799
45	0x3dcf1f76	0.101134226
46	0x3ccf5088	0.025306955
47	0x3e35c685	0.1775151
48	0xbdd0b698	-0.10191077
49	0x3e2a7975	0.16647895
50	0xbc11f169	-0.008907654
51	0xbda3c211	-0.079959996
52	0x3e07d063	0.13263087
53	0x3dcf1770	0.10111892
54	0x3e059b73	0.1304758
55	0xbdc703e9	-0.09717543
56	0xbd0868a8	-0.033302933
57	0xbd5bc5d4	-0.05365546
58	0xbe2df93b	-0.16989605
59	0xbd579708	-0.05263427
60	0x3df5bbda	0.119987205
61	0x3e2b79e7	0.16745721
62	0xbe22a113	-0.15881757
63	0xbe2bc844	-0.16775614
64	0x3df17d16	0.117914364
65	0x3dfff45e	0.12497781
66	0x3d7728ac	0.060341522
67	0xbe0ef86d	-0.13961954
68	0x3d5fbe1c	0.05462466
69	0xbd13fb90	-0.03612858
70	0xbd638de0	-0.055555224
71	0xbe3de2a4	-0.18543488
72	0x3d0b72ac	0.034044906
73	0x3dabffd6	0.08398406
74	0xbe2d099a	-0.16898194
75	0x3e2b490f	0.16727088
76	0xbb2c95c0	-0.0026334375
77	0xbdae9854	-0.08525148
78	0xbd9112cd	-0.07083664
79	0xbb84e9a0	-0.0040561706
80	0xbdd2b9b3	-0.102893256
81	0xbdcbe616	-0.09955995
82	0x3c027b00	0.007963896
83	0xbd51c740	-0.05121541
84	0x3e01fee6	0.12694892
85	0xbd62483f	-0.05524468
86	0x3e37aea7	0.17937718
87	0xbd7cea80	-0.061747074
88	0xbe29fa24	-0.16599327
89	0xbd7a2214	-0.061067656
90	0x3aaeddec	0.0013341284
91	0xbe4009d9	-0.18753757
92	0xbde2e4fe	-0.11078833
93	0x3e1f1537	0.15535437
94	0xbe15e2b6	-0.14637265
95	0xbd9cee6f	-0.07662665
96	0xbcacd3a1	-0.021097006
97	0x3dd35882	0.10319616
98	0xbdb63c7c	-0.08898255
99	0xbe1245fc	-0.1428451
100	0x3e08e8a1	0.13369991
101	0xbd01a56b	-0.031651895
102	0xbe33fe77	-0.1757754
103	0xbdf675ee	-0.12034212
104	0x3c980e68	0.018561557
105	0xbdd985e2	-0.10621239
106	0xbd98b35d	-0.07456086
107	0x3df60992	0.12013544
108	0xbe0317de	-0.12802073
109	0x3d7a5626	0.061117314
110	0xbd429554	-0.04750569
111	0x3c3c71e0	0.011501759
112	0xbe30db21	-0.17271091
113	0xbe3ab834	-0.1823433
114	0x3daeef32	0.08541717
115	0x3e131a75	0.14365561
116	0xbe33475b	-0.17507689
117	0x3da1841a	0.078865245
118	0xbe153b7f	-0.14573477
119	0xbda5b272	-0.08090676
120	0x3e059ef5	0.13048919
121	0x3e193829	0.1496283
122	0xbd545ed0	-0.051848233
123	0x3d13f8cc	0.036125943
124	0x3ca776e2	0.02044243
125	0xbd8c676e	-0.06855665
126	0x3c9683a0	0.01837331
127	0xbe0ac69e	-0.13552329
128	0x3d959f06	0.07305722
129	0xba9b3a4a	-0.0011842933
130	0xbd87f570	-0.0663861
131	0xbdd8c313	-0.105840825
132	0xbda48173	-0.08032503
133	0x3d691c64	0.05691184
134	0x3e32bb29	0.17454208
135	0x3e2c204f	0.168092
136	0xbd180800	-0.037117004
137	0xbe28338e	-0.16425917
138	0x3e133fa1	0.14379741
139	0xbd8db73a	-0.06919713
140	0x3d3ceab9	0.046122286
141	0x3e2036d4	0.15645915
142	0xbe11508d	-0.14190884
143	0xbe1f9d4a	-0.15587345
144	0xbd635a45	-0.05550601
145	0x3e35a751	0.17739607
146	0x3c9534e0	0.01821369
147	0xbe145602	-0.14485934
148	0x3e235421	0.15950061
149	0x3dba1e09	0.0908776
150	0xbdafc16f	-0.085818164
151	0xbd8cc8eb	-0.068742596
152	0x3d606f5c	0.0547937
153	0xbb4c598f	-0.003118131
154	0xbd9b48c7	-0.075822406
155	0xbe1a9234	-0.15094835
156	0xbdcb8fbc	-0.099395245
157	0xbc680e75	-0.014163603
158	0x3dff8a8e	0.12477599
159	0xbd66fc10	-0.05639273
160	0x3e15d285	0.14631088
161	0xbe2f353c	-0.17110151
162	0xbcb4d315	-0.022073308
163	0xbcd12fbe	-0.02553546
164	0xbd098230	-0.033571422
165	0xbe4302ec	-0.19044083
166	0xbe2c4653	-0.16823702
167	0xbe116d15	-0.14201768
168	0xbe3613e1	-0.1778102
169	0x3b3a0680	0.0028385222
170	0x3df2b992	0.11851801
171	0x3dde1c7a	0.10845275
172	0x3d04d56c	0.032430097
173	0x3e00160b	0.12508409
174	0xbd80dd7e	-0.06292246
175	0x3daac32a	0.08338006
176	0xbcfbf480	-0.030756235
177	0x3e2a4717	0.16628681
178	0xbdf7fd7a	-0.12108894
179	0xbd5a84d8	-0.053349346
180	0xbe261d03	-0.16222005
181	0xba4b1400	-0.00077468157
182	0xbd80580c	-0.062667936
183	0xbdeaadf6	-0.11458962
184	0x3ddcdf7e	0.10784815
185	0xbdae2436	-0.085030004
186	0xbe2dfa48	-0.16990006
187	0xbe11e892	-0.14248875
188	0x3c28f320	0.010311872
189	0x3dda83de	0.10669683
190	0x3b8ef840	0.00436309
191	0x3dc7e592	0.09760584
192	0xbe2a9ac5	-0.16660602
193	0xbd8cb06c	-0.06869587
194	0xbdd17c0b	-0.102287374
195	0xbd3e29f8	-0.046426743
196	0xbe1b35bf	-0.15157221
197	0xbda089f4	-0.078388125
198	0x3e2fad0b	0.17155854
199	0xbe0d70ee	-0.1381261
200	0xbe14f5ae	-0.14546844
201	0x3d97243e	0.073799595
202	0xbdc5d4ad	-0.09659705
203	0x3ce7d550	0.028299958
204	0x3da1202a	0.07867463
205	0xbdb0a7da	-0.08625765
206	0x3e37b5d3	0.17940454
207	0xbd14ed90	-0.03635937
208	0xbe3b2b0c	-0.1827814
209	0x3e2bedbd	0.16789909
210	0x3dc9f0d2	0.09860386
211	0x3e343c2b	0.17601077
212	0x3dd4eaa2	0.10396315
213	0xbe3bdcbc	-0.18345922
214	0xbd86089b	-0.0654461
215	0xbe0e16fb	-0.13875954
216	0xbdffc6f7	-0.124891214
217	0x3d351490	0.044209063
218	0x3df861d2	0.12128033
219	0xbdc077ec	-0.09397873
220	0xbd4f6f84	-0.05064346
221	0xbda296d7	-0.07938927
222	0x3dc7da66	0.09758453
223	0xbd8b367b	-0.06797501
224	0x3dd6ba7a	0.10484786
225	0xbc27b481	-0.010235907
226	0x3be79840	0.00706771
227	0xbdea418e	-0.11438285
228	0xbdd46bef	-0.10372149
229	0x3c9f9e58	0.019484684
230	0x3c9e20cc	0.019302748
231	0x3d2c7ec1	0.04211307
232	0xbdf925ab	-0.12165388
233	0x3dcfdf3a	0.10149999
234	0xbc7327d0	-0.014841035
235	0xbe3e3435	-0.18574603
236	0x3e2c05c8	0.1679908
237	0xbe06262f	-0.13100503
238	0x3e0e6031	0.13903882
239	0xbd05f584	-0.032704845
240	0x3ddae25e	0.10687707
241	0xbe31550b	-0.17317598
242	0x3d4f2e5c	0.05058132
243	0xbe3d06c0	-0.18459606
244	0x3e03e663	0.12880854
245	0x3c36bbb0	0.011153147
246	0xbe3af211	-0.18256404
247	0x3e2c1bb9	0.1680745
248	0x3e2a0e07	0.16606914
249	0xbe4457a4	-0.19174057
250	0x3d80f156	0.06296031
251	0xbd9c4bd1	-0.07631648
252	0xbe3c9e9d	-0.18419881
253	0xbdb940c6	-0.09045558
254	0xbbf50b80	-0.0074781775
255	0x3e1fbb1b	0.15598719

linear_relu_stack.2.bias f4 [28]
0	0x3da48b09	0.08034331
1	0x3e41cd09	0.18925871
2	0x3e1829df	0.14859723
3	0x3d29bb65	0.04143848
4	0x3cd689b8	0.026188716
5	0x3e0d330d	0.13789006
6	0xbe2c63e2	-0.16834977
7	0xbe3c8d7b	-0.18413346
8	0x3cc222f3	0.023698306
9	0x3de13c71	0.109978564
10	0xbd934249	-0.07190377
11	0x3e0b81fa	0.13623801
12	0x3db5c354	0.088751465
13	0xbd88816b	-0.066653095
14	0xbdee7f9d	-0.11645434
15	0xbe046c72	-0.12931994
16	0xbd401a02	-0.046899803
17	0xbc95cbd5	-0.018285671
18	0xbe1bc253	-0.15210848
19	0x3d81e548	0.0634256
20	0x3e332427	0.1749426
21	0xbe3f287a	-0.18667784
22	0xbe27b22c	-0.16376561
23	0x3e27443b	0.16334622
24	0x3e1a0c38	0.15043724
25	0x3e413dc5	0.1887122
26	0xbcb7c398	-0.022432134
27	0x3cee042f	0.02905473

linear_relu_stack.4.weight f4 [56, 28]
0	0xbe17a523	-0.14809088
1	0x3e0c4074	0.13696462
2	0x3e2f8037	0.17138754
3	0xbcafbe78	-0.021453127
4	0x3b2c00c0	0.0026245564
5	0xbe0bd427	-0.13655148
6	0xbd2c7908	-0.042107612
7	0xbd783f54	-0.06060727
8	0xbd9d87d7	-0.07691925
9	0xbe0f4291	-0.13990237
10	0xbd8e191f	-0.06938385
11	0x3db37896	0.08763234
12	0xbc916acb	-0.017751118
13	0x3dc91368	0.098181546
14	0x3e2b1965	0.16708906
15	0xbe3f2b44	-0.18668848
16	0x3d577580	0.05260229
17	0x3e3aa301	0.18226244
18	0xbdc5b5bb	-0.09653803
19	0x3dd77b0c	0.10521516
20	0x3d326ba4	0.043559685
21	0x3d2da095	0.04238947
22	0xbe21dab0	-0.15806079
23	0x3c00900a	0.007846842
24	0xbd86e719	-0.06587047
25	0x3e38aec5	0.1803542
26	0xbdf39c78	-0.118950784
27	0xbd006bb0	-0.0313527
28	0x3cac0db8	0.021002635
29	0x3dbaaeba	0.09115358
30	0xbdfbcae9	-0.122945614
31	0xbe36fe4a	-0.17870441
32	0xbc8ae3ec	-0.016954385
33	0x3d6a8414	0.057254866
34	0xbd97e646	-0.07416968
35	0x3e03a651	0.12856413
36	0xbe23cd46	-0.15996274
37	0xbe07a567	-0.1324669
38	0xbd8647a8	-0.06556636
39	0xbc24afba	-0.010051662
40	0xbdf27eac	-0.11840567
41	0xbda6669e	-0.081250414
42	0x3e08b5ab	0.13350551
43	0xbdcba70a	-0.099439695
44	0x3d7d168c	0.06178908
45	0x3e0a9f5e	0.13537356
46	0xbcb57bde	-0.022153791
47	0x3e204b7c	0.15653795
48	0x3dcc66ec	0.09980568
49	0xbd11b83e	-0.035576098
50	0xbe0ae81d	-0.13565107
51	0x3d5ce3cb	0.053928178
52	0xbe251e0d	-0.16124745
53	0xbd3cf7cc	-0.046134755
54	0x3cf0f0e8	0.029411748
55	0x3c571432	0.0131273735
56	0xbd0a59be	-0.03377699
57	0xbe0c5f08	-0.13708127
58	0xbc8565a8	-0.016283825
59	0x3cade206	0.02122594
60	0x3d55eaf1	0.05222601
61	0x3e0d82ac	0.13819379
62	0xbdd12fbe	-0.10214184
63	0x3afcc980	0.0019286126
64	0x3dd5564d	0.10416851
65	0x3df91286	0.12161736
66	0xbdc059b5	-0.0939211
67	0xbc583c20	-0.013197929
68	0xbd1e98e0	-0.03872001
69	0xbdd07020	-0.10177636
70	0xbcde00e0	-0.027100027
71	0x3e2b0fc3	0.16705231
72	0x3e2c7272	0.16840532
73	0xbe2858b3	-0.16440086
74	0x3e2453ff	0.16047667
75	0x3defac83	0.11702826
76	0x3e00fc51	0.12596251
77	0x3d175836	0.03694936
78	0x3b8771e0	0.004133448
79	0x3e022f74	0.12713414
80	0xbdd813dc	-0.10550663
81	0xbd9a93f8	-0.07547754
82	0xbdc03ed9	-0.09386987
83	0xbe47eb2d	-0.19523306
84	0x3e1d66c0	0.15371227
85	0x3e44939b	0.19196932
86	0xbd9d9a99	-0.07695503
87	0x3e0acea3	0.13555388
88	0x3dc98ef0	0.09841716
89	0xbcf93d7f	-0.030424831
90	0xbe1d852d	-0.15382834
91	0xbd8e3678	-0.06943983
92	0x3dc3a652	0.095532075
93	0x3d2ac1a8	0.04168859
94	0x3d87c3b8	0.06629127
95	0xbe06848f	-0.13136505
96	0xbd980042	-0.07421924
97	0x3dad5123	0.08462741
98	0x3a937d00	0.0011252463
99	0xbe287b1a	-0.1645321
100	0x3bcce157	0.0062524485
101	0xbb357aaa	-0.0027691522
102	0xbe097f27	-0.13427411
103	0xbe2d8bc8	-0.16947854
104	0x3da9b18d	0.08285818
105	0x3d768f2e	0.06019514
106	0xbccfc570	-0.0253627
107	0xbcee8476	-0.029115897
108	0xbdc538d0	-0.09629977
109	0x3def666e	0.11689459
110	0xbd424fec	-0.0474395
111	0xbb8d1596	-0.0043055518
112	0x3c757c05	0.014983182
113	0xbdfd6957	-0.123736076
114	0xbbd01560	-0.0063502043
115	0x3d3d2855	0.04618104
116	0x3c0477b3	0.008085179
117	0x3ddd4df3	0.10805883
118	0xbd8b5e1f	-0.068050615
119	0xbd7093ec	-0.05873482
120	0xbdfbb3d9	-0.122901626
121	0xbd9ccd43	-0.07656338
122	0x3e192152	0.14954117
123	0xbd11e687	-0.03562024
124	0x3dcc7ae1	0.09984375
125	0x3e1a48ec	0.1506688
126	0xbe03eb98	-0.1288284
127	0xbe20e7f1	-0.15713479
128	0x3bcee9d4	0.0063144956
129	0x3e3800fc	0.17969126
130	0x3dcfe9ee	0.101520404
131	0x3dd44c3d	0.10366104
132	0x3e253335	0.16132815
133	0x3d43397c	0.047662243
134	0x3e163219	0.14667548
135	0x3cbd74f3	0.023127055
136	0xbdd8bb7a	-0.10582633
137	0xbdda006d	-0.106446125
138	0xbccddec0	-0.02513063
139	0xbe1166c3	-0.14199357
140	0x3e150853	0.14553957
141	0x3cec0c78	0.02881454
142	0xbe24d8a6	-0.1609827
143	0xbdaa5df5	-0.08318702
144	0x3d857931	0.06517256
145	0xbd8bd472	-0.0682763
146	0xbc4d0770	-0.01251398
147	0xbcc13a90	-0.023587495
148	0xbded1c17	-0.11577623
149	0xbe1c2fad	-0.15252562
150	0xbd95e32c	-0.0731872
151	0xbd7587f0	-0.059944093
152	0x3d73cda8	0.0595223
153	0x3e167179	0.14691724
154	0x3e2c5c67	0.16832124
155	0x3dadcdba	0.08486505
156	0x3da6eea3	0.08150985
157	0x3df0abd6	0.11751525
158	0xbd193e15	-0.03741272
159	0x3d99bb63	0.07506444
160	0xbe0acc63	-0.1355453
161	0xbd8e6e6f	-0.06954657
162	0xbd6f17d4	-0.058372334
163	0xbbbb1ae0	-0.005709991
164	0x3d144a0a	0.03620342
165	0xbe153086	-0.14569291
166	0x3d6252d4	0.055254772
167	0x3c9f1c9c	0.019422822
168	0x3dd25269	0.10269625
169	0xbcf04e19	-0.029334115
170	0x3dca596e	0.098803386
171	0xbd3b0f44	-0.045668855
172	0x3e1dbf4c	0.15405005
173	0xbd84e08a	-0.0648814
174	0x3e1bd749	0.15218844
175	0xbe2b9e97	-0.16759716
176	0xbc253391	-0.010083095
177	0xbc7e09be	-0.015505252
178	0xbdb475ac	-0.08811507
179	0xbe22689e	-0.15860221
180	0xbe19219b	-0.14954226
181	0xbd9e551b	-0.07731076
182	0xbdf65961	-0.120287664
183	0x3d9ab783	0.07554533
184	0xbdfe709c	-0.12423822
185	0x3e3a3b03	0.18186574
186	0xbdcd81a6	-0.10034494
187	0x3c4ea470	0.012612447
188	0x3d22f07a	0.039780118
189	0xbd76edca	-0.060285367
190	0x3b02bf00	0.001995027
191	0x3e20dcc0	0.1570921
192	0xbd838821	-0.06422449
193	0xbda079ea	-0.07835753
194	0xbe2aea76	-0.16691002
195	0xbd806386	-0.062689826
196	0xbd214218	-0.039369673
197	0xbdfab3a0	-0.12241292
198	0xbd317e78	-0.0433335
199	0xbc9b25c0	-0.018938899
200	0x3d8dc5c0	0.069224834
201	0xbdda012b	-0.10644754
202	0x3e3ac88f	0.1824057
203	0x3d0fd998	0.035119623
204	0x3d0a36fc	0.033743843
205	0xbda6e0d6	-0.08148353
206	0x3de5faf2	0.11229505
207	0xbd27bdc0	-0.040952444
208	0x3cdb3638	0.026759252
209	0xbe05947d	-0.13044925
210	0xbdde9cf3	-0.108697794
211	0x3e17c94a	0.1482288
212	0x3db35461	0.087563284
213	0x3e043c3b	0.12913601
214	0xbe1e7b52	-0.1547673
215	0xbdff8915	-0.12477318
216	0xbdb81ad0	-0.08989489
217	0xbd85a575	-0.06525699
218	0x3e2bb68f	0.1676886
219	0xbded11f2	-0.115756884
220	0x3baf4bdb	0.005349619
221	0xbe19c75c	-0.15017456
222	0xbb9313a0	-0.0044884235
223	0xbe2ace91	-0.16680361
224	0xbe158be0	-0.1460414
225	0x3e371d9c	0.17882389
226	0x3df3bf26	0.11901693
227	0x3c792af1	0.015207992
228	0xbdfb7ed5	-0.12280051
229	0x3e1f156c	0.15535516
230	0x3e13bcb3	0.14427452
231	0x3dd88c12	0.10573591
232	0xbde1c270	-0.11023414
233	0xbdb4339a	-0.08798905
234	0x3db04d8f	0.08608543
235	0x3cafaa71	0.021443577
236	0xbe030f51	-0.12798811
237	0x3be4694c	0.00697056
238	0x3becd3a0	0.007227376
239	0xbe17b2a2	-0.14814237
240	0x3d8085c3	0.06275513
241	0x3e31c1b5	0.1735905
242	0xbdc0b3e6	-0.09409313
243	0xbdb1ce12	-0.08681883
244	0x3d1b76c4	0.03795506
245	0xbcb3d74e	-0.021953251
246	0x3cefc9c8	0.029271021
247	0x3df8f4d3	0.121560715
248	0xbd07aff4	-0.033126786
249	0xbdd56c7a	-0.10421081
250	0xbdb6ff44	-0.08935407
251	0xbda11f23	-0.07867267
252	0x3e022bb9	0.12711991
253	0x3d782085	0.060577888
254	0x3d9dd19e	0.07705997
255	0xbcfccd72	-0.030859683

linear_relu_stack.4.bias f4 [56]
0	0x3d26339c	0.040576562
1	0x3d350689	0.044195686
2	0x3e0054da	0.12532368
3	0x3e120d8e	0.14262983
4	0x3e0c5f72	0.13708284
5	0xbc923a6b	-0.017850121
6	0x3de7d3f8	0.11319727
7	0x3e2682d4	0.16260844
8	0x3e2bf6a1	0.167933
9	0x3db67b8f	0.08910286
10	0xbdf0f6d6	-0.1176583
11	0xbdb373cc	-0.08762321
12	0xbd4bb3cb	-0.04973201
13	0x3deed54d	0.11661778
14	0x3dca12ea	0.09866889
15	0x3e21febf	0.15819834
16	0x3cd86978	0.026417479
17	0xbd4e9d99	-0.050443266
18	0x3e2008f7	0.1562842
19	0x3e39b28f	0.18134521
20	0xbd804a4b	-0.0626417
21	0xbd6b3f29	-0.05743328
22	0xbd783ad0	-0.060602963
23	0xbdba151d	-0.09086058
24	0x3dc96525	0.09833745
25	0xbd3bdbd4	-0.04586394
26	0x3dd42ffc	0.10360715
27	0x3c6a11c0	0.0142864585
28	0x3de0a961	0.109698065
29	0xbe0ce216	-0.1375812
30	0xbd993508	-0.07480818
31	0xbcf272bc	-0.029595725
32	0x3e1072fc	0.14106363
33	0xbd5ddee7	-0.054167654
34	0x3e052429	0.13002075
35	0xbdb89c6b	-0.09014209
36	0x3d15e9cc	0.03659992
37	0xbe13f0da	-0.14447346
38	0xbe054853	-0.13015871
39	0x3d1ac6b4	0.037787154
40	0x3e25c4df	0.16188382
41	0x3dafd6bb	0.085858785
42	0xbd3fcbdc	-0.046825275
43	0x3cffced7	0.031226559
44	0xbe23ef0b	-0.16009156
45	0xbe294622	-0.1653066
46	0xbcb99228	-0.0226527
47	0x3d87e272	0.06634988
48	0xbd99b5d4	-0.07505384
49	0xbdd69bc2	-0.10478927
50	0xbe2ef061	-0.17083885
51	0xbc4a4390	-0.01234521
52	0xbe22f862	-0.15915063
53	0x3ddc1296	0.107457325
54	0x3d1c6020	0.03817761
55	0x3da24b0a	0.07924469

linear_relu_stack.6.weight f4 [56, 56]
0	0x3d97fd53	0.07421365
1	0x3d38e3a1	0.04513896
2	0x3d7e895e	0.062142722
3	0x3e0862cb	0.13318937
4	0x3c2d269d	0.010568288
5	0xbd22b0af	-0.03971928
6	0x3d8da5c6	0.069163844
7	0x3d12839b	0.03577004
8	0x3d48e37d	0.049045075
9	0x3c8c1610	0.017100364
10	0x3d98e06d	0.07464681
11	0x3de1e862	0.11030652
12	0x3ccc2bf6	0.024923306
13	0xbdbd22fd	-0.09235189
14	0x3d6551f4	0.05598636
15	0xbdfa8bab	-0.12233671
16	0x3d347efc	0.044066414
17	0x3d983482	0.0743189
18	0x3d77d335	0.060504157
19	0x3d08d411	0.033405367
20	0xbd6e33ff	-0.058155056
21	0xbdab4226	-0.08362226
22	0x3d4e9b98	0.050441355
23	0xbdd8d99f	-0.10588383
24	0xbcd0e976	-0.025501948
25	0xbdf42e22	-0.11922862
26	0x3ccd9ad4	0.025098242
27	0x3dcebff0	0.10095203
28	0xbda50737	-0.08058017
29	0x3de0320c	0.10947046
30	0x3d244c6f	0.040111955
31	0x3d1478e5	0.036248107
32	0x3db7ccbc	0.08974597
33	0x3dfdfc39	0.12401623
34	0x3d7b8760	0.0614084
35	0x3de8323e	0.11337708
36	0xbcf12a0c	-0.029438995
37	0x3c97856c	0.018496238
38	0xbddf7615	-0.10911194
39	0xbd214c02	-0.039379127
40	0xbb2b38a2	-0.0026126285
41	0x3de24a59	0.11049337
42	0xbd51e41a	-0.051242925
43	0xbd9e1f9a	-0.07720871
44	0x3e085b19	0.13316001
45	0x3ceba1d0	0.028763682
46	0xbdde6750	-0.10859549
47	0x3d9fb15c	0.077975005
48	0x3d078103	0.03308202
49	0x3cedbf18	0.029021785
50	0xbd6e5258	-0.058183998
51	0xbcd6f316	-0.02623896
52	0xbdf421ee	-0.11920534
53	0xbbe8eaa0	-0.0071080476
54	0xbd055a7a	-0.03255699
55	0xbdc8bc12	-0.098014966
56	0xbd4e65c0	-0.050390005
57	0x3d8ff7ba	0.07029672
58	0x3d4d34bc	0.05009912
59	0x3d913c2e	0.070915565
60	0xbdf5067d	-0.11964128
61	0xbd17640e	-0.036960654
62	0xbd2975dc	-0.041372165
63	0xbcf95afc	-0.030438893
64	0xbc452c80	-0.012034535
65	0x3d9b838a	0.075934485
66	0xbc284e78	-0.010272615
67	0x3ca51208	0.0201502
68	0x3ce7d268	0.028298572
69	0xbcaa1924	-0.020763941
70	0xbd85d9a1	-0.0653565
71	0xbdcb70fb	-0.09933659
72	0x3dbe16e6	0.09281711
73	0x3d9609bc	0.073260754
74	0x3dddd94c	0.10832462
75	0xbd28ffa6	-0.04125943
76	0x3d9eefa8	0.077605546
77	0xbdfe4f1e	-0.12417434
78	0xbd9a7880	-0.07542515
79	0xbdaa2fb7	-0.08309882
80	0xbde3ff1d	-0.11132643
81	0xbc082a20	-0.008310825
82	0xbdaecd30	-0.0853523
83	0x3e004549	0.1252643
84	0xbd396742	-0.04526449
85	0x3d09f390	0.033679545
86	0x3e0505b9	0.12990464
87	0x3dda8314	0.106695324
88	0x3da973ec	0.082740635
89	0x3d1a3b04	0.037653938
90	0xbdb387a3	-0.08766105
91	0xbdb16a7e	-0.0866289
92	0x3e004519	0.12526359
93	0xbc618b98	-0.013766192
94	0xbdc50995	-0.09620968
95	0xbd1905a6	-0.037358902
96	0x3d65bc1c	0.0560876
97	0xbd59ba66	-0.05315628
98	0xbd68e344	-0.056857362
99	0x3c1f9200	0.009739399
100	0xbd5c41d2	-0.05377371
101	0x3d239ef4	0.03994651
102	0x3c45fc00	0.012084007
103	0x3d586204	0.05282785
104	0xbe08c238	-0.13355339
105	0x3db5b2ac	0.088719696
106	0xbd9f50de	-0.07779096
107	0x3d753f3c	0.059874758
108	0xbdca3c92	-0.09874834
109	0xbdaada52	-0.083424225
110	0xbe034391	-0.12818743
111	0x3b70b180	0.0036726892
112	0x3cb70fd0	0.022346407
113	0xbda9e89c	-0.0829632
114	0xbd519fbc	-0.051177725
115	0xbc4c6320	-0.012474805
116	0x3a810580	0.0009843558
117	0x3d6aa5c0	0.057286978
118	0xbdbae890	-0.09126389
119	0xbdae42cc	-0.08508834
120	0x3deff512	0.11716665
121	0xbc80474c	-0.015658997
122	0xbdf165c4	-0.117869884
123	0xbdf12b3c	-0.117758244
124	0xbdce045f	-0.100594275
125	0xbb298a40	-0.0025869757
126	0xbd46b6f8	-0.048514336
127	0xbdf7e4d4	-0.121041924
128	0x3cbd26b8	0.023089752
129	0x3e082ebf	0.13299082
130	0x3df46c66	0.11934738
131	0xbda57fd8	-0.08081025
132	0x3d6606f4	0.056158975
133	0xbc605418	-0.0136919245
134	0x3dea3d6c	0.114374965
135	0xbc058af0	-0.008150801
136	0x3da18682	0.078869835
137	0x3d822844	0.06355336
138	0x3d649334	0.055804446
139	0x3ccc7798	0.02495937
140	0xbd8739ee	-0.06602846
141	0xbd93bd77	-0.07213872
142	0xbd581d5e	-0.05276238
143	0xbb64d4c0	-0.0034916848
144	0xbd1c984c	-0.03823118
145	0x3db84e80	0.08999348
146	0x3dc1d880	0.09465122
147	0x3d008da0	0.031385064
148	0x3ca33958	0.019924805
149	0x3d417ecc	0.047240064
150	0xbdd74fc4	-0.10513261
151	0xbd8dd4c4	-0.069253474
152	0x3d4d9a98	0.05019626
153	0xbdfd150b	-0.12357529
154	0x3d36e8e4	0.044655696
155	0x3c74fbc0	0.0149526
156	0xba1dae00	-0.0006015003
157	0x3e0528b1	0.13003804
158	0x3d189404	0.037250534
159	0x3c3f65f0	0.011682019
160	0xbc685298	-0.014179848
161	0xbcdbea50	-0.026845127
162	0x3dd6b060	0.104828596
163	0x3cfd4e58	0.030921146
164	0xbdac5bf8	-0.08415979
165	0xbca654dc	-0.020304136
166	0xbcc78688	-0.024356142
167	0x3df2db76	0.11858265
168	0xbde7f780	-0.11326504
169	0xbd6d2e48	-0.057905465
170	0x3a80fc80	0.0009840876
171	0xbd6397da	-0.05556474
172	0x3dc84ade	0.09779905
173	0xbdc6ab63	-0.09700658
174	0x3d2adfbc	0.041717276
175	0xbde0f6b4	-0.10984555
176	0x3dfebf5a	0.12438841
177	0xbccdef30	-0.025138468
178	0x3df21e52	0.118221894
179	0xbd540ff0	-0.05177301
180	0xbdaa5750	-0.08317435
181	0x3d36989c	0.044579133
182	0x3de434f0	0.111429095
183	0x3e080461	0.1328292
184	0x3d830368	0.06397134
185	0xbcb899d4	-0.022534288
186	0x3c91b4f0	0.017786473
187	0xbd1c060a	-0.038091697
188	0xbddb0910	-0.10695088
189	0x3c711c30	0.014716193
190	0x3d96a220	0.07355142
191	0xbd937ecf	-0.07201921
192	0xbd873d8c	-0.06603536
193	0xbddfab0a	-0.10921295
194	0xbe00d2f7	-0.12580477
195	0xbd591bc0	-0.05300498
196	0xbd3db040	-0.046310663
197	0xbdd1ab90	-0.10237801
198	0x3dcdc3ea	0.10047133
199	0xbdc37f6a	-0.09545787
200	0x3d36aa60	0.044596076
201	0x3e06c001	0.13159181
202	0x3ce32df0	0.027731866
203	0x3dadff9c	0.08496019
204	0x3d3c457c	0.045964703
205	0x3c90ca00	0.017674446
206	0xbdc6e87c	-0.097123116
207	0x3db1dd7e	0.086848244
208	0x3cd53588	0.026026502
209	0xbc9fcabc	-0.019505851
210	0x3cf41c40	0.029798627
211	0x3dc2d320	0.09512925
212	0xbc4785d8	-0.012177907
213	0xbdf46827	-0.11933928
214	0x3b0b79c0	0.0021282285
215	0xbda07dc7	-0.0783649
216	0xbd20bcd0	-0.039242566
217	0xbdd74424	-0.10511044
218	0x3df61b7a	0.120169595
219	0xbdc0d66c	-0.09415898
220	0x3e0285b7	0.1274632
221	0x3d769e58	0.060209602
222	0x3d850e8a	0.06496914
223	0x3def03ce	0.116706476
224	0xbdf55cd5	-0.11980597
225	0x3d7b6851	0.06137878
226	0xbd9aa57c	-0.07551095
227	0x3dccc2f4	0.09998122
228	0xbdbfef4d	-0.09371815
229	0x3dedbd39	0.11608357
230	0xbd80a7dc	-0.06282017
231	0x3d402568	0.046910673
232	0x3e053b08	0.130108
233	0x3dc06f42	0.09396221
234	0x3e118712	0.14211681
235	0xbdcada68	-0.09904939
236	0xbd9f8b8c	-0.07790288
237	0x3b56ad84	0.0032757232
238	0x3db39948	0.087694705
239	0x3cc53104	0.024071224
240	0xbc45cb80	-0.012072444
241	0xbca502bc	-0.020142905
242	0x3d3de641	0.046362165
243	0x3dd6399b	0.10460206
244	0x3d1a63f7	0.03769299
245	0xbdaefa58	-0.08543843
246	0x3c04e9b0	0.008112356
247	0xbc7ec4e6	-0.015549874
248	0xbda370f8	-0.079805315
249	0x3bc6bfe0	0.0060653538
250	0xbdcfb15f	-0.10141253
251	0xbd3f69de	-0.046731822
252	0x3d40dac1	0.04708362
253	0x3d2d16fc	0.042258248
254	0x3dfe0964	0.12404135
255	0x3c051c9e	0.008124499

linear_relu_stack.6.bias f4 [56]
0	0x3de14307	0.109991126
1	0x3cfb2f30	0.03066215
2	0xbbc43920	-0.005988255
3	0xbde2d72c	-0.11076197
4	0x3d82864d	0.06373272
5	0xbdd5a1a4	-0.10431221
6	0xbd34c551	-0.044133488
7	0x3dd049f5	0.10170356
8	0x3d8a6ae8	0.06758672
9	0xbdb31638	-0.08744472
10	0xbd9316aa	-0.07182057
11	0x3de56ae4	0.112020284
12	0x3d8c72fe	0.068578705
13	0xbd5aa720	-0.05338204
14	0xbe0146ea	-0.12624708
15	0x3cbbd610	0.022929221
16	0x3db11f15	0.086485066
17	0x3d5d7e98	0.054075807
18	0x3db72eee	0.08944498
19	0x3cab9f58	0.020950004
20	0x3dc46d52	0.09591164
21	0x3cb3681e	0.021900233
22	0x3db7f8b3	0.089829825
23	0x3cd9e2b0	0.02659735
24	0xbcc998c0	-0.02460897
25	0x3b6bf045	0.0036001366
26	0xbdfefc7d	-0.12450502
27	0x3de714b8	0.11283249
28	0xbd4bb7dd	-0.049735893
29	0x3e03669a	0.12832108
30	0xbd5d70c0	-0.054062605
31	0x3c042532	0.008065509
32	0x39ddce68	0.0004230619
33	0xbc2cb373	-0.010540831
34	0xbda5743d	-0.08078811
35	0xbdd339c8	-0.10313755
36	0xbd941b0c	-0.07231721
37	0xbe010dba	-0.12602893
38	0xbcda39c0	-0.026638865
39	0xbc18720a	-0.009304533
40	0x3ddf2c94	0.108971745
41	0xbda49f1b	-0.080381595
42	0xbbf5b2de	-0.0074981293
43	0xbdd27b71	-0.10277451
44	0xbdd96fb0	-0.10617006
45	0xbdbb957e	-0.09159373
46	0x3d35ad28	0.044354588
47	0x3ddbddd0	0.10735667
48	0x3e05b109	0.13055815
49	0xbe008a1f	-0.12552689
50	0xbcb58b10	-0.022161037
51	0x3d941ade	0.07231687
52	0x3dc206f0	0.094739795
53	0xbdce95e8	-0.10087186
54	0x3dc5059a	0.09620209
55	0x3c878136	0.016541105

linear_relu_stack.8.weight f4 [112, 56]
0	0xbbe56977	-0.007001098
1	0x3d96c34a	0.07361467
2	0xbd0c7840	-0.034294367
3	0xbd1ca08e	-0.038239054
4	0x3d4edfeb	0.050506514
5	0xbb94ab60	-0.004537031
6	0xbd925f2e	-0.0714706
7	0x3d9ee1f6	0.077579424
8	0xbd159988	-0.036523372
9	0xbdfb37f5	-0.12266532
10	0xbc212eb8	-0.009837799
11	0x3cc8070a	0.024417419
12	0x3daa47d8	0.08314484
13	0x3d9c4f10	0.076322675
14	0xbdae0b52	-0.08498253
15	0x3d9285e2	0.07154442
16	0xbdf2c1f8	-0.11853403
17	0xbcfcdf88	-0.030868307
18	0xbd843111	-0.06454671
19	0x3c9661b8	0.018357143
20	0xbe0dd94f	-0.13852428
21	0x3d9f5b3a	0.07781072
22	0xbd6b93fb	-0.057514172
23	0xbd70283a	-0.058632113
24	0xbddc3cd6	-0.10753791
25	0xbddff532	-0.10935439
26	0xbdd49d5b	-0.10381576
27	0xbccfc5e8	-0.025362924
28	0xbe04578e	-0.12924024
29	0x3df7e061	0.12103344
30	0x3dc33c10	0.095329404
31	0x3db7b90b	0.08970841
32	0x3d9263aa	0.07147916
33	0x3dfd3ec6	0.12365489
34	0x3daab48f	0.0833522
35	0xbdc72146	-0.09723143
36	0xbd9080b5	-0.07055799
37	0x3ce71b98	0.0282114
38	0x3dab333f	0.08359384
39	0xbd723396	-0.059131227
40	0x3df844ba	0.121224836
41	0xbd8e52ee	-0.06949411
42	0xbdb543b7	-0.08850806
43	0xbd28093c	-0.04102443
44	0xbd991919	-0.0747549
45	0xbdec6fbf	-0.115447514
46	0xbde96a38	-0.11397213
47	0x3d164b04	0.036692634
48	0xbd82cf2c	-0.06387171
49	0xbc3525d8	-0.011056386
50	0x3da43a66	0.08018951
51	0x3d8d25a2	0.068919435
52	0xbe09bf7b	-0.1345195
53	0xbdb781de	-0.08960317
54	0xbe000dee	-0.12505314
55	0xbdc807a7	-0.097670846
56	0xbb1de5a0	-0.0024093166
57	0xbc5cf370	-0.013485774
58	0x3dce919a	0.10086365
59	0xbdab7908	-0.08372694
60	0x3d86c75d	0.06580994
61	0xbda69fdf	-0.08135962
62	0xbd835b3f	-0.06413888
63	0xbda3054c	-0.07959995
64	0xbdafd222	-0.085850015
65	0x3df78976	0.120867655
66	0x3ddbae34	0.10726586
67	0xbd60b0ba	-0.05485604
68	0x3d4a255e	0.049352042
69	0x3da587ce	0.08082543
70	0x3dc03918	0.0938589
71	0x3bbf9560	0.0058466643
72	0xbdeb06a9	-0.1147588
73	0x3dd9eae7	0.10640507
74	0x3c339297	0.010960243
75	0xbddcca20	-0.1078074
76	0xbdc9b74b	-0.098494135
77	0xbc6d611e	-0.014488487
78	0xbc1f70c6	-0.009731477
79	0x3dbe693c	0.092974156
80	0x3da91e54	0.08257738
81	0xbdbaffc4	-0.09130815
82	0xbb06d30e	-0.0020572576
83	0xbdc91a49	-0.098194666
84	0xbe071837	-0.13192831
85	0x3d56f48a	0.052479304
86	0x3df8b4de	0.12143873
87	0x3dccb9a9	0.09996349
88	0xbd71cf5a	-0.059035636
89	0xbda436e0	-0.08018279
90	0xbdc04280	-0.09387684
91	0x3cc45048	0.023964062
92	0x3df2428a	0.118290976
93	0xbdbd94a3	-0.09256866
94	0xbd1baa90	-0.038004458
95	0x3d807d1d	0.062738635
96	0xbc09b5d1	-0.008405165
97	0x3d992644	0.07478002
98	0xbdfbe4d5	-0.122995056
99	0xbd934218	-0.07190341
100	0x3dc0e613	0.09418883
101	0xbd4fc220	-0.05072224
102	0x3db74300	0.08948326
103	0xbdc3be92	-0.09557833
104	0xbbf44d56	-0.007455508
105	0xbc92200c	-0.017837547
106	0x3c3ea957	0.011637053
107	0xba280d8c	-0.000641071
108	0x3c948166	0.018128108
109	0xbdc05bf2	-0.09392537
110	0xbbcdb1ed	-0.006277314
111	0x3d41c623	0.0473081
112	0xbc52b992	-0.012861626
113	0xbda0f500	-0.0785923
114	0xbd167f60	-0.036742568
115	0xbdd322b0	-0.103093505
116	0xbcab1c19	-0.020887421
117	0xbd646532	-0.05576057
118	0x3cfb321d	0.030663544
119	0x3c2c0729	0.010499754
120	0xbd8d46bc	-0.06898257
121	0x3df1fb66	0.118155286
122	0x3d14cf64	0.036330596
123	0x3c35a0c0	0.011085689
124	0xbd9a3019	-0.07528705
125	0x3da78804	0.0818024
126	0xbda7cefe	-0.081937775
127	0x3ded00e8	0.115724385
128	0x3def3b45	0.11681227
129	0x3cd2c596	0.025728982
130	0x3c94e474	0.018175341
131	0x3e013bef	0.12620519
132	0x3cd4e6a8	0.025988892
133	0x3de38035	0.11108438
134	0x3be62f05	0.007024648
135	0x3d5d4898	0.05402431
136	0x3cf60e10	0.030036002
137	0xbdb3697a	-0.087603524
138	0xbd802afa	-0.06258197
139	0xbd6e174d	-0.05812769
140	0x3d9c92ca	0.07645185
141	0xbc8390e3	-0.016060298
142	0x3c2c50d0	0.010517314
143	0x3de512e6	0.11185245
144	0xbdb9031a	-0.09033795
145	0xbdd8203f	-0.105530255
146	0xbdc36b2d	-0.095419265
147	0xbd86ec80	-0.065880775
148	0xbdee7450	-0.116432786
149	0xbd2aa574	-0.041661695
150	0x3d744128	0.05963245
151	0x3d4b0f3d	0.04957508
152	0xbca03b73	-0.019559598
153	0x3ae7c880	0.0017683655
154	0xbd1d6b88	-0.038432628
155	0x3dc0c9a6	0.094134614
156	0x3d3f3268	0.04667893
157	0xbcebbf64	-0.028777786
158	0x3c2377f0	0.009977326
159	0x3c99b748	0.018764153
160	0x3dd279ed	0.10277162
161	0xbde721d8	-0.11285752
162	0x3d8fecc8	0.07027584
163	0xbd75de16	-0.06002625
164	0x3d9020e7	0.070375256
165	0xbd4f2552	-0.0505727
166	0x3dfaab6a	0.12239726
167	0xbdd9cbfc	-0.1063461
168	0xbdefae21	-0.11703134
169	0x3da38760	0.07984805
170	0xbd1732a0	-0.036913514
171	0xbd02987a	-0.031883694
172	0xbda44686	-0.08021264
173	0xbdf00320	-0.11719346
174	0x3dc9db92	0.09856333
175	0x3cf0b73c	0.029384248
176	0xbd4c2f74	-0.049849942
177	0xbdd562fe	-0.10419272
178	0x3b9c14a0	0.004763201
179	0xbdfe2219	-0.12408847
180	0x3d4b0f66	0.049575232
181	0xbd1a09c8	-0.037606984
182	0x3cbf00e8	0.023315862
183	0xbd0fa3b0	-0.035068214
184	0xbde636ba	-0.11240907
185	0x3d38c8be	0.045113318
186	0xbd860423	-0.06543758
187	0xbc53f7d8	-0.0129375085
188	0xbb16a25b	-0.0022984955
189	0xbd833729	-0.06407005
190	0xbddaf052	-0.10690369
191	0x3d6918fc	0.056908593
192	0x3de8b5da	0.113628104
193	0x3e00047d	0.12501712
194	0xbd931c37	-0.07183116
195	0x3da249ce	0.079242334
196	0xbdc94181	-0.09826947
197	0x3dda949e	0.10672878
198	0xbc9ee4b0	-0.019396156
199	0xbdcc44af	-0.09974038
200	0x3dad3467	0.084572606
201	0xbd43bfc3	-0.0477903
202	0xbd3072df	-0.0430783
203	0xbcd97ff8	-0.026550278
204	0xbdbb9971	-0.09160126
205	0x3d272df8	0.040815324
206	0x3d6d3cf3	0.057919454
207	0xbde67adc	-0.11253902
208	0xbdef39b9	-0.116809316
209	0xbe063aff	-0.13108443
210	0x3b896d18	0.004193913
211	0xbdab4cfe	-0.083642945
212	0xbd2d5f27	-0.042327072
213	0xba829000	-0.0009961128
214	0x3d4f5eb1	0.050627414
215	0x3da3fb20	0.08006883
216	0xbe0967d3	-0.13418512
217	0xbd9f65f0	-0.07783115
218	0x3df3f1d7	0.11911362
219	0xbd2326e7	-0.039832022
220	0xbdcd0607	-0.10010915
221	0x3e062819	0.13101234
222	0xbd76dee0	-0.060271144
223	0xbdafff95	-0.0859367
224	0x3da52ad5	0.0806481
225	0xbc4983c8	-0.0122994855
226	0xbbc37660	-0.005965039
227	0x3c3e2cf0	0.011607394
228	0xbe117d97	-0.14208065
229	0x3d40c4c0	0.047062635
230	0xbdeb0937	-0.11476367
231	0x3decc14e	0.115603074
232	0x3dfd197a	0.12358375
233	0xbde1a113	-0.110170506
234	0xbd75288e	-0.05985313
235	0x3d6c5b07	0.057703998
236	0x3dee3d72	0.116328135
237	0x3e003553	0.12520342
238	0xbc7ec058	-0.015548788
239	0xbd82ee47	-0.06393104
240	0xbde189f4	-0.110126406
241	0x3bf55403	0.0074868216
242	0x3dd01b03	0.10161402
243	0xbd316fbc	-0.04331945
244	0x3df38f0a	0.11892517
245	0xbd36b648	-0.04460743
246	0xbe03d90b	-0.12875764
247	0xbdfc86fc	-0.12330434
248	0x3d3c360c	0.04594998
249	0x3cd3778a	0.025813837
250	0xbdaed9d3	-0.085376404
251	0x3cfccfe2	0.030860845
252	0xbcf3dc80	-0.029768229
253	0xbdc59fdd	-0.09649632
254	0x3d94fe88	0.072751105
255	0xbdfc27b9	-0.12312264

linear_relu_stack.8.bias f4 [112]
0	0x3a9095ca	0.0011030969
1	0x3d95843c	0.07300612
2	0x3dc9da9e	0.09856151
3	0x3dca469d	0.0987675
4	0xbc86043d	-0.016359443
5	0xbdba1fd6	-0.090881035
6	0xbdd2a28d	-0.1028491
7	0xbdd81067	-0.105500035
8	0x3d8fbf99	0.07018966
9	0xbe062b1a	-0.1310238
10	0x3c3c01b0	0.011475012
11	0x3d158bf4	0.036510423
12	0x3d91f81b	0.071274005
13	0x3d0cd974	0.034387067
14	0x3da7cb57	0.08193081
15	0x3d27ede0	0.04099834
16	0x3dec138e	0.11527167
17	0x3d3c9f20	0.04605019
18	0xbcd92bc8	-0.026510134
19	0xbd6dac1f	-0.058025476
20	0xbdeb99d4	-0.1150395
21	0xbcce45b4	-0.025179721
22	0x3c032a8b	0.0080057485
23	0x3d79e830	0.061012447
24	0xbd73c508	-0.059514076
25	0xbde808ea	-0.11329825
26	0xbd746474	-0.059666112
27	0xbda8a92c	-0.08235392
28	0x3dbb3c29	0.09142334
29	0xbdf805f2	-0.12110509
30	0xbe061c21	-0.13096668
31	0xbde17308	-0.110082686
32	0x3da48aff	0.08034324
33	0xbe020fe0	-0.12701368
34	0x3c4a5040	0.012348235
35	0xbc0e2000	-0.008674622
36	0x3dcc2f24	0.09969929
37	0xbdd5b198	-0.10434264
38	0x3e04e1f7	0.12976824
39	0xbd1ab5c2	-0.037770994
40	0x3d9c76e8	0.07639867
41	0xbd454886	-0.048164867
42	0x3d35bd77	0.04437014
43	0x3dd4eb10	0.10396397
44	0xbda59ce5	-0.08086566
45	0xbde1ef2a	-0.11031945
46	0x3aab8400	0.0013085604
47	0x3d9c8f92	0.07644571
48	0x3d2c7d30	0.042111576
49	0xbd446875	-0.04795118
50	0xbe03ad7e	-0.12859151
51	0xbdf3a1b8	-0.1189608
52	0x3d9c5464	0.07633284
53	0x3dce7422	0.10080744
54	0xbd8aa6fd	-0.06770132
55	0x3e024525	0.12721689
56	0xbdf88699	-0.121350475
57	0x3e04654a	0.12929264
58	0xbd92507c	-0.071442574
59	0xbd5c7f54	-0.053832367
60	0xbdf2b455	-0.11850802
61	0x3ddd519e	0.10806583
62	0xbdfe4bc0	-0.12416792
63	0x3d237d5c	0.039914474
64	0xbd803b07	-0.062612586
65	0xbdb35186	-0.08755784
66	0x3d9760fc	0.07391545
67	0x3da1baa1	0.07896925
68	0xbd13ae82	-0.036055095
69	0x3e023eaf	0.12719224
70	0xbde895ce	-0.11356698
71	0xbcbd5420	-0.023111403
72	0xbc8f0bed	-0.017461741
73	0x3c4e85fe	0.012605188
74	0x3d0922f3	0.033480596
75	0x3de9440c	0.11389932
76	0x3dd02634	0.10163537
77	0xbc8abfc8	-0.016937152
78	0xbdbf1a29	-0.093311615
79	0x3e08334c	0.13300818
80	0xbcdd12e2	-0.026986543
81	0x3dda2c6b	0.10653003
82	0xbdf66d47	-0.12032562
83	0x3df34492	0.11878313
84	0x3dc0a136	0.094057485
85	0xbb85da9c	-0.004084898
86	0xbdc1bda4	-0.09459999
87	0xbdbf910f	-0.093538396
88	0x3b8ca9d5	0.0042927065
89	0x3db7323c	0.08945128
90	0xbd3435cb	-0.043996613
91	0xbdccbd5e	-0.099970564
92	0xbd583fba	-0.05279515
93	0xbde32bbc	-0.11092326
94	0xbddfab7c	-0.1092138
95	0x3da0f63c	0.078594655
96	0x3bdb88ea	0.006699671
97	0xbd15025e	-0.03637921
98	0xbdb742b2	-0.08948268
99	0x3cc640b6	0.024200778
100	0x3d65490f	0.055977877
101	0xbd512386	-0.05105927
102	0x3da56371	0.080756076
103	0xbdb181ed	-0.086673595
104	0xbcaf2cb4	-0.02138362
105	0xbd51f430	-0.051258266
106	0xbe04619d	-0.12927862
107	0xbe08d25b	-0.13361494
108	0x3e049ee2	0.12951234
109	0xbd233668	-0.039846808
110	0xbca50908	-0.020145908
111	0x3dc9dd5a	0.098566726

linear_relu_stack.10.weight f4 [112, 112]
0	0xbdb7f391	-0.089820035
1	0x3cfa19f4	0.030529954
2	0x3d1a25a2	0.037633546
3	0xbdb9b4f2	-0.09067716
4	0x3dc11a67	0.09428864
5	0x3d1107d2	0.03540785
6	0xbcbd41fc	-0.023102753
7	0x3d9eb2bf	0.07748937
8	0xbdb28131	-0.087160476
9	0x3d8e4255	0.069462456
10	0x3ade7140	0.0016971007
11	0xbbc6ceb0	-0.0060671195
12	0xbdb1a16a	-0.086733654
13	0x3bcddd00	0.006282449
14	0xbd363851	-0.0444873
15	0x3db3e805	0.087844886
16	0xbdb5b61e	-0.08872627
17	0xbcd05808	-0.025432602
18	0x3b619980	0.0034423769
19	0x3cee6fd8	0.029106066
20	0x3d94600d	0.07244883
21	0x3d3d45ae	0.04620903
22	0x3cd6fe14	0.0262442
23	0xbd49c561	-0.0492605
24	0xbda0e441	-0.07856036
25	0xbd9d8a84	-0.076924354
26	0x3c487050	0.012233809
27	0x3d84e415	0.06488816
28	0x3d182aa6	0.037150048
29	0x3c82eae4	0.015981145
30	0x3cef639c	0.029222302
31	0x3db173bb	0.08664652
32	0x3abd5ec0	0.0014447793
33	0x3c6e9df8	0.01456403
34	0xbd2bc175	-0.041932542
35	0x3cbf43a0	0.023347676
36	0xbb579660	-0.0032896027
37	0xbd7730f3	-0.060349416
38	0x3d77cf3a	0.06050036
39	0x3d0e4bde	0.03474032
40	0x3db6bafd	0.08922384
41	0xbd48224a	-0.048860826
42	0x3d038492	0.03210885
43	0xbdb624af	-0.088937156
44	0x3d33264e	0.043737702
45	0x3d7cc802	0.06171418
46	0xbd693307	-0.05693343
47	0x3d1cef6e	0.038314275
48	0xbd13804e	-0.036011033
49	0x3da4478f	0.08021461
50	0xbd578997	-0.05262145
51	0xbc948268	-0.018128589
52	0x3d9eedc9	0.07760198
53	0xbc6ccd28	-0.01445321
54	0xbd8e8331	-0.069586165
55	0x3d66134e	0.056170754
56	0xbd2724f5	-0.04080673
57	0xbd1c540c	-0.03816609
58	0xbd76f70d	-0.0602942
59	0x3db35c91	0.0875789
60	0xbd9174e2	-0.07102372
61	0x3dba09a9	0.09083874
62	0xbc147ef8	-0.009063475
63	0xbdb67bdf	-0.08910345
64	0x3c0079d0	0.007841542
65	0xbc741150	-0.014896706
66	0xbd8ee810	-0.06977856
67	0xbc1ad128	-0.009449281
68	0xbb7446a0	-0.003727354
69	0xbcc91a4c	-0.024548672
70	0xbd898d29	-0.06716377
71	0x3d3f07ea	0.046638407
72	0xbda45ae0	-0.080251455
73	0x3cb82ebc	0.022483222
74	0xbd91cbbd	-0.07118938
75	0xbce63544	-0.02810157
76	0xbdadc621	-0.08485056
77	0x3bf0f050	0.007352866
78	0x3d7ee736	0.06223222
79	0xbd22856e	-0.03967803
80	0x3d03aaa6	0.032145165
81	0xbd59f83e	-0.053215258
82	0xbbe5a8e0	-0.007008657
83	0x3b7b22c0	0.0038320273
84	0xbd7e8b21	-0.062144402
85	0x3db3666b	0.08759769
86	0xbd9a54b1	-0.07535685
87	0xbcc2fb48	-0.02380146
88	0xbd8a9002	-0.067657486
89	0x3d963fbf	0.07336377
90	0x3d42fefa	0.047606446
91	0x3da05eb1	0.07830561
92	0x3d97b9fd	0.07408521
93	0x3d94c507	0.072641425
94	0x3d09870e	0.033576064
95	0x3da4c04f	0.080444925
96	0x3c5f3a00	0.013624668
97	0x3d5c8162	0.053834327
98	0xbcff28c8	-0.031147376
99	0xbd95fb87	-0.07323366
100	0xbdae13cb	-0.08499869
101	0x3d73c516	0.059514128
102	0x3dab1741	0.08354045
103	0xbd70d8ac	-0.058800384
104	0x3c47cb18	0.012194417
105	0x3ca180e0	0.019714773
106	0xbcad3f08	-0.02114822
107	0xbd354117	-0.044251528
108	0xbcfadfa8	-0.030624226
109	0x3d4e46e6	0.050360583
110	0x3cccd24c	0.025002621
111	0xbd82903b	-0.06375166
112	0x3d1edaae	0.038782768
113	0x3dbdb549	0.09263093
114	0x3d02b9c2	0.031915434
115	0x3bb58520	0.0055395514
116	0xbd980926	-0.0742362
117	0x3ce90b04	0.028447635
118	0x3d5956fe	0.053061478
119	0xbd2fa0bd	-0.0428779
120	0xbd146c3d	-0.036236037
121	0xbc14deb0	-0.009086296
122	0xbbf79660	-0.007555768
123	0x3d450802	0.04810334
124	0x3d86eb0b	0.065878
125	0xbcb8e55c	-0.022570305
126	0xbd5b98f5	-0.053612668
127	0xbdbe1cc7	-0.092828326
128	0x3d3d6712	0.046240874
129	0xbd90c0a7	-0.070679955
130	0x3d8ae44d	0.06781826
131	0xbd8d45f3	-0.068981074
132	0xbcbe783c	-0.023250692
133	0x3d9a8e05	0.07546619
134	0x3dab2cd5	0.083581604
135	0xbd8f4e09	-0.06997306
136	0xbdc04719	-0.09388561
137	0x3d9234e5	0.07138995
138	0xbcce61b0	-0.025193065
139	0x3d6312ee	0.055437975
140	0x3da98311	0.08276952
141	0xbd5a41a9	-0.053285275
142	0x3d7ce7a6	0.061744355
143	0x3d86b609	0.06577689
144	0xbcf4e05c	-0.02989214
145	0x3d7e2c12	0.062053747
146	0xbbde4810	-0.006783493
147	0xbd45164d	-0.04811697
148	0x3cda78b8	0.026668891
149	0x3d06362e	0.032766514
150	0xbda59794	-0.08085552
151	0x3dae1259	0.08499593
152	0xbd0edb8f	-0.034877356
153	0x3d8d503f	0.06900071
154	0xbd811c47	-0.063042216
155	0x3d896099	0.06707878
156	0x3db1e8c7	0.08686977
157	0x3daf98fb	0.085741006
158	0x3d0b8dfa	0.034070946
159	0xbca18e58	-0.019721195
160	0x3da0250f	0.07819568
161	0x3da0923f	0.07840394
162	0x3ced3d8c	0.028960012
163	0x3d959e49	0.07305581
164	0x3dba4b33	0.09096374
165	0x3d9010a9	0.07034428
166	0xbcccfb38	-0.025022134
167	0xbd34c3b7	-0.04413196
168	0xbd8bb919	-0.06822414
169	0x3d939201	0.072055824
170	0x3da0d9b5	0.07854024
171	0xbd2f4102	-0.042786606
172	0x3d38cd6a	0.045117773
173	0x3c9d9568	0.019236282
174	0x3d0e38ea	0.034722246
175	0xbd54c185	-0.051942367
176	0x3da0f129	0.07858498
177	0x3d0353ce	0.032062344
178	0xbd871ad2	-0.065969124
179	0xbd2527c4	-0.040321127
180	0x3daad1dd	0.083408095
181	0xbcad749c	-0.021173768
182	0x3d65e84e	0.056129746
183	0xbd72ed97	-0.059308615
184	0xbd3059a9	-0.043054257
185	0x3d32ebce	0.043681912
186	0x3dc0d563	0.094157
187	0xbd27613b	-0.04086421
188	0x3d4d7096	0.0501562
189	0x3c98fc3c	0.018674962
190	0xbdbe50ea	-0.09292777
191	0xbd664ac5	-0.05622365
192	0xbdaf3b55	-0.085562386
193	0x3dbe291b	0.09285184
194	0x3db90a63	0.09035184
195	0x3db296c9	0.08720166
196	0xbc1aab30	-0.009440228
197	0xbd0d63b5	-0.034518916
198	0xbda855c3	-0.08219483
199	0xbd3093da	-0.043109752
200	0xbd961438	-0.07328075
201	0xbd198ff1	-0.03749079
202	0x3d8db11f	0.06918549
203	0xbd8e33f0	-0.069435
204	0x3da14701	0.07874871
205	0xbda95504	-0.082681686
206	0x3d82bc51	0.06383575
207	0xbc811b04	-0.015759952
208	0x3db72627	0.08942824
209	0xbdbd34bd	-0.09238575
210	0xbd6c1be0	-0.05764377
211	0x3d5d4516	0.054020964
212	0xbdb061c4	-0.08612397
213	0x3c481ed0	0.0122143775
214	0xbd9c8c1e	-0.07643913
215	0xbc40e290	-0.011772767
216	0x3c2596b0	0.0101067275
217	0x3d7a26da	0.061072208
218	0x3c90514c	0.01761689
219	0x3d56d3f6	0.052448235
220	0xbd9be968	-0.07612878
221	0xbdbeed21	-0.093225725
222	0xbb95a1f0	-0.0045664236
223	0x3d57eb62	0.052714713
224	0xbcf8d1bc	-0.030373447
225	0xbd633a44	-0.05547549
226	0xbc3c05e0	-0.01147601
227	0xbdbbaf04	-0.09164241
228	0xbc941294	-0.018075265
229	0xbd7ce12a	-0.06173817
230	0x3d84424d	0.06457958
231	0x3d75fe5a	0.06005702
232	0xbd90d710	-0.0707227
233	0xbcf00568	-0.029299453
234	0x3cf65730	0.030070871
235	0xbc80af38	-0.01570855
236	0x3d053c6e	0.032528333
237	0xbd00a846	-0.031410478
238	0xbd9efd7a	-0.077631906
239	0xbdb2740d	-0.08713541
240	0x3d8ca70b	0.068677984
241	0xbdb9ba0f	-0.09068691
242	0xbd9cf255	-0.07663409
243	0xbd418551	-0.04724628
244	0x3cb42330	0.021989435
245	0x3dbb2fa5	0.09139947
246	0xbd240a2b	-0.04004876
247	0x3d8232d1	0.06357349
248	0xbdb35e0a	-0.08758171
249	0xbd1b4564	-0.037907973
250	0xbda1b2c0	-0.07895422
251	0xbd02e6b0	-0.031958282
252	0x3ccde5b8	0.025133952
253	0x3d0f0342	0.034915216
254	0xbdac0b93	-0.08400645
255	0x3d9f64a5	0.07782868
