chebyshev_0.pt (torch, 259913 bytes, 27 tensors)

linear_relu_stack.0.weight f4 [28, 14]
000000 0c f6 b9 3a 15 bf 14 3e ba 20 64 be 56 0d 46 be
       0.0014187708 0.14526017 -0.22278109 -0.19341025
000010 18 02 d9 bd fe a4 99 3d 0c 61 10 bc ed 70 5c 3e
       -0.105961025 0.07502173 -0.0088122 0.21527453
000020 58 9f b2 bc e9 a5 96 3d 96 0a 9f bd 4f 30 4b bd
       -0.021804497 0.073558636 -0.07765691 -0.049606618
000030 c7 77 81 be be 0a 33 be f7 6f f0 bd de 2f 78 3c
       -0.25286695 -0.17484567 -0.117401056 0.015148131
000040 10 77 cc 3d 28 3d 1d 3e 59 d3 35 be 22 46 e3 bd
       0.09983647 0.1535536 -0.17756404 -0.11097361
000050 2e ee cf 3d ff 4d 68 3e 8d 19 71 bd c0 fe 47 3e
       0.10152851 0.22686003 -0.058862258 0.19530773
000060 c6 59 44 bd a0 bd be 3c 8c b1 72 3e 3b 2b 81 be
       -0.047937177 0.02328378 0.23700541 -0.25228295
000070 73 1c 22 be 5f c6 9d bd 3e 31 c2 bd d6 9a 76 3e
       -0.15831165 -0.07703852 -0.094820485 0.24082503
000080 99 2c 3b be 02 e3 ec bd fe 47 49 be 72 0b 77 be
       -0.18278731 -0.11566736 -0.19656369 -0.2412546
000090 ca 75 16 be 17 28 75 3e 11 1e 04 3e 93 9d 0e 3e
       -0.1469337 0.23941074 0.12902094 0.13927297
0000a0 70 3c c2 3c ff aa 02 be 96 25 19 3d 0c eb 76 be
       0.02371046 -0.12760542 0.03738936 -0.24113101
0000b0 ec a6 4e be 97 1e 15 be 5a 1f 32 3e 19 65 2a 3e
       -0.20180863 -0.1456245 0.17394772 0.16640128
0000c0 13 d9 e7 bd c8 f1 2c ba db 14 28 3e dd 66 84 3e
       -0.113207005 -0.00065973075 0.16414206 0.25859728
0000d0 97 23 cb 3d 2e 31 ec 3c 3b ac 2f 3e 51 9f 28 be
       0.099188976 0.028832044 0.17155544 -0.16467024
0000e0 fa 51 52 3d f1 15 4c be 3e 77 46 be 67 de 0b be
       0.05134771 -0.19930245 -0.19381425 -0.13659059
0000f0 52 9f e5 3d d7 08 ef 3d d6 db 2b be 83 a1 b8 3d
       0.112120286 0.11671608 -0.1678308 0.09015181
000100 a2 e8 17 3e 41 88 01 bd 2e bf 54 3c 5b ba 82 3d
       0.14834836 -0.031624082 0.012985034 0.06383201
000110 fc 04 2b 3e c4 0b 84 3e 9a e6 52 be 6c 96 c8 bd
       0.1670112 0.25790226 -0.2059578 -0.09794316
000120 48 1d d7 3d f0 c0 62 3e 88 27 6e 3e be 7a 71 3e
       0.10503632 0.22143912 0.23257267 0.23581979
000130 90 dc 59 3d c5 fb 6d be a0 68 c9 3c 7e 36 2b be
       0.05318886 -0.23240574 0.024586022 -0.16720006
000140 93 0d 7f be 9a 28 73 3e 84 17 50 3e de 7f 88 be
       -0.24907522 0.23745957 0.2032147 -0.26660055
000150 c8 e5 4c 3d dc 69 38 bd 3c 25 34 bd be 8d fa bd
       0.050023824 -0.04502283 -0.043980822 -0.122340664
000160 b8 7c d2 3d 56 19 22 be 74 a7 c8 3d 62 66 0a 3e
       0.102776945 -0.15829977 0.09797564 0.13515618
000170 a0 ea 43 3e 20 a9 cc 3d e3 6e 87 be 4f 88 31 be
       0.19132471 0.099931955 -0.26451787 -0.17337154
000180 7a a6 08 3e 60 1f 65 3d c6 9a 5f be cd bc 13 be
       0.13344756 0.055938125 -0.21836385 -0.1442749
000190 75 9a 77 3e 3c 4b 2e 3e 2a 7f ec bd af d1 6d bd
       0.24180014 0.17020887 -0.11547692 -0.058061298
0001a0 3f a4 81 be 80 97 88 3b 22 a5 54 be 75 fd 59 be
       -0.25320622 0.004168451 -0.20766118 -0.21288092
0001b0 e4 47 9f bc 92 d7 03 3d 38 af f3 bd 8c 71 19 3e
       -0.01944346 0.032188006 -0.11898655 0.14984721
0001c0 d0 8a 26 be 32 53 78 3e c0 8c 3b 3e 30 c9 66 be
       -0.1626389 0.24250486 0.1831541 -0.22537684
0001d0 22 3a 88 bd 60 95 45 3c e0 b7 1f 3d 4c d1 81 3d
       -0.06651713 0.01205954 0.038993716 0.06338748
0001e0 c8 cb d6 3d 50 25 83 3c be 88 05 be 10 80 01 3e
       0.10488087 0.016009003 -0.13040444 0.12646508
0001f0 ef 42 83 be 94 35 22 be 95 3f 9c bd 73 61 0d be
       -0.25637004 -0.15840751 -0.07629315 -0.13806705
000200 9e 34 ad bd 26 d3 69 be 8e 95 43 bd 45 b9 43 3d
       -0.084573016 -0.22834453 -0.04775005 0.04778411
000210 11 9c 28 be d6 fa bc bc 54 ce 3b 3e 53 2d 15 bd
       -0.16465785 -0.023068827 0.18340427 -0.036420178
000220 2c 52 e4 ba 78 64 03 bd 1a 61 3a 3d 8e 93 25 3e
       -0.0017419509 -0.032078236 0.04550276 0.16169569
000230 9e 9b 85 3e 5e ac 27 3e 18 4a 85 3e e0 4d 42 bc
       0.2609529 0.16374347 0.26033092 -0.011859387
000240 2a e7 79 be 43 0d 08 be 3a 36 35 3e b2 a2 f0 bb
       -0.24404588 -0.13286309 0.17696467 -0.0073436135
000250 fb ae 03 be f6 47 4c be 24 76 7a be 27 28 61 be
       -0.12859719 -0.19949326 -0.2445913 -0.21987973
000260 01 c0 46 bd 9b 15 1b 3e ce 2d 17 3e 77 8c 85 be
       -0.048522953 0.1514496 0.14763567 -0.2608373
000270 28 e6 2d 3e 22 f1 52 be 13 65 72 bd 86 44 e4 bd
       0.16982329 -0.20599797 -0.059178423 -0.11145882
000280 7f 1d 5f bd 19 75 63 bd 1c b5 72 be 18 33 69 be
       -0.05447149 -0.055531595 -0.237019 -0.22773397
000290 7b ce 1e bd d2 9e d5 3b 21 60 f2 bd 19 46 d4 3d
       -0.038771134 0.006519177 -0.118347414 0.103649326
0002a0 98 6f 73 be ee f1 7f bc ed e8 6d 3e ea 88 d9 bd
       -0.23773038 -0.015621645 0.23233385 -0.106218174
0002b0 33 51 74 3e 62 fa cb 3d c7 e2 79 be 49 08 30 3e
       0.238591 0.09959866 -0.24402915 0.1719066
0002c0 cb c7 e8 bc 55 cc ee bd 29 ad 5d 3e 2f 5d 5a be
       -0.028415581 -0.11660067 0.21648087 -0.21324609
0002d0 70 29 00 3d c5 e3 5a bd b5 3b 39 3e 71 0e ad 3d
       0.031289518 -0.053439874 0.18089183 0.0845002
0002e0 d4 a6 f2 3d 32 ea ac 3d 0b aa 62 bd ba c9 3d bd
       0.11848226 0.08443107 -0.055337947 -0.04633496
0002f0 78 0d 58 be b5 37 1e 3e 5b 9c 4f 3e 3e 3f 31 3e
       -0.21098888 0.15450938 0.20274489 0.17309281
000300 6f 0f 4b be 98 fc 08 3b 32 02 4b be 63 99 20 be
       -0.19830106 0.002090251 -0.19825056 -0.15683512
000310 7e 73 21 be 40 b1 b8 3d 85 5d 21 be 58 a1 fc bb
       -0.15766713 0.09018183 -0.15758331 -0.0077096634
000320 da 4b 55 3c c1 76 2e 3e a1 dc 4c be 09 d7 3d be
       0.013018573 0.17037489 -0.20006038 -0.1853906
000330 60 1c 20 be 3f d2 3d 3e 4d 77 c8 bd 39 11 65 3e
       -0.15635824 0.18537234 -0.0978838 0.22369851
000340 4a d8 c2 3d 87 2c 05 3d 2e 85 fa 3b 1c 6f 80 bd
       0.0951391 0.032513168 0.007645271 -0.062711924
000350 db f4 31 3d 57 68 52 bd 03 61 90 bb 40 3e c9 3c
       0.043446403 -0.051369037 -0.004406096 0.024565816
000360 14 8e 58 be cf e2 18 be 11 06 65 3e ab d7 55 be
       -0.21147949 -0.1493027 0.22365595 -0.20883052
000370 ad 72 47 bc e3 c1 8b 3e a4 0f d9 3d 19 52 87 3c
       -0.012173337 0.2729636 0.10598686 0.01651864
000380 4f 27 75 be 34 c7 02 3e 25 2a 3c be 38 c8 aa bd
       -0.23940776 0.12771302 -0.18375452 -0.0833897
000390 9d 3f a9 bd 2c 87 41 bd e8 aa 32 3c f7 d9 59 3e
       -0.082640864 -0.04724805 0.010905005 0.21274553
0003a0 83 8a ea 3c 18 4f 6e 3e bd 08 20 3e 4d 06 34 be
       0.0286305 0.2327236 0.15628333 -0.17580529
0003b0 f1 6a e9 3d 10 d8 46 be cf 16 d9 bd 42 28 96 3d
       0.113973506 -0.19418359 -0.106000535 0.07331897
0003c0 0e c0 c0 3d e6 56 54 3e b8 9b b7 bd 0a a1 a4 bb
       0.094116315 0.20736274 -0.08965248 -0.00502408
0003d0 4f 4f 08 3e 5f e0 86 be 30 d1 49 3e ab 7a 5d be
       0.13311504 -0.26343057 0.19708705 -0.21628825
0003e0 d1 81 0c 3c 40 81 25 bd c3 fc 0a be ac 98 22 3d
       0.0085758725 -0.040406466 -0.13572983 0.03969638
0003f0 df b1 6b 3e 2b 42 b2 bd 28 43 19 be b8 b2 b7 bd
       0.23017071 -0.08704027 -0.14967024 -0.08969635

linear_relu_stack.0.bias f4 [28]
000000 ba 38 17 be 5e 97 1e be 7c 9d 48 be fb 6b 30 3e
       -0.14767733 -0.1548743 -0.19591326 0.17228691
000010 eb c5 44 3e 98 2e f9 bc 48 5f 1e be 46 90 4c 3e
       0.19216125 -0.030417725 -0.15466034 0.19976911
000020 30 03 2f 3e fe f7 30 3c 49 fb f6 bd 2a a6 7e 3e
       0.1709106 0.010801313 -0.120596476 0.24868074
000030 dd 70 e5 3d e4 cd 59 be d3 10 82 3e 91 1e 58 3e
       0.112031676 -0.21269947 0.2540346 0.2110541
000040 82 b9 d5 bd 17 e9 1e 3e b5 4d 12 be 17 80 4e bd
       -0.104357734 0.15518604 -0.14287455 -0.050415125
000050 0b 5b 67 3e c0 ed 34 3c 5d 8c 41 be 4e ec c6 bd
       0.22593324 0.011043012 -0.189012 -0.0971304
000060 fd 1a 82 bd 58 16 7a bd 39 34 90 3c 90 27 83 3e
       -0.06352804 -0.061056465 0.017603027 0.2561612

linear_relu_stack.2.weight f4 [28, 28]
000000 b0 c6 25 3c a5 f8 ee bd a0 b2 1e 3c 22 94 b9 3d
       0.010118172 -0.11668519 0.009686142 0.09061457
000010 3a fc bf 3d 06 dd 30 be a4 83 0a bd cb cf 0f be
       0.0937428 -0.17271814 -0.03381695 -0.1404411
000020 7c 24 a5 bd 46 72 8b 3d 3f 6c 09 be 1e df 8f 3d
       -0.080635995 0.06808905 -0.13420199 0.07024978
000030 f1 40 24 3e 90 14 4b 3c 2c fa 00 be 46 ab 8a bd
       0.16040398 0.012395039 -0.12595433 -0.06770949
000040 84 07 29 3d a9 85 13 be 86 48 c0 3d 5e b0 2f be
       0.041266933 -0.14406456 0.09388833 -0.17157122
000050 02 07 3a be 9c 08 3c be dc 07 1d bd b3 20 02 3e
       -0.18166736 -0.18362659 -0.038337573 0.12707786
000060 19 29 37 be 79 d9 20 3e b6 d2 9a bd 90 b6 62 3d
       -0.17886771 0.15707959 -0.07559721 0.055349886
000070 20 33 0d 3c ab 7f 2e be 6d 7d 20 3e 96 65 d0 3d
       0.008618146 -0.17040889 0.15672846 0.10175626
000080 19 5b 40 3e fe 88 c3 3d 5f 78 ff bd bf 81 21 3e
       0.18784751 0.095476136 -0.12474131 0.1577215
000090 80 68 26 3c e6 89 b7 3d 10 2b 1b be b4 a4 5e bd
       0.010156751 0.08961849 -0.15153146 -0.054356292
0000a0 c3 02 3e be 5a bf 96 bd c4 fd 26 3d 5a f1 17 be
       -0.18555741 -0.07360716 0.040769354 -0.14838162
0000b0 08 bf 76 3d 6a c3 cf 3d b0 ab d7 3c c4 7a 01 be
       0.060240775 0.10144694 0.026326984 -0.12644488
0000c0 c5 09 16 be 58 d0 6e bd 76 e4 a9 3d a1 e2 3e 3e
       -0.14652164 -0.05830416 0.082955286 0.1864114
0000d0 86 8e de 3d d0 55 ae bc 7a b3 87 3d 67 da 3d be
       0.10867028 -0.021281153 0.06626029 -0.18540345
0000e0 a8 48 25 be 0a 98 b4 3d 0d 39 db bd 7e 33 ba 3d
       -0.16140997 0.08818062 -0.10704241 0.090918526
0000f0 46 9c 08 be f5 b3 bf bd 03 66 1f be 8e f8 c9 3d
       -0.13340864 -0.09360496 -0.15566258 0.09861861
000100 88 bf 9d bc 77 ee 14 3e 8a 86 ef 3d ce 29 d6 3d
       -0.019256368 0.14544092 0.11695583 0.10457192
000110 00 21 c7 3b 68 53 6f bd c0 4e 28 bd c0 bf cd 3c
       0.006076932 -0.05842915 -0.041090727 0.025115848
000120 76 db bf 3d 9e 93 07 be 4b 6a 22 3e 60 54 a8 bc
       0.09368031 -0.13239905 0.1586086 -0.020548046
000130 4b 28 22 be 9d 68 d1 bd 5d 3a 2b 3e 2f fa 30 3e
       -0.15835683 -0.102250315 0.16721483 0.17282937
000140 69 40 33 be df 7c 08 3e 6a f7 c1 3d f2 17 e5 3d
       -0.1750504 0.13328885 0.094710186 0.11186208
000150 1b 1b 2c 3e e0 40 cc bd f4 24 7e 3d 4d af b1 3d
       0.16807215 -0.099733114 0.06204696 0.08676014
000160 d1 63 3e bd ce 85 81 3d f0 b5 5e bd 43 5f f9 3d
       -0.04648191 0.06324349 -0.054372728 0.12176373
000170 08 c5 56 bd f3 9c 7b bd b1 41 4b 3d 2c 43 8d 3d
       -0.052433997 -0.061428975 0.049623195 0.06897578
000180 e9 25 ab bd c6 0c a4 3c 73 61 f3 3d f3 e3 79 bc
       -0.0835684 0.020025622 0.11883821 -0.015252101
000190 0c a4 7a 3d 82 9c 33 bd 7b 7d 8e 3d 25 98 04 be
       0.061191604 -0.04385043 0.06957527 -0.12948664
0001a0 61 05 d8 bd a3 74 c4 bd 4f d8 31 3e 4d 77 4c bd
       -0.10547901 -0.09592559 0.17367671 -0.04991846
0001b0 d4 cb dd 3a a4 5e a9 bd cb a0 4a 3e 28 8e 40 3e
       0.0016921707 -0.082700044 0.197879 0.18804228
0001c0 d4 f2 11 be 0a e1 1c be 65 af 12 be 00 ec 6e ba
       -0.14252788 -0.1532022 -0.1432472 -0.0009114146
0001d0 54 50 45 bd 1e 55 fd bd a3 d1 8a bd f8 3e 12 3d
       -0.04817231 -0.123697504 -0.06778266 0.035704583
0001e0 f7 38 ca bd 4c 85 2b 3d c0 81 31 bd 14 8b bb bd
       -0.098741464 0.04187517 -0.04333663 -0.091573864
0001f0 38 b1 d4 3c 21 1f 1f 3e 58 d5 02 be 30 c6 0f 3c
       0.02596341 0.15539218 -0.12776697 0.008775279
000200 eb b9 8e bd 77 e6 3d 3e 43 9a 37 be 9c 84 39 be
       -0.06969055 0.18544947 -0.1792994 -0.18116993
000210 85 b0 3e 3e a1 df f4 bd 54 68 14 3d 38 9d 85 bc
       0.18622024 -0.11956716 0.036232308 -0.01631032
000220 44 10 23 bd 18 e3 2c bd 2a f0 f5 3d 30 fe 13 3c
       -0.039810434 -0.04220876 0.12008698 0.009032771
000230 69 69 3c be d6 13 d2 bd e5 c0 62 bd 37 a9 ce 3d
       -0.18399586 -0.1025769 -0.05535974 0.10090869
000240 ce 16 f4 bd c3 78 36 3e 8c 68 2c bd 5e 3f ca bc
       -0.11918412 0.17819504 -0.04209189 -0.024688419
000250 e7 a1 17 3e ee 86 c2 3d 93 a0 2d 3e 08 af f2 3d
       0.14807855 0.09498392 0.16955785 0.11849791
000260 48 d1 6a bd 86 9b ed bd 80 5f 66 bc 30 6c 29 3e
       -0.057328492 -0.11601929 -0.014060855 0.16545177
000270 96 e5 81 bd 88 5f 2a be b1 9e b1 3d 95 9e 45 3e
       -0.06342618 -0.16638005 0.08672846 0.19298775
000280 c5 d3 36 bd c0 3c 20 be 3e 88 2f be de ae 45 3d
       -0.044635553 -0.15648174 -0.17141816 0.04826247
000290 45 fb a2 bb b3 72 c3 bd e8 76 1c 3d 94 d7 a5 3d
       -0.0049738013 -0.095433615 0.038199335 0.08097759
0002a0 8b e8 19 3e 41 e3 1f 3e 6c 05 98 bc 3c fd 23 be
       0.15030114 0.15614034 -0.018557273 -0.1601457
0002b0 26 42 2c be 81 af 34 3e 52 17 ab 3d 71 65 bc 3d
       -0.16822109 0.17645074 0.08354057 0.09199036
0002c0 88 6f 27 be 57 33 33 3e 87 76 41 3e 4a ca 38 3e
       -0.1635114 0.17500053 0.18892871 0.18045917
0002d0 ac 3f 23 be ea 7a 7b bd 34 18 05 be b3 35 41 3e
       -0.15942258 -0.061396517 -0.12997514 0.18868141
0002e0 2c 4d a6 bd 74 26 9d bd e0 07 df 3d ac 9f 9f bd
       -0.08120188 -0.0767335 0.10890174 -0.07794127
0002f0 8e 8c aa bd 18 6b 87 bc 88 ce 94 bc 3e 68 15 be
       -0.0832759 -0.016530558 -0.018164888 -0.14590546
000300 cd 84 2b 3e d5 ba aa bd 8a 49 89 3d 2e 69 32 3e
       0.16749878 -0.08336417 0.067034796 0.17422935
000310 3e 30 c3 3d 90 2f db 3c ef a7 24 3e 68 1c d0 3c
       0.09530686 0.026756078 0.16079687 0.02540417
000320 89 10 b3 bd 59 11 37 3e 24 35 37 3d c6 cf 3c be
       -0.08743388 0.17877711 0.044728413 -0.18438634
000330 20 5f 5c bd 6b d1 03 be d5 aa 29 3e 58 ab ff bc
       -0.053801656 -0.12872855 0.16569073 -0.031209633
000340 74 65 30 be 90 a4 42 bc 3a 10 f3 3d a4 1a 49 3d
       -0.17226201 -0.011880055 0.11868329 0.049097672
000350 c8 c3 74 3d f0 c7 8f 3c 4a 4b 90 3d a0 9a 3c bd
       0.059757024 0.017551392 0.0704561 -0.0460459
000360 7d f6 99 bd fb e1 34 be bb c8 11 be 02 be a7 3d
       -0.07517717 -0.1766433 -0.14236729 0.08190538
000370 41 2b e5 bd 48 1b de 3c b0 13 77 3d a0 3a 5b 3c
       -0.11189891 0.027112618 0.06032151 0.0133806765
000380 c9 56 fa bd 99 3d 31 3e 0c 7c f4 bd 4a 92 20 3e
       -0.12223584 0.17308654 -0.119377226 0.15680805
000390 4d 42 18 be a0 33 3a bd 0a 89 d2 3d 6b 73 b1 bd
       -0.14869042 -0.04545939 0.102800444 -0.08664592
0003a0 33 90 22 3e 0e ab 03 be 52 e8 2a be e3 26 bf bd
       0.1587532 -0.12858221 -0.16690186 -0.09333589
0003b0 f2 24 01 3d 37 19 28 3e f7 50 b5 bd 68 a7 6e 3d
       0.031529374 0.16415869 -0.088533334 0.05826512
0003c0 cc 5e 39 bd 16 83 47 bd 5e 4b 04 3e f6 cb 1e be
       -0.04525642 -0.048708998 0.12919375 -0.15507492
0003d0 52 c0 33 3c 65 fc 35 3e d0 bb d4 bc bf 3f 15 3e
       0.010971146 0.17772062 -0.025968462 0.14575098
0003e0 82 44 89 bd 14 38 1d 3e 7b 8e 39 be c0 17 17 bd
       -0.0670252 0.15353423 -0.18120758 -0.036887884
0003f0 c5 10 cb bc 6b 93 90 3d 64 fc aa 3d 1d 50 1e 3e
       -0.02478827 0.07059368 0.08348921 0.15460248

linear_relu_stack.2.bias f4 [28]
000000 1a 02 00 be c1 06 a0 bd 22 d0 f6 bd 05 ef 3c 3e
       -0.12500802 -0.07813788 -0.12051417 0.18450554
000010 e8 ba 88 bc 43 c1 ed bd 98 07 98 bd e7 c8 d5 bd
       -0.016690686 -0.11609127 -0.074233234 -0.1043871
000020 ea e9 89 3d dc 09 1f be 7a ce 3c be b4 cc 42 be
       0.06734069 -0.15531105 -0.1843814 -0.190234
000030 8e 73 ba 3d 1e 5f bf 3d 48 2f f3 bd 0f 8c 3a 3d
       0.091040716 0.09344314 -0.118742526 0.045543727
000040 d9 e2 17 3e 97 e6 08 3d 7c c7 23 bd e6 dd 4b 3c
       0.1483263 0.033423033 -0.039985165 0.012443041
000050 f8 00 a6 bc 42 df c2 3d 92 c9 0b be 7e a1 d6 3d
       -0.020264134 0.09515239 -0.13651112 0.10480021
000060 b9 4c c6 3d ef f2 fa bd 05 05 1e 3e 30 3e 48 3e
       0.096826024 -0.12253367 0.15431602 0.19554973

linear_relu_stack.4.weight f4 [56, 28]
000000 9f 94 98 bd 20 d0 58 bd 9e e1 c0 3d fc 5a 0e be
       -0.07450222 -0.05293286 0.09418033 -0.13901895
000010 6a 0e 99 3d e2 d6 56 3d 34 49 03 3e 44 17 28 be
       0.074734524 0.052451022 0.12820894 -0.16415125
000020 17 ea 1a be 60 58 c0 3d 16 6a 8b 3d ee c3 2a be
       -0.1512836 0.09391856 0.06807344 -0.16676304
000030 87 d5 d7 bd 8c 10 31 be 0c 6d 01 be 6d e8 9b bd
       -0.10538774 -0.17291468 -0.12639254 -0.07612691
000040 a2 10 29 3e 3e ee eb bc 5a 4b de 3d 9e 25 41 3e
       0.16510251 -0.028800126 0.10854216 0.18862006
000050 76 62 b0 3d 39 3d 2d be de c3 c2 3d ac ba a5 3d
       0.0861253 -0.16917886 0.09510015 0.080922455
000060 ef 5d 1f 3e 36 c7 37 be 7a 08 ee 3d 2a e5 26 3e
       0.15563177 -0.17947087 0.116227105 0.16298357
000070 ca 0a 34 be f8 f9 a1 3c 71 33 25 3e 7d 05 0e be
       -0.1758224 0.019772515 0.16132905 -0.13869281
000080 dc fc 7d 3d fa cc b5 3d 92 2b 6b 3d fb 68 40 3e
       0.062008724 0.08876987 0.0574146 0.18790047
000090 96 7c 17 3e 31 26 25 3e ed a7 f4 bc c2 2a 21 3e
       0.1479362 0.1612785 -0.02986523 0.15738967
0000a0 a3 75 3b be 14 db d0 bd 76 73 0c bd 6e 5f 69 bd
       -0.18306594 -0.10198036 -0.0342898 -0.056975774
0000b0 b6 0b 39 3e fb eb b3 3d b6 2d f9 3d c2 3d 02 3e
       0.18070874 0.08785244 0.12166922 0.12718871
0000c0 f9 8e 10 be b0 4e b3 bc bb 29 bc 3c 16 23 46 3d
       -0.1411704 -0.021888107 0.022969117 0.048373304
0000d0 ad 4c d4 3d 0e 33 96 bd bc 68 69 bd ad 41 27 3e
       0.10366187 -0.07333957 -0.056984648 0.16333647
0000e0 a4 bf 4f bd ec 6c 06 be 79 36 03 3e 73 01 0d 3e
       -0.050719872 -0.13127488 0.12813748 0.13770084
0000f0 20 b9 72 bd 9c c0 1a bd fd ca 0e be 03 9b 21 be
       -0.05925858 -0.037781343 -0.13944621 -0.15781789
000100 f1 92 a4 3d 94 da 91 bd f7 93 21 3e ce 09 11 be
       0.08035839 -0.071217686 0.157791 -0.14163896
000110 56 d5 89 bc 60 b5 85 3b 76 ea c6 3d 80 81 26 3e
       -0.01682536 0.0040804595 0.097126886 0.16260338
000120 17 0d 03 3e 5a 0b be 3d 9e a5 b1 bd 80 19 00 be
       0.12797962 0.09279509 -0.08674167 -0.12509727
000130 9e 1f 2d be 10 97 19 3c be 0f 42 3e e2 94 d8 bc
       -0.16906592 0.009374395 0.18951318 -0.02643818
000140 60 59 02 bc d4 a0 0c be bc a5 6d 3d c6 5f f5 3d
       -0.007955879 -0.13733226 0.058019385 0.11981158
000150 d3 ca 3e be 9b 42 08 be 13 57 0f 3e cc 45 37 3d
       -0.18632059 -0.13306658 0.1399806 0.044744298
000160 90 0a 41 bc 24 5f 0a 3d f0 61 eb bc 1d 43 07 be
       -0.011782303 0.03378214 -0.028733224 -0.13209195
000170 2e d4 34 be 6e 8e fe 3d 80 21 b8 bc 77 bd 8f bd
       -0.17659065 0.1242951 -0.022476912 -0.070185594
000180 ac cc 47 bd 20 19 d3 bd 5c 44 65 bd 54 1e 26 be
       -0.048779175 -0.103075266 -0.055973396 -0.16222507
000190 5b d1 10 3e 06 0b 9e 3d bc 30 c3 bd b3 19 84 bd
       0.14142363 0.07716946 -0.0953078 -0.06450214
0001a0 82 a3 ad 3d 46 52 8f bd 20 1e 4c 3d 48 22 55 3d
       0.08478452 -0.06998114 0.049833417 0.052034646
0001b0 e5 a2 f3 bd f0 e7 41 3d 90 71 3d 3c ed 03 29 3e
       -0.11896304 0.047340333 0.01156272 0.16505404
0001c0 87 09 8c bd 44 fd 46 bd 2d bc 26 3e bd f6 1f be
       -0.06837755 -0.048581377 0.16282721 -0.15621467
0001d0 b0 b3 5f 3c 3f 64 3c 3e c4 ac ae bd a7 85 39 3e
       0.013653681 0.18397616 -0.08529046 0.1811739
0001e0 b4 dc 28 3e ff 7c 32 3e fa 6d c5 bc 72 e1 2c 3e
       0.16490442 0.17430495 -0.024100292 0.16882876
0001f0 f2 fb ac bd fb 7b 84 bd f7 fd 93 3d 8f 90 1c 3d
       -0.08446492 -0.0646896 0.07226174 0.0382238
000200 47 ad d7 3d 48 05 36 3e b3 47 f2 bd bd e5 c8 3d
       0.10531097 0.17775452 -0.11830082 0.09809444
000210 06 7d 81 3d 0a 30 cc 3d 14 b0 ae 3d e5 ba 93 bd
       0.063226745 0.099701 0.08529678 -0.07213382
000220 f4 7f 18 be 81 27 19 3e 95 b3 dc bd 30 8e fb 3d
       -0.1489256 0.14956476 -0.1077644 0.122829795
000230 7e 5a 38 be 88 ea 05 bd c0 44 03 3b ce cc 2c 3d
       -0.1800327 -0.03269437 0.0020029992 0.042187504
000240 60 47 7a 3c 46 e6 8b 3d bf 59 3d bc cc 92 3d 3d
       0.015275806 0.068310305 -0.011557042 0.046282575
000250 b2 97 48 3e b7 e9 e6 bd c9 34 22 bb b2 13 81 bd
       0.19589117 -0.11275046 -0.00247507 -0.06302585
000260 e2 3c 33 3e b1 a8 25 3e 56 c0 63 3b 15 73 66 bd
       0.17503694 0.16177632 0.0034752092 -0.056262095
000270 26 40 dc bd b1 40 14 3e b0 38 55 bc ae c4 3f 3e
       -0.10754423 0.14477803 -0.013014004 0.18727371
000280 32 b6 dc 3d 13 63 29 3e 52 6b 20 3e b6 27 e8 bd
       0.107769385 0.165417 0.1566594 -0.11335699
000290 df 08 83 3d 13 84 92 bd 46 32 c2 3d e8 7d 06 bc
       0.063981764 -0.071540974 0.09482245 -0.008208729
0002a0 c8 05 86 3c b0 d6 05 be ab f3 2c be 3d 46 8e 3d
       0.016360179 -0.13070178 -0.16889827 0.06946991
0002b0 04 e2 33 3d 0a 63 8f 3c 0f 74 02 3e bd 9d a1 bd
       0.043916717 0.01750328 0.12739585 -0.07891414
0002c0 1a cb 75 3d 5b 05 d8 bd d3 91 05 3d dc da 37 bd
       0.060008146 -0.105478965 0.032609772 -0.044886455
0002d0 c2 39 00 3e 5b 3a 29 3e fb 28 28 3e ad 2f e7 3b
       0.12522033 0.16526167 0.16421883 0.007055244
0002e0 6d b5 e4 3d 35 32 43 be 69 08 e3 bd 53 b2 02 3d
       0.11167417 -0.19062121 -0.110855885 0.031908344
0002f0 80 24 8a 3a f4 ec 17 be 5f 74 b5 bd 2c 72 b7 bd
       0.0010539442 -0.14836484 -0.08860087 -0.089573234
000300 62 f3 3f be a1 03 73 3c 81 eb 03 3e cc 80 9f 3d
       -0.18745187 0.014832408 0.12882806 0.07788238
000310 b4 e4 b7 bd 5f b3 31 be 2f 20 1c be 00 bc 65 3b
       -0.089791685 -0.17353581 -0.15246652 0.0035054684
000320 9b 1f 05 3e 22 bd 9c bd 7e 9a d2 bd 76 77 ce bd
       0.13000338 -0.07653262 -0.10283373 -0.10081379
000330 50 05 86 bc 6d c6 37 be cb c4 2a be 43 7f 3e 3e
       -0.016359955 -0.17946787 -0.16676633 0.18603234
000340 61 95 b8 bd 44 9d 0b bd d8 1a 4f bd b0 01 2a be
       -0.09012867 -0.034085527 -0.05056271 -0.16602206
000350 a4 76 08 bd c4 f4 6c 3d a4 28 9d bd 90 f6 03 bc
       -0.03331627 0.057850614 -0.07673767 -0.008054391
000360 00 fa 6c ba de a5 40 be ef a1 0c 3e 83 51 1c 3e
       -0.00090399384 -0.18813273 0.13733648 0.15265469
000370 07 f1 03 3e 28 34 7e bd 26 40 ca 3d a9 4f 35 be
       0.12884913 -0.06206146 0.098755166 -0.17706169
000380 b4 7e 3f bd 14 6f 1d bd 76 ae 88 bd 67 dd 9c 3d
       -0.046751693 -0.03843601 -0.06673901 0.07659417
000390 16 5b b0 bd 88 6f b3 bc 04 84 5f bd b2 ba 35 be
       -0.08611123 -0.021903768 -0.05456926 -0.17747
0003a0 fc 91 0c bd e2 80 26 be 43 df d2 3d 06 24 c7 3d
       -0.03431891 -0.16260102 0.1029649 0.09723668
0003b0 d0 c0 32 3e b8 f7 81 bd f0 73 1d 3c 14 79 09 3d
       0.17456365 -0.06346077 0.009610161 0.033562735
0003c0 4d 2c 41 3e 25 cb 2e 3e 64 4e c8 bd 19 2b 28 be
       0.18864556 0.17069681 -0.09780577 -0.1642269
0003d0 53 6a 2e be 7a 61 ba bd 1d 89 1c 3e 23 3f 79 3d
       -0.17032747 -0.091006234 0.1528668 0.060851227
0003e0 5d b7 3a 3e 7f 70 0f 3e 40 8e 33 3b 0a e0 ef bd
       0.1823401 0.14007758 0.002739802 -0.11712654
0003f0 63 f8 3c 3e 03 3c 1b 3e 7a 90 a7 3d 8d 6a d4 bd
       0.18454127 0.15159611 0.081818536 -0.103718854

linear_relu_stack.4.bias f4 [56]
000000 dd 2a 98 bd 36 a1 0c be 46 20 21 3d d0 6c d8 bc
       -0.074300505 -0.13733372 0.03933742 -0.026419073
000010 70 18 e8 3b cb 25 bb 3d 5f be 9e 3d 98 37 74 bd
       0.0070829913 0.09138068 0.07751154 -0.05962333
000020 c5 4f 22 3c ce 1b 34 3d 00 d1 83 3b ce 1c f2 3c
       0.009906714 0.04397183 0.0040227175 0.02955475
000030 be c8 9c bd 60 d5 27 3e 20 cb 9e bc 10 85 0a bd
       -0.07655476 0.1638999 -0.019383967 -0.033818305
000040 48 af 2d be 60 46 0c be f1 f3 7f 3c 29 7b a0 bc
       -0.16961396 -0.13698721 0.015622125 -0.019589977
000050 e0 2c d6 bd 9d fa db 3d df 42 c1 bc a6 1d 88 3d
       -0.10457778 0.1074116 -0.023591457 0.0664628
000060 88 8b 19 3e 3e f0 b1 bd fa 7c be bd 46 7d ec bc
       0.14994633 -0.08688401 -0.09301181 -0.028868329
000070 ff fc c6 bc ab 94 c1 bd 9c d7 39 bd a0 7e b2 bb
       -0.02429056 -0.09452184 -0.045371637 -0.005447224
000080 63 40 9d 3d 5e 11 29 3e ea 00 18 3e 1d 81 40 3c
       0.076782964 0.16510531 0.14844099 0.011749533
000090 4c 39 a5 bc 63 43 2d 3d 80 ca fc bb 14 4a 86 bc
       -0.020168923 0.042300593 -0.0077145696 -0.016392745
0000a0 90 65 99 3d 35 72 1d be 81 ba 1e be c1 e2 16 3b
       0.07490075 -0.15375598 -0.15500833 0.002302334
0000b0 98 9e 6a bd af e5 ac bd 6d 27 34 be d0 bc 0b 3e
       -0.057280153 -0.08442246 -0.17593165 0.13646245
0000c0 36 79 17 bc d4 f1 cf bd 40 e7 98 bd c6 26 73 3d
       -0.0092452075 -0.10153547 -0.074659824 0.05936315
0000d0 8a 58 0c be b0 dc 46 3c 8e 06 c5 bb a3 dc 96 3d
       -0.1370565 0.012137577 -0.0060127443 0.07366302

linear_relu_stack.6.weight f4 [56, 56]
000000 a5 17 5f 3d 2c 00 ad bd b8 81 5b 3d 46 a8 ce 3d
       0.05446591 -0.084472984 0.053590506 0.10090689
000010 a8 67 ee 3a 78 27 78 3d 51 22 4a bd 98 70 d9 3c
       0.0018188851 0.060584515 -0.049349133 0.026542947
000020 fc bc 0a 3d 87 58 75 bd d8 f8 a8 3d ac 05 01 be
       0.033871636 -0.05989888 0.08250588 -0.1259982
000030 d4 9a 4d bd 19 ee ac bd c4 76 a2 bd ed 5a af bd
       -0.050196484 -0.08443851 -0.07932809 -0.085622646
000040 e2 f0 00 be 88 de bb 3c f2 a2 cd bc e4 5f f1 bd
       -0.1259189 0.02293326 -0.025102112 -0.11785868
000050 e5 13 a2 3a e6 45 e4 bc 99 d6 6a 3d c0 5d d6 bd
       0.0012365548 -0.027865361 0.057333563 -0.104671
000060 97 79 38 bd c8 53 e1 3c cc 03 68 3d a2 f1 b3 3b
       -0.045037832 0.02750577 0.056644246 0.0054914514
000070 2b 62 11 3d a5 c9 08 3e e6 9b 3d bd ac 85 ba 3d
       0.03549401 0.13358171 -0.046291254 0.09107527
000080 0a aa e5 3d 91 29 00 be f0 92 d2 3c db d0 9a 3d
       0.11214073 -0.12515856 0.02570483 0.07559367
000090 84 22 c8 bc 9e 02 8d 3d c0 f0 94 3b 93 ff c6 3d
       -0.02443052 0.06885265 0.004545301 0.09716716
0000a0 cc 09 7d 3b 94 36 af bd 04 77 d1 3d 43 fd 25 3d
       0.0038610576 -0.08555332 0.102277786 0.040524732
0000b0 b2 d5 e8 3d 96 43 e1 3c dc 52 91 3d 07 3b a4 3d
       0.11368884 0.027498048 0.07095882 0.08019071
0000c0 bc ee 8d 3c 18 7b fe bc e7 08 b5 3c 7b 7c cd bd
       0.017325751 -0.031064555 0.022098972 -0.100335084
0000d0 20 98 95 3b 32 ed 2f bd 70 6c 0a 3c 33 97 e6 bd
       0.004565254 -0.042950816 0.008448705 -0.11259308
0000e0 42 27 b9 3d 0d 05 e9 bd 17 5a 87 3d 5a 3b b4 3d
       0.09040691 -0.113779165 0.0660898 0.08800383
0000f0 ab 84 e6 bd e6 c7 05 3e 68 59 b7 bd 74 f6 d6 bc
       -0.11255773 0.13064536 -0.089526 -0.026240565
000100 f2 5b a1 3d 80 ed 06 bd 42 e5 f3 3d fe a9 59 bd
       0.07878865 -0.03294134 0.11908962 -0.053140633
000110 3c 90 92 bc 32 d7 9e bd a2 ee 7d bd 0b b2 0f 3e
       -0.017891042 -0.07755889 -0.061995156 0.14032762
000120 44 d2 cd 3d 00 35 21 3c 62 fc a1 3c 97 92 d4 bd
       0.100498706 0.009839296 0.019773666 -0.10379522
000130 7a 97 df 3d 9a b0 2a bc 5f b3 3b bd 10 cc d9 bd
       0.10917564 -0.010418082 -0.04582536 -0.10634625
000140 13 67 f5 3d 04 c6 81 3d b8 d7 a4 3d 82 35 be 3c
       0.119825505 0.063365966 0.080489576 0.023218874
000150 ae aa a9 bd c0 36 60 3d 90 80 7c 3c 5c ad 37 3d
       -0.08284508 0.054739714 0.015411511 0.044843063
000160 b6 ef cf bc 2a 1c 5a bd 86 bb f4 3d 0f 0a 41 3d
       -0.025382858 -0.053249516 0.1194983 0.047128733
000170 cb 18 3d bd dc 5c b1 3c 18 f6 ed bc 94 cf de ba
       -0.046166223 0.021650724 -0.02904801 -0.0016999119
000180 fd be aa 3d c8 d2 d9 bd e3 52 04 3e 7a a0 c9 3d
       0.083372094 -0.106359065 0.12922244 0.098450616
000190 00 d0 f0 38 5c 1b 38 bd 50 33 df 3c 6f 27 a1 bd
       0.00011482835 -0.044947967 0.027246147 -0.078688495
0001a0 ea 93 c5 3d 79 bc 90 bd 9b 24 10 3d ba 20 f9 bd
       0.09647353 -0.07067198 0.03519116 -0.12164445
0001b0 68 0e 83 3d a2 43 b9 3d 76 39 d4 3d 7a ea a9 3c
       0.06399232 0.09046103 0.10362522 0.02074169
0001c0 3c 1b b3 3d b6 d5 60 3d 50 cc c7 3d ee 6f 9a 3d
       0.08745429 0.05489131 0.097557664 0.0754088
0001d0 9d 58 db bd cc dc c3 3c 9a 31 13 bd d3 ad 82 bd
       -0.10710261 0.023908995 -0.035935976 -0.063808106
0001e0 17 62 d1 3d 9a 63 21 bc f0 0d aa 3c 2b f9 b6 3d
       0.10223787 -0.009850407 0.020758599 0.08934244
0001f0 92 37 b8 3d fd d2 a5 3d 7c 1f bf bc 92 d4 df bd
       0.08994974 0.080968834 -0.023330443 -0.109292164
000200 b7 5c 03 be 70 0c 2c 3d 9c 78 e4 3b f4 aa 99 bd
       -0.12828337 0.04200405 0.0069723856 -0.0750331
000210 6e 1f 88 3d fa e6 05 3e ef 74 b2 3d 94 6d 9a bc
       0.0664662 0.13076392 0.087137096 -0.018851079
000220 ee 36 e5 3c 60 91 ae bd 42 2c 81 3d 96 c0 c2 bd
       0.027980294 -0.08523822 0.0630727 -0.09509389
000230 41 40 cc 3d 8c 00 7a bd 2c 16 59 bd d8 3b e5 bd
       0.09973193 -0.061035678 -0.05299966 -0.11193055
000240 73 f1 cc bc 08 14 64 bb 5a 13 56 bd 5c 20 c5 3d
       -0.025017476 -0.0034801979 -0.05226455 0.09625313
000250 29 e7 ac 3d 9f af dd bd 00 02 5b bc 0a d6 5e 3d
       0.08442528 -0.10824513 -0.013367176 0.054403342
000260 a1 69 0c 3e ec e0 02 bd 2e 69 b8 3d f8 c2 32 3a
       0.13712169 -0.031952783 0.090044364 0.0006819214
000270 c2 ee 51 bd e5 b4 ba 3d 9b de f3 bd e6 0a f9 3d
       -0.051253088 0.09116534 -0.11907693 0.12160282
000280 35 95 12 3e ac 70 15 bd 62 05 7f 3d 6f 63 12 3e
       0.1431473 -0.036484405 0.062260993 0.14295743
000290 9c 04 25 3d f8 0c 56 3d f6 5b 56 3d 41 0f 38 bd
       0.0402876 0.05225846 0.052333795 -0.044936422
0002a0 84 9b 05 3d a1 dc 91 bd 02 b2 e9 3d 36 8c 6a bd
       0.032619014 -0.0712216 0.114109054 -0.05726262
0002b0 20 41 fa 3c 52 8e 1e bd 4e dd 88 3d c0 5a 10 3b
       0.030548632 -0.038709946 0.066828355 0.0022026747
0002c0 3a 7b 96 3d aa 36 14 bd 92 98 a0 bd c0 d9 51 3d
       0.07347722 -0.036184944 -0.078416005 0.051233053
0002d0 fa 04 9a bd 2b b2 e0 bd 84 79 53 3d da 98 a4 bd
       -0.075204805 -0.10971483 0.05162956 -0.080369666
0002e0 40 bc 4d bd c6 ab 08 bd d0 76 1b 3c b2 91 3d bd
       -0.050228357 -0.03336694 0.009488776 -0.046281524
0002f0 20 fe 44 bd 04 92 09 bd 20 ca bf 3d 54 e4 23 3d
       -0.048093915 -0.033586517 0.09364724 0.040012673
000300 fd c1 83 bd 3a 2c bd bd 80 ea 4a 3b 2c 5a 2f 3d
       -0.06433485 -0.09236951 0.0030962527 0.042810604
000310 00 43 37 bb fe 34 a0 3d f6 30 e6 3d 74 6c 20 3d
       -0.002796352 0.078226075 0.11239807 0.03916593
000320 f0 83 34 3d ce c6 9e 3d e4 82 3b bd 10 2e c2 3c
       0.044071138 0.07752763 -0.045779124 0.023703605
000330 2c 43 dd 3d aa 0d 83 bd 40 66 2a 3c ec fd 55 bd
       0.10803828 -0.063990906 0.010400355 -0.052244112
000340 84 6f d2 bd 40 f5 90 3d 7c ae da 3d 65 d9 93 bd
       -0.10275176 0.07078028 0.106778115 -0.07219199
000350 d8 23 4d 3d 7c d7 27 3d a4 b8 55 3d 06 a6 96 3d
       0.05008301 0.040976986 0.05217804 0.07355885
000360 46 80 ff 3d 46 b8 cf 3d 0a 78 ef bd 96 93 56 bd
       0.12475638 0.10142569 -0.116928175 -0.052386843
000370 8e 59 91 3d c7 3b 9c bd c0 f3 d6 3c ce a6 6a bd
       0.07097159 -0.07628589 0.026239276 -0.057287984
000380 82 57 07 3d 42 36 96 3d 26 5d 4c 3d c4 ce c6 3d
       0.03304244 0.073345676 0.04989352 0.09707406
000390 01 09 cd bb f0 ca a7 3d bc d9 56 3d ac 7f 2c bd
       -0.006257177 0.08193004 0.05245374 -0.042113945
0003a0 21 a3 b0 bd de 34 04 3e 8e 31 23 bd 68 56 d1 3d
       -0.08624864 0.12910792 -0.03984218 0.10221559
0003b0 f6 81 ac 3d 2c 20 8e 3b e9 0e e2 bd 68 4e a8 3c
       0.084232256 0.0043373313 -0.11038 0.0205452
0003c0 e1 4c 84 bd d0 6d 0e 3d 35 8a 3f bd b9 ae e6 3d
       -0.06459976 0.034772694 -0.046762664 0.112637945
0003d0 78 67 eb bd 81 0c d8 bc 3a 46 fb 3c d0 dc 50 3c
       -0.114943445 -0.02637315 0.030673135 0.012747958
0003e0 0d ec f4 3d 82 f1 2c bd 76 76 da bd b0 cc c5 3d
       0.119590856 -0.042222507 -0.10667126 0.09658182
0003f0 09 27 37 3d 26 48 b4 3d f3 f9 a1 bd f8 bd a0 bd
       0.04471496 0.08802824 -0.07909002 -0.07848734

linear_relu_stack.6.bias f4 [56]
000000 bb 85 98 3d 56 81 a4 3d 07 30 d1 3d d6 71 41 bd
       0.07447382 0.08032481 0.102142386 -0.047227703
000010 fe a4 55 bd 52 f3 f1 bd f7 3a 98 3c 88 9f ec bc
       -0.052159302 -0.11813988 0.018582804 -0.028884664
000020 fe d8 0b 3e 34 5d 8c bd c6 e6 ad bd 90 f8 5d 3d
       0.13656995 -0.068537146 -0.08491282 0.054192126
000030 9e b4 47 bd 38 44 4b bc 37 7f 11 3e 55 de b5 3d
       -0.048756234 -0.012406401 0.14208685 0.08880297
000040 7b 62 08 be eb 4d 86 3c d2 8a f0 3a a1 f2 08 3e
       -0.13318817 0.016394576 0.0018351919 0.13373806
000050 22 9b ec bd 82 b9 bc 3d 15 5d 06 be 6f 84 06 be
       -0.11553027 0.0921507 -0.13121445 -0.13136457
000060 e6 49 8c bd 55 e0 02 be d8 95 43 bc 70 f8 cb 3d
       -0.068500325 -0.12780888 -0.011937581 0.09959495
000070 66 d9 17 bd 96 8b cf bd 68 5a 3c bc fc be de bd
       -0.03707256 -0.10134046 -0.011496164 -0.10876271
000080 9a cf cd 3d 86 83 e7 3c 17 cf 02 3e 26 65 86 3d
       0.100493625 0.028260957 0.12774311 0.06562261
000090 7f 7d 3c 3d 33 66 16 3d e4 e4 08 3e 6e 34 ab bd
       0.04601812 0.03671856 0.13368565 -0.083596095
0000a0 76 5b a7 bd d0 5e e6 3d 86 48 6f 3d bc 82 ee 3d
       -0.08171742 0.11248553 0.058418773 0.11646029
0000b0 13 89 06 3d 5b c5 2e 3d 8b b2 96 3d d0 56 a8 3d
       0.032845568 0.04266868 0.07358273 0.08219683
0000c0 86 96 92 3d fc 9d d6 bd 58 cb 45 3d 68 49 bb bd
       0.07157616 -0.10479352 0.048289627 -0.091448605
0000d0 e0 4d 8d 3c c4 de 8e 3d 73 17 2a bd 11 dc e4 3d
       0.017249048 0.06976083 -0.04152627 0.11174787

linear_relu_stack.8.weight f4 [112, 56]
000000 61 f8 e4 3d 54 42 f2 3c 99 a2 d9 bd c0 c7 36 3b
       0.11180187 0.029572643 -0.10626716 0.0027890056
000010 e1 1f c5 3d a0 9e c4 3c df 65 dc 3d 20 6e 1e 3c
       0.09625221 0.02400142 0.10761618 0.0096698105
000020 d6 85 92 bd 29 c3 ab 3d f0 21 35 3d 04 1a 97 3d
       -0.071544334 0.08386833 0.04422182 0.07378009
000030 76 86 a3 bd f0 81 cf bd db ce a3 3d 9d 0b 18 3d
       -0.07984631 -0.101322055 0.07998439 0.03712045
000040 ac 38 c8 3d 5b f7 f4 bd 12 59 91 bd 49 d5 61 bc
       0.09776434 -0.11961242 -0.07097067 -0.013783761
000050 d4 24 8e bd 2c ab 97 3d a6 5b d9 3d 2a 35 ed 3d
       -0.06940618 0.07405695 0.10613184 0.11582406
000060 58 b9 99 3c 1c 85 f8 bd 86 f7 4e bd d3 ce d0 3c
       0.018765137 -0.121347636 -0.050529025 0.025489246
000070 46 b7 13 bd 68 c1 69 3d ce 45 12 bd 5c 25 e2 3d
       -0.036063455 0.057069212 -0.035711102 0.11042282
000080 7d 1a df 3d d4 1a fd 3d 19 d6 0f 3d f0 58 cb bd
       0.10893724 0.12358633 0.03511629 -0.09929073
000090 e4 df 2c bd 04 b2 97 bd cd 89 51 3d 10 17 40 bc
       -0.042205706 -0.07407001 0.051156808 -0.0117242485
0000a0 e8 27 5b 3d ea a3 ee 3c f8 e0 4c bd 4e fd 14 3c
       0.053504854 0.029130895 -0.050019234 0.009093596
0000b0 ea ae ed bc 2a af 6d 3c d2 d9 c3 bd ad 50 e1 bb
       -0.02901407 0.014507094 -0.0956303 -0.0068760724
0000c0 84 92 bd 3d 22 98 8d 3d 43 b4 b7 bd 18 56 e4 3d
       0.09256461 0.06913783 -0.08969929 0.111492336
0000d0 cc 42 51 bd 18 48 e1 3d 36 23 0b bd 03 b8 f4 3d
       -0.051089093 0.11000079 -0.033969127 0.1194916
0000e0 37 14 9a 3d 24 f9 4c bc eb ef b4 3d d2 73 e8 3d
       0.07523387 -0.012510572 0.08834823 0.11350216
0000f0 18 b9 d8 bd 18 c7 c4 3c 3e 02 b9 3d 00 b7 62 bc
       -0.10582179 0.024020717 0.09033631 -0.013837576
000100 84 ae a9 3d c7 c7 ca 3d b6 0e d9 bd 08 39 95 3d
       0.08285239 0.09901386 -0.10598509 0.072862685
000110 67 75 fb bd d0 59 ab 3d 1b d8 9a bd a2 6a 31 bd
       -0.12278252 0.0836674 -0.0756075 -0.043314584
000120 fc dc 05 3d 23 38 ee bd 26 6e d9 bb e5 80 47 bd
       0.03268145 -0.11631801 -0.006635445 -0.048706908
000130 24 2e 2d 3d ac 3b 1c bc fa b5 f8 bd 26 23 07 bd
       0.04228033 -0.009535711 -0.12144084 -0.032992505
000140 d0 bf aa 3c b8 d9 95 3d 3a 00 95 bd 61 9e b3 bd
       0.020843416 0.07316917 -0.07275434 -0.08770443
000150 c8 97 76 3d 26 47 a4 bd 1c 58 58 bd 71 c5 08 be
       0.060203344 -0.08021383 -0.052818403 -0.13356568
000160 81 ca 06 bd 33 17 dd bd 92 35 9e 3c aa c3 da 3d
       -0.032907967 -0.107954405 0.019312654 0.10681851
000170 c6 37 6b 3d de a9 ee bd 09 c9 f2 3d b2 92 f4 bd
       0.057426237 -0.11653493 0.11854751 -0.119420424
000180 9c 03 52 bd eb f4 95 3d 36 79 7d 3d 7e 66 92 3d
       -0.051272973 0.07322105 0.061883174 0.07148455
000190 3e 21 06 bd f8 49 f3 bd 2c 24 0c be 38 7b 14 3c
       -0.032746546 -0.11879343 -0.13685673 0.009062581
0001a0 af 8c 06 be ae 67 b4 bd ad 02 b3 3d 30 87 a8 bc
       -0.13139604 -0.08808838 0.08740745 -0.020572275
0001b0 70 09 3f 3d f0 31 dc bd c7 16 a7 3c d6 7d f1 3d
       0.04663986 -0.10751712 0.020396603 0.117915794
0001c0 0a 89 fc 3c ab 80 e3 3c 5a a1 a1 bd 94 e1 c5 bd
       0.030827064 0.027771315 -0.078921035 -0.09662166
0001d0 13 df a6 3d 22 04 f5 bd 98 b3 bb bb c6 4a db bd
       0.08148017 -0.11963679 -0.0057281964 -0.10707621
0001e0 cb 25 58 3c 37 6e 00 be 74 33 35 3d 00 70 6e 39
       0.013192604 -0.12542044 0.044238523 0.00022739172
0001f0 c0 f5 b3 bd 3c ce 4b bd 68 11 4b bd 84 3c 66 bd
       -0.087871075 -0.049757227 -0.049577147 -0.056210056
000200 b4 7d 08 bd 2c b4 db 3c be e4 93 bd c3 ab 1e 3d
       -0.033323005 0.026819311 -0.072213635 0.038738023
000210 8f 83 e1 bd 3b 88 04 3e cb 07 a4 bd 00 bf 68 3d
       -0.11011421 0.12942593 -0.08009299 0.056822777
000220 3c 54 bb bd 89 cc ba bd 9c cd ba bc a3 c7 8d bd
       -0.09146926 -0.09121043 -0.02280312 -0.06922843
000230 da 23 19 bd ba 15 6e bd d8 13 19 bd 48 90 d3 bd
       -0.037387706 -0.05812619 -0.03737244 -0.10330254
000240 ec fa 06 3e 95 2a a1 3d 6f fc 35 bd 65 c5 cd 3d
       0.13181657 0.0786945 -0.044430193 0.10047416
000250 bc 41 61 bd 45 d6 d4 bd 75 c0 3d 3d ac 59 3c bd
       -0.05499433 -0.10392431 0.04632612 -0.045983955
000260 66 d3 cd 3d 3c a7 03 bd 81 9a d6 bd 7f 25 f1 3d
       0.10050087 -0.03214191 -0.10478688 0.1177473
000270 8c 88 07 3d b7 0a 39 3d 33 6b b6 bb e5 4e d0 bd
       0.033089206 0.045176234 -0.0055669784 -0.10171298
000280 30 ec 44 3d 00 38 bd 39 c0 40 b3 bd 16 f5 9b 3d
       0.04807681 0.00036090612 -0.087525845 0.07615106
000290 12 23 00 be 10 61 9e bd de 4a f3 bc b1 71 f4 bd
       -0.12513378 -0.07733357 -0.029698785 -0.119357474
0002a0 8a 60 f6 bd a4 71 24 bd 10 5c ce bc 6a c1 c8 3d
       -0.12030132 -0.04014744 -0.025190383 0.09802516
0002b0 d0 6b 7f 3d be 74 fe 3d 08 04 2a 3d 58 68 92 3c
       0.062358677 0.124246106 0.04150775 0.01787202
0002c0 e0 f6 d2 bc 1a e8 66 bd 5b 2c f5 bd e4 f8 f9 bd
       -0.025752485 -0.056373693 -0.11971351 -0.12205675
0002d0 60 e5 68 3d 0a 3b ad bd 7e 89 60 bd 60 cb 7f 3d
       0.056859374 -0.084585264 -0.054818623 0.062449813
0002e0 8f 2d a9 bd d0 5e 4a 3d c0 4e f2 bb 18 e4 e1 3c
       -0.08260643 0.049406826 -0.0073946416 0.027574584
0002f0 66 54 79 bd b0 8d c7 3d c9 d8 df bd 52 7f ff bd
       -0.060871504 0.097438216 -0.1093002 -0.12475456
000300 c8 86 d5 3d 0b e5 b8 bd 63 5b 03 3e b8 1d 73 3d
       0.10426098 -0.090280615 0.1282783 0.059354514
000310 e0 3f 53 3d 34 90 87 bc 58 e8 cd 3c 68 5d 0c 3d
       0.051574588 -0.016548254 0.025135204 0.034268767
000320 4f b1 80 bd 2c 71 c9 3d ba 34 a8 3d 80 ba 00 3c
       -0.06283819 0.09836039 0.08213182 0.007856965
000330 0c f0 1c 3d cc dd 84 bc 00 b5 45 bd b6 f4 d2 bd
       0.038314864 -0.016219042 -0.04826832 -0.10300581
000340 04 45 52 bd 08 0b 03 be 36 21 2c bd 48 2f 8f 3d
       -0.05133535 -0.12797177 -0.04202386 0.0699144
000350 2d c4 04 3e 73 6e fa bd 27 81 e3 bd ea e1 e1 3d
       0.1296546 -0.12228098 -0.11108618 0.11029418
000360 2a 34 41 bd 00 94 3d 39 5a b9 ab 3d 42 69 f2 3d
       -0.04716889 0.00018079579 0.083849624 0.118364826
000370 64 49 4f 3d 98 94 07 3d 40 2a 53 bb 80 b2 5c 3b
       0.0506071 0.033100694 -0.0032221228 0.003367573
000380 04 db 5c 3d cc b7 00 be 54 77 04 be 0c 89 b8 3d
       0.053919807 -0.12570113 -0.12936145 0.090105146
000390 7f f2 05 be 96 d1 8f 3d 74 18 c6 3d 54 7c b5 3d
       -0.13080786 0.07022397 0.09672633 0.08861604
0003a0 90 f3 26 3d 00 40 73 3c 80 c7 7c 3d be 14 a3 3d
       0.040759623 0.014846802 0.061713696 0.07962941
0003b0 80 e1 89 3b af eb c4 bd b6 44 aa 3d 20 e7 73 3c
       0.00420779 -0.096152656 0.08313887 0.014886647
0003c0 1e dc a4 3d be 66 b7 bd a8 d2 08 bd 0d cf af bd
       0.080497965 -0.089551434 -0.033404022 -0.08584414
0003d0 20 cc fa 3b 62 91 e8 3d 00 12 d0 3c 66 a2 e8 3d
       0.007653728 0.113558546 0.025399208 0.113591
0003e0 64 14 c9 3d 62 3d bc bd ab 5a 03 3e 40 36 f3 3b
       0.09818342 -0.09191395 0.12827556 0.0074222386
0003f0 e8 24 e5 3d 88 fa d3 3c 50 e8 ba bc 96 54 e8 3d
       0.1118868 0.025876299 -0.022815853 0.113442585

linear_relu_stack.8.bias f4 [112]
000000 83 8b e9 3d 40 6c 01 3e 3d d5 cf 3d 8b a4 f6 bd
       0.11403563 0.1263895 0.10148094 -0.12043103
000010 0d ea ae bd b6 50 1e 3d f0 e8 fc bd 87 32 81 3b
       -0.085407354 0.03865119 -0.12349117 0.003942791
000020 0a f5 09 3d a4 f8 2a bd 6a c4 04 3d 8c 55 2c 3c
       0.033680953 -0.04174103 0.032413878 0.010518443
000030 9c d0 42 bd dd 6d 9f 3c f9 fe 1b 3d 25 f9 e4 bd
       -0.047562227 0.019461567 0.038084958 -0.11180333
000040 b7 95 f3 3d ce cc 11 3e 69 db e0 bd 43 77 bd bc
       0.1189379 0.14238283 -0.10979349 -0.023128157
000050 80 f5 72 bb b9 c9 02 3c 60 36 41 bd e0 7a 11 3c
       -0.00370726 0.007982665 -0.047170997 0.008879393
000060 f2 07 49 3d 8f ae 37 3d 74 cf ad 3d 84 a0 92 3c
       0.049079843 0.044844206 0.08486834 0.017898805
000070 76 b7 14 3d c8 73 9b bc 1a b8 0f bd 6c cb 53 3d
       0.036307774 -0.018976107 -0.035087682 0.05170767
000080 02 d0 ea 3d 18 ed 31 3c f4 41 d4 bd e8 5f 30 3d
       0.114654556 0.01085975 -0.10364142 0.043060213
000090 1a 03 d7 bd 04 2c 0b 3d 68 81 fe 3d fd 26 b9 bd
       -0.104986385 0.033977523 0.12427026 -0.090406395
0000a0 a4 00 45 bc 70 2a 03 3e 2c 2b 5d 3d 80 e0 0c 3e
       -0.0120240785 0.12809157 0.05399625 0.13757515
0000b0 22 f5 72 bd 02 5d 39 bc 2c 73 a7 bd e8 78 94 bd
       -0.059315808 -0.011313679 -0.08176264 -0.072496235
0000c0 40 e7 cc 3c 1d e4 f1 3d a5 df ee 3d 26 e2 4b bd
       0.025012612 0.11811087 0.116637506 -0.04977622
0000d0 26 81 d6 3d 1b a1 bb bd 97 29 00 be 01 b0 08 3c
       0.10473852 -0.09161588 -0.12515865 0.008342744
0000e0 2a 86 ea 3d 6f 70 e5 3d 51 af c7 bd 38 86 a6 bc
       0.11451371 0.11203086 -0.09750236 -0.020327672
0000f0 71 e2 02 3e d5 f1 86 3d 9e c5 b3 bb ca 57 74 bd
       0.12781693 0.065890945 -0.0054862043 -0.059654035
000100 68 f7 98 3d 7b d2 f9 3d 20 06 b4 3d d2 13 84 3d
       0.07469064 0.12198349 0.08790231 0.06449093
000110 c6 6b 77 bd b6 f5 04 be 45 6f f5 3d 5c 7c 26 3d
       -0.060405515 -0.12984356 0.119841136 0.040645942
000120 40 0d 8a 3c 9d c2 42 3d 5c 6b 4e bd f3 5a c6 bd
       0.016852021 0.04754888 -0.050395355 -0.09685316
000130 70 97 a9 3d 1c 01 84 bc 2b f2 02 be 40 bf cd bc
       0.082808375 -0.01611381 -0.12787692 -0.02511561
000140 28 7f a4 bc 72 cf c7 bd 2a ab d8 bd 78 b6 20 bd
       -0.020080164 -0.09756364 -0.10579522 -0.039236516
000150 ce 58 e3 bd c0 b5 82 3d 2f 29 04 be 67 6b 53 bd
       -0.111009225 0.06382322 -0.12906335 -0.0516161
000160 11 25 c7 bd d4 7d 50 bd e3 c0 07 be 2a 57 19 bd
       -0.09723867 -0.05090125 -0.13257174 -0.03743664
000170 d2 84 b5 bd 68 a3 a3 3d 60 08 dd bd a2 9c 0a 3e
       -0.08863224 0.07990152 -0.10792613 0.13536313
000180 49 bd ee 3d 20 14 10 3d 97 20 a7 bc ec 24 a2 bd
       0.11657197 0.035175443 -0.020401282 -0.079171985
000190 26 45 73 bd 5b 2a b9 bd 71 43 f7 3c 6e d5 03 3e
       -0.059392117 -0.09041282 0.030183526 0.12874386
0001a0 fe 4d 46 bd c7 3a 3c bd 53 ae e5 3c 9d 12 00 be
       -0.048414223 -0.045954492 0.028037226 -0.125071
0001b0 0a 0c 3a bd 66 69 be bd be fa c4 bd f4 42 25 bd
       -0.045421638 -0.09297447 -0.09618138 -0.040347055

linear_relu_stack.10.weight f4 [112, 112]
000000 a3 9f a8 3d e3 12 49 3d 6c 99 0e 3d 4d 4b a1 3d
       0.08233573 0.049090277 0.034814283 0.078756906
000010 36 fe 61 3d 62 a9 f2 3b 2c c5 bf 3c 46 65 c2 bb
       0.055174075 0.007405446 0.023409449 -0.005932483
000020 f8 39 62 3d 60 92 ad 3c 2e 16 3e 3d df 89 b3 bd
       0.055231065 0.021187961 0.04640787 -0.08766531
000030 5c 47 8a bb e5 d7 6f 3d 56 c1 33 3d f8 f0 c0 3c
       -0.0042199325 0.058555502 0.04388555 0.023552403
000040 d0 a7 f0 bc 14 77 8f 3d 7c b5 a5 bc ab 6b 36 bd
       -0.029376894 0.07005134 -0.02022814 -0.044536274
000050 59 32 8a bd 6e a2 1c 3c 85 ce 98 bd 02 21 72 3d
       -0.06747884 0.009560211 -0.074612655 0.05911351
000060 a7 68 af 3c 6f d3 47 bc 9f 34 b9 3d bd 77 12 bb
       0.021412207 -0.012196406 0.0904324 -0.0022349202
000070 d6 4f a5 3c 07 bc 90 3d 3c d2 82 3c a8 d6 1a 3c
       0.02017967 0.07067113 0.015969388 0.009450592
000080 c1 15 c3 3d d2 ec 82 bd 36 55 3f 3d f0 4a c4 3c
       0.095256336 -0.06392826 0.046712123 0.023961514
000090 60 01 70 bc 09 36 24 3d b9 2c 89 3c 9c b7 70 bd
       -0.014648765 0.040090594 0.016744958 -0.058768854
0000a0 c7 6d 62 bd 55 42 1e bd 93 b1 ae 3d b7 58 a9 3d
       -0.055280473 -0.038637478 0.08529963 0.08268874
0000b0 e8 67 d6 bb 42 be 4d 3d 97 f6 83 3d f3 0e a3 3d
       -0.0065431483 0.050230272 0.06443518 0.07961836
0000c0 7b cc e9 3c 3c e3 a5 3d 77 9c 85 bc 7c e4 a2 3c
       0.028539887 0.08099982 -0.01630996 0.01988434
0000d0 6a 28 47 bd 5a 9f 9a bd b8 c6 a7 bc 83 f5 89 bd
       -0.048622526 -0.07549925 -0.020480499 -0.06736281
0000e0 9d f5 24 3d 50 54 91 3d 54 95 9b 3c d6 37 b9 bd
       0.040273298 0.070961595 0.018992104 -0.09043853
0000f0 f6 de 48 3d 64 e8 be 3d 02 7a 6d 3c 44 39 af bd
       0.049040757 0.09321669 0.014494421 -0.085558444
000100 aa c9 28 bc 42 15 ce 3d 2c 11 3a bd c8 1e 84 bd
       -0.010301987 0.10062648 -0.045426533 -0.064511836
000110 a5 06 8f 3d f1 34 95 3d ff a2 23 3c 7a 1b b9 3d
       0.06983689 0.072854884 0.009987592 0.09038444
000120 9c f3 a6 bd c8 dc 87 3d 44 89 b6 bd 80 a3 ec bc
       -0.081519336 0.066339076 -0.089129 -0.028886557
000130 7e 7e ab 3d 11 3e 3e bd 4d 9a 90 bd 74 7e 87 3c
       0.08373736 -0.04644591 -0.070606805 0.01653979
000140 2d 5b c0 3d 69 42 0e bd 59 c6 ab bd 80 35 74 3d
       0.093923904 -0.034731302 -0.08387441 0.059621334
000150 2f 6b 9e 3d 04 91 52 bd 43 04 44 bd 10 65 5d 3d
       0.077352874 -0.05140783 -0.047855627 0.05405146
000160 20 06 ae 3c e1 ef 82 bd ac f9 96 bc b4 a1 8d 3c
       0.021243155 -0.063934095 -0.0184296 0.01728902
000170 38 23 1c 3c 6b 83 a1 3d 91 fc 5e 3d 6f ab 98 3c
       0.009529881 0.07886394 0.054440085 0.018636433
000180 7b c6 9b 3d f0 c9 b6 bd 87 6d c2 3c c0 09 2c bb
       0.076062165 -0.08925235 0.023733867 -0.0026250929
000190 ed 66 76 bd b8 67 88 bc c5 aa a4 bc 6a 0f a8 bd
       -0.06015675 -0.01665102 -0.02010096 -0.08206065
0001a0 a3 32 2e 3c 8a 2e d1 3d 46 a8 5f bd c0 ac 31 bc
       0.01063219 0.10213955 -0.054603837 -0.0108444095
0001b0 08 bb b0 bc d8 2b 58 bd f2 4e 2e 3d b8 47 b9 bd
       -0.021573558 -0.052776188 0.042555757 -0.090468824
0001c0 72 1a d0 3d 7e c8 8e bd 4c 81 b7 ba ec d0 88 bd
       0.10161294 -0.069718346 -0.0014000325 -0.06680474
0001d0 db 3c 7c bd 49 7a a5 3d 88 84 95 bc a4 88 2d 3d
       -0.061581474 0.08079965 -0.018251672 0.04236664
0001e0 53 c3 01 bd a0 c5 07 3b ff 7c 22 bd c2 b7 b4 3d
       -0.031680416 0.002071716 -0.039669987 0.088241115
0001f0 8c 5e ad bd 1a 7e c0 bb 0e 0a a4 3d e0 e3 89 bd
       -0.08465299 -0.0058744075 0.0800973 -0.06732917
000200 50 92 d1 bb 82 73 d3 3c ad db ba 3d 44 2e 1d 3c
       -0.0063956156 0.025811914 0.09123931 0.00959355
000210 c5 1c 9b bd ff 0c 6f bd 38 6d 82 3c 97 a9 a4 3d
       -0.07573847 -0.058362003 0.01592122 0.08040159
000220 a0 90 bc bd 09 2a 7b bd e0 c7 8a bd 23 80 9a bd
       -0.092072725 -0.061319385 -0.067764044 -0.075439714
000230 f4 63 76 3c 86 d1 5b 3d 6e 3f a7 bd 18 52 d0 bb
       0.015038479 0.053666614 -0.08166395 -0.0063574426
000240 1b 9b 06 3d 7d c2 0e 3d 92 10 26 3d c0 81 b1 bc
       0.032862764 0.034853447 0.040543146 -0.021668315
000250 c8 f8 db bc 53 7d 55 bd c1 f1 a1 bd 80 29 76 ba
       -0.026852027 -0.05212147 -0.07907439 -0.0009390339
000260 2b 05 ea 3c ea 2d 9e 3c ef 17 9d 3d 80 62 cb 3d
       0.028566917 0.019309003 0.076705806 0.09930897
000270 f4 89 f1 3c 74 78 33 bd 60 40 3d 3d f2 e8 25 3d
       0.029484726 -0.043816045 0.04620397 0.040505357
000280 7d 99 4e bc c7 76 8f bd 12 7e 99 bd 3b 88 9e 3d
       -0.012609837 -0.07005077 -0.07494749 0.07740828
000290 61 74 6c bd 55 cc b5 3d 9e 96 a1 bd 61 4c 0c bd
       -0.057728175 0.08876864 -0.07890056 -0.034252528
0002a0 f0 c3 ff 39 79 67 c3 3d 3c 62 83 3c db e1 53 bd
       0.00048783375 0.0954122 0.016038053 -0.051729064
0002b0 a4 b0 9e 3d d2 37 f8 3c 6b e8 77 bd 99 59 c0 3d
       0.07748535 0.030300055 -0.060524385 0.093920894
0002c0 78 f5 ad 3d d0 b0 55 3b 24 81 42 3a 01 04 81 3d
       0.08494085 0.003260661 0.0007419756 0.06299592
0002d0 60 be fe 3b 50 b8 62 bc 26 33 23 3d ba ce cb 3d
       0.0077741593 -0.013837889 0.0398437 0.09951539
0002e0 7c 1a 84 bc a3 c3 7b 3d 7a 4f 1c bd 07 cf aa bd
       -0.01612591 0.06146587 -0.038161732 -0.083402686
0002f0 d8 4e 2d 3c 20 56 7c 3b 22 05 07 3d 2e c2 ae bd
       0.01057788 0.0038503483 0.03296388 -0.085331306
000300 5a 41 93 bd 70 f9 82 3b 7c cf e1 3c 2c a4 af bd
       -0.07190199 0.0039970204 0.027564757 -0.08576235
000310 69 a5 92 bd ce fb 5b bd 47 c6 39 bd bd ab 94 3d
       -0.07160456 -0.053706937 -0.045355108 0.07259319
000320 8e 1e 68 3d a5 77 b7 3d 1d f7 ad 3d 6a 18 55 3d
       0.056669764 0.08958367 0.08494399 0.052025236
000330 0d 84 59 bd aa f0 a3 bd 90 b9 87 bd 5f 6c 98 bd
       -0.05310445 -0.080048874 -0.0662719 -0.07442545
000340 e6 d0 ad 3d be 9a 51 bd d6 a0 5b 3d c8 d6 ad bc
       0.0848711 -0.051172964 0.053620182 -0.02122058
000350 2e ad 67 bd c0 ad 5b 3c ca 5e 9f bc a4 12 dd 3b
       -0.05656164 0.013408124 -0.019454379 0.006746607
000360 24 eb e9 3c 42 c9 ab bd 50 d6 a6 bd 93 9e b2 3d
       0.028554507 -0.08387996 -0.081463456 0.08721652
000370 d0 df e4 3c f4 fe 97 bc 66 c3 59 3d 88 dd 17 bc
       0.027938753 -0.018554188 0.053164862 -0.009269126
000380 d4 c0 e5 3c 7a bd 89 bd 2a 2f 60 bd 1a 75 03 3d
       0.02804605 -0.06725593 -0.05473248 0.0320941
000390 48 00 19 3c b0 21 6d bc 00 ad 61 bc 46 71 25 3d
       0.009338446 -0.014473364 -0.013774157 0.04039123
0003a0 ab dc 9b 3d 75 16 86 3d ed 6c 53 bd 5d 59 1f bd
       0.076104484 0.06547252 -0.05161755 -0.038903583
0003b0 b0 5b a8 bc 7d 4c 06 bd 28 77 6f bc 48 ca 03 bc
       -0.020551533 -0.03278779 -0.014615811 -0.008043833
0003c0 b7 45 83 3d a6 82 7d bd d5 53 ad 3d 4b 0a 95 3d
       0.064097814 -0.061892174 0.08463255 0.07277354
0003d0 13 9e b3 3d ab 92 83 3d 2a f0 26 3d 1a 2c 97 bd
       0.08770385 0.06424459 0.040756382 -0.073814586
0003e0 69 23 93 3d 7e 27 c0 bd 94 fc 8a 3c 1f d0 be 3d
       0.07184488 -0.093825325 0.016966142 0.0931704
0003f0 a0 d9 6c 3c 88 a0 01 3c da 03 77 bd 8b bf a4 bd
       0.014456183 0.007911809 -0.060306408 -0.080443464
