encoder.pt (torch, 30604 bytes, 46 tensors)

class_token f4 [1, 8]
00000000: 6423 603f 9aef 323f 9622 1f3e 8eca 823e
00000010: 7d8a 0a3f 1010 7d3f 1360 dd3e 2d08 453f
0.87554 0.6989685 0.15540537 0.25545162 0.54117566 0.98852634 0.4323736 0.769656

position_embedding f4 [15, 8]
00000000: 0000 0000 0000 803f 0000 0000 0000 803f
00000010: 0000 0000 0000 803f 0000 0000 0000 803f
00000020: a46a 573f 98b8 7e3f 57d6 233c f8ff 7f3f
00000030: 17b7 d138 0000 803f bd37 8635 0000 803f
00000040: b7c7 683f a5e5 7a3f 3ed4 a33c deff 7f3f
00000050: 17b7 5139 0000 803f bd37 0636 0000 803f
00000060: c381 103e ef90 743f 20b9 f53c b5ff 7f3f
00000070: 5149 9d39 0000 803f 9c53 4936 0000 803f
00000080: cfbd 41bf a7ca 6b3f dbcb 233d 7aff 7f3f
00000090: 17b7 d139 0000 803f bd37 8636 0000 803f
000000a0: 107c 75bf 40a9 603f f5b6 4c3d 2eff 7f3f
000000b0: 6e12 033a 0000 803f acc5 a736 0000 803f
000000c0: 8c0f 8fbe 3249 533f d19c 753d d2fe 7f3f
000000d0: 5149 1d3a 0000 803f 9c53 c936 0000 803f
000000e0: 4630 283f b3cc 433f 323e 8f3d 65fe 7f3f
000000f0: 3380 373a 0000 803f 8be1 ea36 0000 803f
00000100: 9546 7d3f 5f5b 323f 51aa a33d e7fd 7f3f
00000110: 16b7 513a 0000 803f bd37 0637 0000 803f
00000120: 3201 d33e d521 1f3f 3f12 b83d 59fd 7f3f
00000130: f8ed 6b3a 0000 803f b5fe 1637 0000 803f
00000140: f844 0bbf 4051 0a3f 7675 cc3d b9fc 7f3f
00000150: 6d12 833a 0000 803f acc5 2737 0000 803f
00000160: 5cff 7fbf c03d e83e 72d3 e03d 09fc 7f3f
00000170: de2d 903a 0000 803f a48c 3837 0000 803f
00000180: d85c 09bf f586 b93e ac2b f53d 48fb 7f3f
00000190: 4f49 9d3a 0000 803f 9c53 4937 0000 803f
000001a0: 2220 d73e 9bf5 883e d0be 043e 76fa 7f3f
000001b0: c064 aa3a 0000 803f 931a 5a37 0000 803f
000001c0: 7298 7d3f de0b 2e3e 64e4 0e3e 94f9 7f3f
000001d0: 3180 b73a 0000 803f 8be1 6a37 0000 803f
0.0 1.0 0.0 1.0 0.0 1.0 0.0 1.0
0.84147096 0.9950042 0.009999833 0.9999995 1e-04 1.0 1e-06 1.0
0.9092974 0.9800666 0.019998666 0.999998 0.0002 1.0 2e-06 1.0
0.14112 0.9553365 0.029995501 0.9999955 0.00029999999 1.0 3e-06 1.0
-0.7568025 0.921061 0.039989334 0.999992 0.0004 1.0 4e-06 1.0
-0.9589243 0.87758255 0.04997917 0.9999875 0.00049999997 1.0 5e-06 1.0
-0.2794155 0.8253356 0.059964005 0.999982 0.00059999997 1.0 6e-06 1.0
0.6569866 0.7648422 0.06994285 0.9999755 0.0006999999 1.0 7e-06 1.0
0.98935825 0.6967067 0.0799147 0.999968 0.0007999999 1.0 8e-06 1.0
0.4121185 0.62161 0.08987855 0.9999595 0.00089999987 1.0 9e-06 1.0
-0.5440211 0.5403023 0.099833414 0.99995 0.0009999998 1.0 1e-05 1.0
-0.9999902 0.45359612 0.1097783 0.9999395 0.0010999998 1.0 1.1e-05 1.0
-0.53657293 0.36235777 0.119712204 0.999928 0.0011999997 1.0 1.2e-05 1.0
0.42016703 0.26749882 0.12963414 0.9999155 0.0012999997 1.0 1.3e-05 1.0
0.9906074 0.16996714 0.13954312 0.999902 0.0013999996 1.0 1.4e-05 1.0

linear.weight f4 [8, 1]
00000000: c4d3 263d ca9f 313d 9568 f4bc a63e 8bbe
00000010: a3e7 babd a59c 583d 3322 28bd c397 073e
0.0407293 0.043365277 -0.029835025 -0.27196234 -0.091262124 0.052883763 -0.04104824 0.13241486

linear.bias f4 [8]
00000000: a5ab b4bd 49f4 9bbd a467 19be 212f 2abe
00000010: f684 70bf a28f 4fbf c2ca e5be ae4f 9f3c
-0.08821801 -0.07614953 -0.14980942 -0.16619541 -0.9395288 -0.8107854 -0.44881254 0.019447174

blocks.0.norm1.weight f4 [8]
00000000: 8325 ae3f 6249 973f 676a 833f 912b 933f
00000010: 17ed 7a3f 13bb 7e3f 3497 593f 5f3f 603f
1.3605198 1.181927 1.0266846 1.149767 0.9801802 0.995042 0.8499634 0.87596697

blocks.0.norm1.bias f4 [8]
00000000: e4aa 073e 11c4 efbd 5fbe 023e 9b6a 04bb
00000010: 7683 9d3c 7f91 00be 12f0 2a3e b01a 68be
0.13248783 -0.117073186 0.12767933 -0.0020205143 0.019227725 -0.12555502 0.16693142 -0.2266643

blocks.0.mha.q_mapping.0.weight f4 [4, 4]
00000000: d7e1 a3be 42b1 63be f051 5a3f 5127 02bf
00000010: b169 393e 139d 383d b58b fdbe 9c58 433f
00000020: 6abd 87bf 9e0f 8cbe 052c 0bbe 78df 88be
00000030: 8ad5 8bbe 832a c63d 5dc5 493f b71a 193e
-0.3200824 -0.22235587 0.85281277 -0.5084124 0.18106724 0.045071673 -0.4952065 0.7630708
-1.060468 -0.27355665 -0.13591011 -0.26732993 -0.27311355 0.09676077 0.7881678 0.14951597

blocks.0.mha.q_mapping.0.bias f4 [4]
00000000: 5848 acbe 0f93 143e c750 0fbc 8285 76bf
-0.33648944 0.14509223 -0.008747286 -0.96297467

blocks.0.mha.q_mapping.1.weight f4 [4, 4]
00000000: 7ff9 0bbf b317 5abd 9f1f 863d 4326 8c3e
00000010: 281e e7be 57f6 d53d 60c8 103e 8ef4 cd3e
00000020: d420 473d 06e7 a5bb afa1 b43e 48f7 50be
00000030: a952 85bd 7894 14be be15 19bf 5835 81be
-0.54677576 -0.053245258 0.06549 0.2737294 -0.45140195 0.10447376 0.14138937 0.40225643
0.04861529 -0.0050629405 0.35279605 -0.2040683 -0.06509907 -0.14509761 -0.597988 -0.2523601

blocks.0.mha.q_mapping.1.bias f4 [4]
00000000: 541e 363f 90d8 203f 8841 9bbe 8e92 173f
0.7114003 0.6283045 -0.30323434 0.59208

blocks.0.mha.k_mapping.0.weight f4 [4, 4]
00000000: 0786 f63e 254d 56bf 2488 d33e 14bb c53e
00000010: bd85 8d3e 85d2 723f 8fda 0cbf b8c3 bfbb
00000020: 8bc6 c53e 5a7f 6a3e 8c51 783f 879b 9f3f
00000030: 2f99 af3e 97a5 abbf 2619 c03e 9d4a 0b3e
0.4814913 -0.83711463 0.41314805 0.38619292 0.27641097 0.9485248 -0.55020994 -0.005852189
0.3862804 0.22900143 0.9699943 1.2469338 0.34296557 -1.3409909 0.37519187 0.13602681

blocks.0.mha.k_mapping.0.bias f4 [4]
00000000: 8c94 eebe 3e74 e33e f0a6 c23e fe5d ffbe
-0.46597707 0.44424623 0.38017988 -0.49876398

blocks.0.mha.k_mapping.1.weight f4 [4, 4]
00000000: 6541 e53e d319 39bd 687a df3e 8199 d5be
00000010: 6976 f13e acfe 64be 8f0f 233f 345f 613d
00000020: 1991 4c3d d248 4e3e 7dd5 5fbf 3a65 91bd
00000030: 6baa 143f b20f 7bbb ca48 a63d b7c9 07bf
0.44776455 -0.045190644 0.43648076 -0.41718677 0.47160652 -0.22362775 0.63695616 0.055022433
0.049943063 0.20144966 -0.8743513 -0.070993856 0.5807254 -0.0038308916 0.08119352 -0.5304217

blocks.0.mha.k_mapping.1.bias f4 [4]
00000000: ebd4 f03e 517f ac3e ac3e 5fbe e1dc 00be
0.47037444 0.33690885 -0.21801251 -0.12584259

blocks.0.mha.v_mapping.0.weight f4 [4, 4]
00000000: 5332 0cbf 8ae0 853d 512d b2be f32d f2be
00000010: a1b2 19be dea7 96bd 61b6 8d3c dea1 e9bb
00000020: 0e9e 44bf fde3 153f a121 1f3e 0f66 a03e
00000030: 8f30 453e b11e 513e be70 003d fd15 503d
-0.5476429 0.06536968 -0.348002 -0.4730068 -0.15009548 -0.07356237 0.01729888 -0.007129892
-0.7680367 0.5855101 0.15540172 0.31327865 0.19256805 0.20421864 0.03135752 0.05080222

blocks.0.mha.v_mapping.0.bias f4 [4]
00000000: f6ff 243e ca1f c9bd 8b2c 4bbe e714 853e
0.16113266 -0.098205164 -0.1984121 0.2599251

blocks.0.mha.v_mapping.1.weight f4 [4, 4]
00000000: 7f8a 03bf 087b 93be ffbd 40be 4361 5dbe
00000010: 06a2 1fbb aeb5 00bf b186 c93d 3b93 8abd
00000020: d7a1 bcbe 8497 963e 9290 873e 47f9 893d
00000030: c636 323d 9161 b63d feca 173e 908b ba3e
-0.51383203 -0.28804803 -0.18822478 -0.21619134 -0.0024358048 -0.5027722 0.098401435 -0.06766363
-0.36842224 0.29412472 0.26477486 0.06736999 0.043509267 0.08905328 0.14823529 0.36434603

blocks.0.mha.v_mapping.1.bias f4 [4]
00000000: 74e0 e63e 5f47 a33e 0bea 033f fb61 53be
0.4509312 0.3189039 0.51528996 -0.20642845

blocks.0.norm2.weight f4 [8]
00000000: 30a6 893f d07b dd3f 6d2f 6e3f d3f4 a53f
00000010: 8ae2 8b3f f256 733f f3d1 8e3f 7214 963f
1.0753841 1.730341 0.93041116 1.296534 1.0928509 0.95054543 1.1157821 1.172499

blocks.0.norm2.bias f4 [8]
00000000: 00f3 683d c27e 83bd 1824 6c3d 0d66 643b
00000010: 45fb 513e 9b6b 1fbe afa2 013e 255d 3dbe
0.056872368 -0.064206615 0.05765161 0.0034850866 0.20506008 -0.15568392 0.12659715 -0.18492563

blocks.0.mlp.0.weight f4 [32, 8]
00000000: a6c1 0abe 094c e03e 6107 183f bc84 8fbd
00000010: 6867 7e3d dc81 c4be 857c 12bf c012 50bf
00000020: cb9f 763e 8c05 443f 5948 4e3e 8aa4 50be
00000030: 9645 f43d d093 3abf 32a3 eebc db73 fcbe
00000040: e873 e7bd 1fd0 9ebe 8007 85be 9f03 fabe
00000050: 2408 fd3c 1f61 c23c 8111 92bd 3313 153e
00000060: 17c2 00bf 955f 02be 71e1 ea3e e72b ecbc
00000070: 090d d13e 3c90 263d e820 23be 7f0e bf3d
00000080: 6e61 8a3c db70 8bbe 3d45 573e 4d94 49bf
00000090: 38b1 7a3e b1e4 863e 8ae4 f83e aa86 703e
000000a0: e38d c2bc 0ba7 3dbf 6ad2 803d f467 aa3e
000000b0: 27f3 94be 5273 bc3d 5b0b 013f 22ba e43e
000000c0: 418c 1abe 11a2 28be cf10 0d3d cb12 dabd
000000d0: dc64 8cbe 2cc5 90bc 460e 50be f07f 6dbe
000000e0: 85ba 0ebe 8364 113d 22fe 0fbe bf6e 1abe
000000f0: d668 cf3c b8e7 173e a938 3ebd 8a48 723e
00000100: 40b5 913d 4b8e f4be abd4 663f 9799 c63c
00000110: b414 193f 2da0 9dbe d5d8 f83d 9a04 f6be
00000120: ebfe 44bc 1d52 dbbe ea98 eb3e 5cd4 37bf
00000130: 20ea 67bd 3025 953e 3043 113e 1243 343e
00000140: ef3e 49bb b868 073e f24d 83be c93a 0fbf
00000150: 7256 0bbe a8d5 07be b9db 66be ebdd 033f
00000160: 9257 7d3e fd09 813f 9c8f f33c e17a 9abe
00000170: 4af3 c3bc 4ede edbe 35a3 53be 554f 853d
00000180: 0349 3e3e 837a a43f a12f 9cbe 9e29 a4bc
00000190: 5ff7 913e 8000 0bbf 9ed0 a33e 4ebc 11bf
000001a0: 4a42 eb3e b0a2 643e a0b5 cbbd 99c1 94bd
000001b0: 3f66 a4be 4b5b b2bd 9202 a6be 87a0 39bd
000001c0: 5340 a8be 0494 7f3e 40fb 12be 9693 c1bd
000001d0: 8646 c4be 02a7 413e 435f 1b3d 33cd 013e
000001e0: 32d5 bc3d 0c57 b5be d74d 743c 40b2 6b3d
000001f0: a6b9 363f ce50 b13d 3da9 1d3e 89a8 72be
00000200: 9b51 bdbe 6d64 eebd baed 8bbe 9b0f b1be
00000210: d737 223e f8ef 6fbe 3b17 f9ba 29e0 ae3e
00000220: 7fb2 213a 461d 07bf 9094 54be d120 783e
00000230: 776e f33d 071a 733e 38a8 623e ee89 803e
00000240: 128d 34bd 7d59 90bc 8fb6 b9bd 46c0 433c
00000250: 65e0 82bd 2e28 c8bc 2f3c f03c a916 86bd
00000260: dbf0 3cbe e863 68bf 95bf 8c3e c085 2abd
00000270: 96ac 783e 9b7b c2bc c287 3e3f 0859 52be
00000280: c562 8b3e 82f3 07bf f6e6 ca3e c89b 8e3d
00000290: 0236 62be 8584 b2bc db25 d4be 0213 673e
000002a0: 877e 1abe 2da0 113f 4ea2 18bd 6ac4 ca3d
000002b0: a595 7d3e 2cbf 8ebd 23ad 923e 4cd3 33be
000002c0: a632 a13d 3c1a d4be 9b2f 34be aef7 da3d
000002d0: cce0 c73e db1d 893e e8ce 043f f769 86bd
000002e0: edb9 c33e 7285 24bf 3a0f 61be 67bf 1ebf
000002f0: e5f4 e73e 0512 553e dc04 75bd 4e6a 023d
00000300: b885 413f ba1f 053f e29d 9e3e ebc0 443e
00000310: 47d4 88bd 2e55 cdbe 2b2f ea3d 437a 1abd
00000320: 3240 99be 6ca8 0d3f 7864 d93e f2f9 833e
00000330: 6ce5 d0be 20ac 1b3d 05bf 93be 09d7 4e3d
00000340: 333d 25be ec1c ae3e c0a0 983e 1e2f 613d
00000350: 5f2f 91be bc02 e33d 165b dfbe bdf6 0f3e
00000360: 704f 8c3c e906 2ebf ac79 89be 69c4 833e
00000370: efb6 f53d 55b3 ae3d 7b42 1f3f 27a8 20bf
00000380: ddf8 81bd 6521 0cbe df10 c3bd cb8e 223e
00000390: 49f0 373e a386 63be 54d3 fbbe 4c74 11bf
000003a0: 9db2 f73e c165 823e f0e1 8e3e 09c2 913c
000003b0: b628 bf3e 1350 d0bd d5bb 353e 13b4 933e
000003c0: b0b5 ef3e a717 1b3f 61fd e03e a5f7 223e
000003d0: 881f 0abe 8814 1abe 7974 823e 3967 f8be
000003e0: 985b bdbe c65c adbe 5a8d 99be 911c 60be
000003f0: 763a 033f c8d0 93bd 4f0c 6cbc 19f3 fe3e
-0.13550434 0.4380801 0.5938626 -0.07007739 0.062110335 -0.38380325 -0.5722125 -0.8127861
0.24084394 0.76570964 0.20144786 -0.20375267 0.11927335 -0.72881794 -0.029130552 -0.4930714
-0.11301404 -0.3101816 -0.25982285 -0.48830888 0.03088767 0.023727952 -0.07132245 0.14558105
-0.5029616 -0.12731774 0.45875123 -0.028829528 0.40830258 0.040664896 -0.15930521 0.09328937
0.016892161 -0.2723454 0.21022506 -0.78741914 0.24481666 0.26346353 0.4861186 0.2348887
-0.023749297 -0.7408301 0.06290133 0.33282435 -0.2909176 0.09201683 0.5040795 0.44673258
-0.15092565 -0.16468073 0.034439858 -0.10648116 -0.274207 -0.017672144 -0.20317945 -0.23193336
-0.13938339 0.035496246 -0.14061788 -0.15081309 0.025318544 0.14834487 -0.046440754 0.23660484
0.07114649 -0.4776481 0.90168256 0.02424316 0.59797215 -0.30786267 0.121507324 -0.48050386
-0.012023668 -0.42836085 0.46015102 -0.7180841 -0.056619763 0.29129934 0.14185786 0.1760371
-0.0030707677 0.13223541 -0.25645405 -0.55949074 -0.13607195 -0.13265097 -0.22544755 0.51510495
0.24740437 1.0081173 0.029731564 -0.30171874 -0.02391972 -0.46458668 -0.20667727 0.06509272
0.1858254 1.2849888 -0.30505088 -0.020039376 0.28509042 -0.5429764 0.319951 -0.56927955
0.45949012 0.22327685 -0.099467516 -0.07263488 -0.32109258 -0.08708819 -0.32423836 -0.045319106
-0.32861575 0.24958807 -0.14353657 -0.09451978 -0.38335055 0.18911365 0.037932646 0.12675934
0.09220351 -0.35417974 0.014911137 0.05754304 0.7137703 0.086579904 0.1539659 -0.23697104
-0.36976323 -0.116402484 -0.27329808 -0.3458222 0.15841614 -0.23431385 -0.0019004116 0.34155396
0.00061682606 -0.5277904 -0.20759797 0.24231268 0.11886304 0.23740397 0.22134483 0.25105232
-0.044079848 -0.017620796 -0.090680234 0.011947697 -0.06390456 -0.024433222 0.029325573 -0.06547291
-0.18451254 -0.90777445 0.27489915 -0.04163146 0.24284586 -0.02374058 0.744259 -0.20541775
0.27223793 -0.5310594 0.39629334 0.06963307 -0.22090915 -0.021791706 -0.4143513 0.22565845
-0.15087329 0.56885034 -0.03726416 0.09900744 0.24764116 -0.06970057 0.28647718 -0.17561072
0.078709885 -0.41426265 -0.17596285 0.106917724 0.39038694 0.2678059 0.51878214 -0.0656318
0.38227788 -0.6426612 -0.21978465 -0.62010807 0.45304027 0.20807655 -0.059819087 0.03183966
0.75594664 0.52001536 0.3097983 0.19214217 -0.06681114 -0.4010405 0.11434778 -0.037714254
-0.2993179 0.55335116 0.42459464 0.2577663 -0.40800035 0.038005948 -0.28856674 0.050498042
-0.16136627 0.3400644 0.29810143 0.054976575 -0.28356454 0.11084506 -0.4362418 0.14058967
0.017127723 -0.67979294 -0.2685064 0.25735787 0.119977824 0.085302986 0.62210816 -0.6275658
-0.06346295 -0.13684614 -0.09524702 0.15874784 0.17962755 -0.22219329 -0.49184668 -0.5681808
0.4837846 0.25468257 0.27906752 0.017792718 0.37335747 -0.10171523 0.17747433 0.28848323
0.46818304 0.60582966 0.43943313 0.15914781 -0.1348859 -0.15046895 0.25479487 -0.48516253
-0.36983943 -0.33859843 -0.29990655 -0.21885897 0.5126108 -0.07217556 -0.0144072315 0.49794844

blocks.0.mlp.0.bias f4 [32]
00000000: e948 2f3e dff2 693e d0ba aebe dd77 ec3d
00000010: 9d5c cfbd 25c6 f1be 3db9 1f3e dbbf 0e3e
00000020: 44c7 13be 5dc5 e93a ebb8 ecbd 7e89 73be
00000030: 9de8 a43e f87f bebc b035 e5be face 2dbe
00000040: 52b5 c0bd 64a8 8bbe ed80 71bd 7592 553e
00000050: a618 f4bd 200b 82be 2e92 2cbe ce2b 8bbb
00000060: d225 0d3d 71c4 cabe 3160 aabe 8bef bebe
00000070: 75f3 a1be 01fc 8c3c b5dc d4be 5416 733d
0.17117657 0.22846554 -0.34126902 0.115462996 -0.101250865 -0.47221485 0.15598007 0.13940375
-0.14431483 0.0017835308 -0.11558708 -0.23782918 0.3220872 -0.02325438 -0.44767523 -0.16973487
-0.09409584 -0.2727691 -0.058960844 0.2085665 -0.11918764 -0.25399113 -0.16852638 -0.0042471653
0.034459896 -0.39602998 -0.33276513 -0.37292132 -0.31631055 0.017210009 -0.41574636 0.059347466

blocks.0.mlp.2.weight f4 [8, 32]
00000000: cabb 4b3d 7ead 213b c586 b0bd 24db 36be
00000010: 8d66 91bd 76d7 37be 980c 88bc c792 5cbe
00000020: 6b0d f8be ae66 0dbf a7eb 923d ef38 b6be
00000030: 669e 4ebe 1c3b ce3d 465b eebd 6946 f4bd
00000040: 4c36 3fbe 018a 50be 0c37 80bc 7982 9f3d
00000050: 759c b93d 997c 243e 9625 2ebe 4840 95be
00000060: 4473 643c 45fb e4bd d7a8 20be c51c 103e
00000070: 2e8f 06be bf0a 7abc 84c9 223e fa82 6cbe
00000080: abc2 893e 504f 123f 885d b5bd df06 1f3e
00000090: b7e5 13be 3b8c 1ebe 2440 a23d 16bb 5d3d
000000a0: 426e 303e 9b88 9c3e 6369 91bd 20f4 bcbe
000000b0: 0d05 a2bd 9b83 c9bd 8f46 42be cf21 b83e
000000c0: 6170 bfbd dd86 14be 1ad5 e3bc 3595 763d
000000d0: c5ff 573d a24b d33c cdbe 4b3e 0eaa 173e
000000e0: 7e6d dd3d 4c84 f2bd 68cf 1dbe 849d 82bc
000000f0: aff1 ca3d cf00 2ebc 630f af3e 7224 883d
00000100: c800 a8be 2e49 a5bb 6141 543d 01b3 853e
00000110: a13d e4be e01a 8d3d aedb fd3d f1b3 2d3e
00000120: 4cf5 3c3e 3a6d f1be 80d0 773d 11e2 983f
00000130: b467 5dbc 0ec3 66be 6722 abbd 8263 4c3d
00000140: dc89 1abd 142d f23d e03b 43bc 29b4 42bc
00000150: a961 35be de6d 2f3d 42cb 9c3d 1302 1e3d
00000160: 1e62 cd3c 7ac8 4b3e fffe 743e bed7 293d
00000170: 71cd 08be 73ad 4fbe 5956 5f3e a388 093d
00000180: 7eb4 9bbd 673e dcbd ec54 043e 3b8a f2be
00000190: 91df 73bd b762 14bf 5987 c2bd 7f94 fd3d
000001a0: aa53 ab3e 9746 d53d 166b 61bc 4a0c f73e
000001b0: 2eb2 3c3e 9bfc f2bd 0613 4f3e d11f 833d
000001c0: 1bb3 7f3e b766 b6bd 514b debc 6f87 c4be
000001d0: 7827 b3be b265 1f3d eb95 abbd 06c4 9dbe
000001e0: 8ec9 683e a738 01be 224a a03d 0c78 5fbe
000001f0: 6177 adbe 7a71 15bd 2c74 a73e d727 c23d
00000200: fc8f a8be 1a3c 70be 14f7 b23d a8c1 06be
00000210: e61f 8f3e a66f 843d 0ad3 ec3b cb80 bcbd
00000220: ddc4 af3e 26c6 d23e 4be0 693e c3e6 da3d
00000230: f96b ebbf 83c2 8cbd b80e 46bc 1bc3 0d3e
00000240: c4ec 1cbe 8f38 53be 3f48 41bc b99e 743e
00000250: e29c c33c 418f 14be 5e71 f5bd b2cf bd3e
00000260: ce29 17be 739c 973b 8e26 9e3d a325 113d
00000270: 3790 553d 9ed2 1b3e ab88 7cbe 6895 a6be
00000280: 4689 7d3c 9679 0a3f 6933 67bd 1971 903d
00000290: 0a6e b9be ea33 813e 42d5 b33d 3cfb c23c
000002a0: a0dc 6ebe cd4a e2be 800e aabe 1d9f 3d3e
000002b0: 065e 703f 1fd3 84be f767 dbbd d6fe 8bbe
000002c0: d4ac 98bd 19cf 5d3b 800e 91bc 366d 04be
000002d0: 4fdc 913e 707f 1d3e a0c4 3abe c751 eebd
000002e0: d778 2f3e 82ff 7fbc 296c e2bd da35 a0be
000002f0: 6a45 9abd 213c a43d ef27 543e 244d 84bd
00000300: f351 b03e 7ecc acbe 3303 763e d7c2 8cbd
00000310: dbfa 23bd 228b 01be eb07 3b3e b212 ee3d
00000320: 231d 34bd b023 033e 39bf e13d 6371 04be
00000330: 8b5d 7abe 4f08 aabd e6f9 11bc 3361 70be
00000340: e6ff e8bd d214 b7bd 274f 61bc d267 16be
00000350: c41c cebd 97e0 ab3d 95f8 a2be 6c7b 193f
00000360: 8e56 b4be 0ba6 523e 2109 563e 5588 82be
00000370: 18c3 b83d 757a c1bd 0e22 c8be 50a4 47be
00000380: 86b2 31be c0dc 91bd 911c eebd 82a3 e2bd
00000390: b525 08be 4d79 163e 197b d23d 0d4e e6bd
000003a0: aba0 9d3d bb82 4c3d 8b9d 963d beb3 043f
000003b0: 82bf 013e 0aef ca3e 0355 86be e7fe 6a3e
000003c0: 4003 90be abde 5fbc f332 04bc 5629 203f
000003d0: 162f ac3e 5ab1 07be 2a38 e5bd b80b 473d
000003e0: 1dae d93e 666a d9be ffc6 3bbe cbf7 c33e
000003f0: 2d3a 873e 7d95 ab3e 30c4 d8bd 3ac1 91be
0.049739636 0.002467006 -0.08619455 -0.17857033 -0.07099638 -0.17953286 -0.016607568 -0.21540366
-0.48447737 -0.552348 0.07173853 -0.35590312 -0.20177612 0.10069868 -0.11638503 -0.11927492
-0.18673056 -0.20365144 -0.015651248 0.077885576 0.09063045 0.16063155 -0.17006525 -0.29150605
0.013943497 -0.11180738 -0.15689407 0.14073475 -0.13140556 -0.015261351 0.15897185 -0.23096839
0.26906332 0.5715227 -0.0885573 0.15529965 -0.14443098 -0.15483181 0.0792239 0.054133497
0.1722956 0.30572972 -0.07100179 -0.36905003 -0.079111196 -0.09839555 -0.18972228 0.35963294
-0.093476065 -0.14504571 -0.027811576 0.06020089 0.052734155 0.0257929 0.19897003 0.14810964
0.108118996 -0.1184164 -0.1541115 -0.01594425 0.09909379 -0.01062031 0.34191427 0.066475764
-0.32813096 -0.005044124 0.051820163 0.26113132 -0.4457827 0.068898916 0.12395416 0.16963173
0.18452948 -0.47153646 0.060501575 1.194399 -0.013513494 -0.22535345 -0.08356171 0.049899586
-0.03772913 0.11825004 -0.011916131 -0.011883774 -0.17713036 0.042829387 0.07655956 0.038576197
0.0250712 0.19900694 0.23925398 0.041465513 -0.1335962 -0.2028101 0.21810283 0.033577573
-0.076027855 -0.1075409 0.1292302 -0.47371086 -0.05953938 -0.57963127 -0.09498472 0.12381839
0.33462268 0.104138546 -0.013758441 0.48251563 0.18427345 -0.11864587 0.202221 0.06402553
0.24970667 -0.0890631 -0.027135523 -0.38384578 -0.3499105 0.038915344 -0.08378204 -0.30813617
0.22733137 -0.12619267 0.0782664 -0.21823138 -0.3388014 -0.036485173 0.3270582 0.09480255
-0.3292235 -0.23460427 0.08738533 -0.13159811 0.27954024 0.06466608 0.0072273063 -0.09204253
0.34329882 0.411668 0.22839467 0.106885456 -1.8392326 -0.06873038 -0.01208847 0.13843958
-0.15324694 -0.20627044 -0.01179701 0.23888673 0.023878518 -0.14507772 -0.11984514 0.3707252
-0.14762041 0.0046268045 0.077221975 0.035436284 0.052139487 0.15217063 -0.2466151 -0.32535863
0.015474623 0.54091775 -0.056445513 0.07052822 -0.36216766 0.2523492 0.0878091 0.023801439
-0.2332635 -0.44197693 -0.33214188 0.18517728 0.9389347 -0.25942323 -0.10713189 -0.27342862
-0.07454839 0.0033845364 -0.01770711 -0.12932286 0.28488395 0.15380645 -0.18239069 -0.116366915
0.1713594 -0.015624883 -0.11055786 -0.31291085 -0.07532771 0.08019281 0.20718358 -0.06460026
0.34437522 -0.33749765 0.24024658 -0.068731 -0.040034156 -0.12650731 0.18264739 0.116246596
-0.0439731 0.12806582 0.11022801 -0.12933879 -0.24449746 -0.08302366 -0.008909678 -0.23474579
-0.11376934 -0.08939518 -0.013751782 -0.14688042 -0.1006408 0.083924465 -0.31830278 0.5995395
-0.35222286 0.20571153 0.2090192 -0.25494638 0.09021586 -0.09447185 -0.39088482 -0.19496274
-0.17353258 -0.07122183 -0.11626542 -0.11066343 -0.13295634 0.1469471 0.10277385 -0.11245356
0.076966606 0.04992936 0.07354268 0.51836765 0.1267071 0.39635497 -0.26236734 0.229488
-0.2812748 -0.013663928 -0.008068788 0.62563074 0.33629674 -0.13251248 -0.11192353 0.04859516
0.4251565 -0.42463988 -0.1833763 0.3827499 0.26411572 0.33512488 -0.10584295 -0.28467733

blocks.0.mlp.2.bias f4 [8]
00000000: c4eb a33c 72d9 9a3c 680c 053e 5474 74be
00000010: 3f86 81bd 9586 093e 7892 c53d afab 25be
0.020009883 0.018902514 0.12993014 -0.238725 -0.063244335 0.13430245 0.09647077 -0.16178773

blocks.1.norm1.weight f4 [8]
00000000: 7552 923f 3fc6 9a3f 9184 a63f c6b1 8f3f
00000010: 0713 a13f b25f a23f 000a 933f b8b7 733f
1.1431414 1.209175 1.3009206 1.1226127 1.2583932 1.2685454 1.1487427 0.9520221

blocks.1.norm1.bias f4 [8]
00000000: 50d7 fcbd 05fc 31bc b269 cdbc 1176 17bd
00000010: e1ae 253c 2c93 813b a68f 473b 5ece b9bd
-0.12345755 -0.010863309 -0.025074814 -0.03697783 0.010112495 0.003954312 0.0030450611 -0.090725645

blocks.1.mha.q_mapping.0.weight f4 [4, 4]
00000000: 2287 363f aaee e7be 0ac5 efbd 5d2d 233e
00000010: e655 8c3d 0c03 44be c224 a8be c698 713e
00000020: 1bad febe 5db9 a13e b166 203e 93b9 163f
00000030: b1f9 29be da28 503f e4ec ddbc 03f5 06be
0.71299946 -0.45299274 -0.11707504 0.15935273 0.06852321 -0.19141787 -0.32840544 0.23593435
-0.49741444 0.31586733 0.15664174 0.58876914 -0.16599156 0.81312335 -0.027090497 -0.13179402

blocks.1.mha.q_mapping.0.bias f4 [4]
00000000: e2d8 4ebf 6d22 5cbf 00e5 183f 30af 08be
-0.80799687 -0.8599003 0.59724426 -0.13348079

blocks.1.mha.q_mapping.1.weight f4 [4, 4]
00000000: 8bb1 97be b4c9 3a3d 22dd f6bc 5048 023f
00000010: d03c d73e 936f c8be 2bd2 0c3e 3fc3 dd3d
00000020: 991b 8abd 9123 703e 6ac0 423f efac c0be
00000030: 8e9e 9c3e c152 bfbe 276b 96be 8abb 673e
-0.29627642 0.045602515 -0.030134741 0.5089159 0.42038584 -0.39147624 0.13752048 0.10828256
-0.06743545 0.23451068 0.7607485 -0.37631938 0.30589718 -0.37367824 -0.29378626 0.22630134

blocks.1.mha.q_mapping.1.bias f4 [4]
00000000: 9181 91be e3f3 4e3b 51eb 51be cee1 a73e
-0.28419164 0.0031578473 -0.20499922 0.32789463

blocks.1.mha.k_mapping.0.weight f4 [4, 4]
00000000: 6a72 d2be 973c 85be 8467 993d 7f04 18bf
00000010: 1ffe e2be f316 e7bc 00a6 5d3e cb98 09bf
00000020: 90d5 223f 3e20 4c3e 3e3a 043f b8f8 3d3d
00000030: b897 4e3e a1e1 103d b64e 11bf c684 16ba
-0.41102916 -0.2602279 0.07490447 -0.5938186 -0.44334504 -0.028209185 0.21645355 -0.5374877
0.6360712 0.19934174 0.5165137 0.046379775 0.20175064 0.035371426 -0.5676073 -0.00057418307

blocks.1.mha.k_mapping.0.bias f4 [4]
00000000: 969f c03e 1aaf d73e 9c14 3f3d f092 e83d
0.37621754 0.4212578 0.046650514 0.11356151

blocks.1.mha.k_mapping.1.weight f4 [4, 4]
00000000: 3b81 d0be ba90 d53e 1fbc 5fbe 3cb9 723e
00000010: 1e0b 8bbd 135a 3f3e dbf4 cabe 73a9 1a3f
00000020: c3b9 073f ac24 f3be a01f 58be d782 3e3d
00000030: 7d2d 27bf 96f0 0abe 3a16 0f3e 96c2 7bbd
-0.40723595 0.4171198 -0.21849106 0.23703474 -0.0678923 0.18686704 -0.39639935 0.6041481
0.53017825 -0.47488916 -0.21105814 0.046511497 -0.65303785 -0.13568339 0.13973323 -0.06146487

blocks.1.mha.k_mapping.1.bias f4 [4]
00000000: b856 8c3e 9c42 853e cac5 9e3e 4a36 a3be
0.2740991 0.2602738 0.31010276 -0.31877357

blocks.1.mha.v_mapping.0.weight f4 [4, 4]
00000000: 0a96 023f 0086 04bf 4c16 243f 917a 9fbe
00000010: 7e5b 1dbf d89b 893e a054 e13e 6e6d 4e3f
00000020: 132a 71bc 34ed eebe a621 7bbd dd4e d0bd
00000030: fe05 0d3f ec5c 953e a197 4f3e fc43 f9bd
0.5101019 -0.5176697 0.6409652 -0.31148198 -0.6146773 0.26876712 0.44009876 0.80635726
-0.014719504 -0.46665347 -0.061311387 -0.10171292 0.5508727 0.29172456 0.20272686 -0.1217117

blocks.1.mha.v_mapping.0.bias f4 [4]
00000000: 1b82 b73e 582c 003e 5610 e0bd 877f c9be
0.3584145 0.12516916 -0.10940616 -0.39355108

blocks.1.mha.v_mapping.1.weight f4 [4, 4]
00000000: b658 1cbf 1233 e53d 1a56 403d f27a c3bd
00000010: 454e 893e a2e6 00bf 3784 353f 3695 c8be
00000020: 4688 833d 6b85 e93e 4bd3 663e 5086 44bf
00000030: ca40 dbbd 3e50 ef3c cac7 803d c835 9bbd
-0.6107286 0.111913815 0.046957113 -0.09544934 0.26817527 -0.5035192 0.7090487 -0.3917634
0.064224765 0.45609602 0.2254154 -0.76767445 -0.10705717 0.029213067 0.06288107 -0.07578617

blocks.1.mha.v_mapping.1.bias f4 [4]
00000000: 1133 093e 2f17 c7be 422f 913d cc35 1c3e
0.13398387 -0.38884875 0.07089092 0.15254897

blocks.1.norm2.weight f4 [8]
00000000: b703 bc3f 2495 c03f 9550 b83f f0d5 bc3f
00000010: e582 9c3f 191e 0e40 3969 0840 9b03 bf3f
1.4688634 1.5045514 1.4399592 1.4752789 1.2227446 2.220587 2.1314223 1.4922975

blocks.1.norm2.bias f4 [8]
00000000: 13d0 7e3e b2f9 21be 55cd 7e3d 3a40 1b3f
00000010: daef bf3c b3d3 e4bd 20b6 8cbd ecc0 253e
0.24884062 -0.15817907 0.06220754 0.60644877 0.0234298 -0.11173191 -0.06870675 0.16186875

blocks.1.mlp.0.weight f4 [32, 8]
00000000: 47e9 1cbf 81d9 93bd 880f 043f f59c a4be
00000010: caea c7bd 2f4f ef3e 230b 5a3f 37b8 a9bd
00000020: 9a06 1e3e 7fb9 4ebe f3de e43e b651 03be
00000030: 1c31 3ebe 14ca 33bd 03a2 2f3f e1c4 86be
00000040: d587 51be b1af 49bd 865d 97be 6d78 c13e
00000050: 3d23 c53d a498 84be aedc 3dbe c819 123d
00000060: 37aa a0be f1f8 d83e 7d67 0bbe 8b0d 123c
00000070: ff60 57bc 4995 c13e a1d5 9a3d ed37 083f
00000080: b55c 063e 9ac4 983e 21c0 0d3d 2ad3 183f
00000090: 0f74 1dbe 6cf0 06bf 8347 4b3e 1576 c9be
000000a0: 7c06 e73c a072 813e c53d 2f3e 7193 06bf
000000b0: 8149 04bf 6c71 163f 7034 eb3b 56b7 b93d
000000c0: 5b43 9b3e fe25 9d3e e28f 2b3e e46c c5be
000000d0: bf15 5ebe 1ea2 29be e830 bebd 364d 9fbe
000000e0: 4779 86be bac6 f23e 2971 0cbe 8f0e e1be
000000f0: 8063 193f d197 2b3f fbd5 90be fe71 ecbe
00000100: 6963 cdbe 325c 253f e591 54be 17e7 3f3e
00000110: 7de5 1f3e f688 e73e 7900 60be b086 e0be
00000120: fcf0 14bf 7579 193f dcab 1bbe ef41 ff3e
00000130: 1fac 11bd 4dd4 413f 20de 99be c17f 9e3e
00000140: 9927 2cbe df8f 22bf 4c20 25be 62f0 df3e
00000150: 780b f53e 603d bf3c ab70 2e3f 7495 a93e
00000160: 16b6 203f 8233 07bf 61cd a23e ff4e 1bbf
00000170: 2f84 a1bd 0514 08bf 417f d13e af8a 563e
00000180: 633b 4a3f bb03 16bf 7e4e 0a3f 7cf7 513e
00000190: a5cc b1be bcd5 44bf 7b12 093f b73a f03e
000001a0: b2ba 04be 87b0 fcbe a19f c8be c4a6 babe
000001b0: e2c4 133f 8545 b93d a2f6 143f 90d7 5cbe
000001c0: 657d 203f becd 063f 862f a3bd 7e96 553e
000001d0: 943d 1bbf 3a0c 983d 11b9 f3be 9dac 573f
000001e0: 0bee 9a3e c3b4 60bd e334 0d3e 2bed 123e
000001f0: cd25 a9be 8a5d 66bf 5114 cb3d 1a50 d73a
00000200: e17e 863e 093b a8be 519a 50bf 46fb 27bf
00000210: dd7f 3c3e 82e9 a4be 825f 963e d42f 533e
00000220: dfc9 06bf 82c9 04bf 2ff8 833e 540a 9abe
00000230: 8a2d 0fbe b979 3f3e c54e 623f 7b33 a83e
00000240: 86b8 e6be 722f 8dbe cda0 723e 27a5 12bf
00000250: d18e c3be 1340 733e 9666 493f c538 48be
00000260: 59b1 5cbd 739b ea3e 49ef f3be 5e4e 493d
00000270: 9e96 df3e 3ae8 7d3e daf9 9cbe 9755 583e
00000280: 28c2 203d 48d4 f83e d1c7 c2be c889 1b3e
00000290: e1bc 25be 59b5 0abf 5bdd 813d 3c45 53be
000002a0: dcce e1bc b018 48bf 7b1c 0abe 55bf fb3e
000002b0: a843 58bd 20e6 9dbe 3bba 433e d6f3 a43e
000002c0: 5b57 033f 6f69 57bf 0a9f 9e3e 0858 cc3e
000002d0: f038 3bbd 090c 85bd 8eeb dcbd 5ca5 90be
000002e0: 8ab5 05be d707 813d 5e36 803e 5918 3f3e
000002f0: dae3 a0be 6669 bdbe a488 efbe 481d b9bd
00000300: 060c d9bc f02d 3d3c 46c9 b7be a4a4 a2be
00000310: e099 863e d775 b1be 4c54 ad3e 1b97 063f
00000320: f039 1f3f 2f8c a43d 420f 833e 3a63 af3e
00000330: b104 e8bd 01fa 03bf d0d5 fabe bc8d 163e
00000340: 9d91 79bd 381b 623e e118 a33e c84d e5bd
00000350: 3011 d4be 16cc e03e 2bb0 e43e 1edf 8abe
00000360: 443e 823e 6452 4b3e 04a8 e8be 0286 ca3e
00000370: 7e31 57bf 8a04 4dbe affc 1cbf 35fb 3c3f
00000380: 6fe1 2abf 3e61 e13e 83ef 85be e0ce 0dbe
00000390: 0544 57be 0e1b 3d3f 9f3d 9ebe d176 9a3e
000003a0: 6f9a 22bf 6e5a f23e 95df ebbd 6c9b 70be
000003b0: b737 0f3e 34ce 583e 7ab7 e9be 5fa5 c3bd
000003c0: b5e1 023f 52b0 153f d560 c53e edb2 b13d
000003d0: db76 e7be 9755 853d 69da d0be 6885 e93e
000003e0: 0bc3 e9be e8a6 a93e e951 f8be ca51 35bf
000003f0: 8a45 19bd a107 4b3f 45ac 85be fb0e c5bb
-0.6129345 -0.0721922 0.515862 -0.32151 -0.09761579 0.467401 0.85173243 -0.08287089
0.15432206 -0.20187949 0.44701347 -0.12824139 -0.18573421 -0.04389389 0.68606585 -0.26322082
-0.20461972 -0.049239818 -0.2956354 0.3778719 0.09625862 -0.25897706 -0.18541214 0.03566912
-0.31379864 0.42377427 -0.13613696 0.008914362 -0.013145684 0.37809208 0.07560278 0.53210336
0.13121302 0.29837495 0.034607057 0.5969721 -0.15376304 -0.52710605 0.19851498 -0.39347902
0.028201334 0.25282764 0.17113407 -0.5256873 -0.5167466 0.5876682 0.007177882 0.09068172
0.30324826 0.30693048 0.16754106 -0.3855964 -0.21687983 -0.16565749 -0.09286672 -0.31113595
-0.26264402 0.4741724 -0.13715042 -0.4395642 0.5991745 0.6702853 -0.28288254 -0.4618072
-0.40114906 0.64593804 -0.2075878 0.18740498 0.15614887 0.4522168 -0.2187518 -0.43852758
-0.5818021 0.59950954 -0.15202278 0.4985499 -0.035564538 0.7571457 -0.3005228 0.30956843
-0.1681198 -0.6350078 -0.16125602 0.43738085 0.47860312 0.023344696 0.6814067 0.33121836
0.6277784 -0.5281297 0.31797317 -0.60667413 -0.0788654 -0.5315555 0.409174 0.20951341
0.78996867 -0.5859944 0.5402602 0.20504564 -0.34726444 -0.7688863 0.53543824 0.46919796
-0.12961844 -0.4935343 -0.39184287 -0.36455357 0.57722294 0.09046463 0.5818883 -0.21566606
0.62691337 0.5265769 -0.07968049 0.2085819 -0.60640836 0.07424207 -0.47602132 0.8424776
0.30259737 -0.054859888 0.13789706 0.14348285 -0.33036652 -0.8998648 0.099159844 0.001642707
0.26268676 -0.3285754 -0.8148547 -0.6561779 0.18408151 -0.32209402 0.29369742 0.20623714
-0.5265178 -0.51869977 0.25775287 -0.30086005 -0.13982216 0.18698777 0.8840144 0.32851776
-0.45062655 -0.2757526 0.23694153 -0.5728325 -0.38194898 0.23754911 0.7867216 -0.19552906
-0.05388007 0.45821723 -0.47643498 0.049147002 0.436696 0.24795619 -0.30659372 0.211264
0.03924766 0.48599458 -0.38043073 0.15189278 -0.16185333 -0.54182965 0.06341048 -0.2063188
-0.027564459 -0.7816267 -0.13487427 0.49169412 -0.052798897 -0.30839634 0.1911401 0.32217282
0.5130517 -0.84145254 0.30980712 0.39910913 -0.045708597 -0.06496436 -0.10787116 -0.2825116
-0.13057533 0.063003235 0.2504148 0.18661632 -0.31423837 -0.36994475 -0.46783936 -0.09038788
-0.026494991 0.011546597 -0.35895747 -0.31766236 0.26289272 -0.34660217 0.33853376 0.5257432
0.6219778 0.080345504 0.25597578 0.3425539 -0.1132902 -0.5155335 -0.4899125 0.14702505
-0.060929883 0.22080696 0.3185492 -0.11196476 -0.41419363 0.43905705 0.44665655 -0.2712335
0.2543813 0.19855648 -0.45440686 0.39555365 -0.84059894 -0.20021263 -0.61323065 0.7382081
-0.66750234 0.44019502 -0.26159295 -0.13848448 -0.21022041 0.7386941 -0.30906388 0.30168775
-0.63516897 0.47334617 -0.11517254 -0.23496789 0.13986097 0.2117241 -0.45647794 -0.095530264
0.5112565 0.5847217 0.3855044 0.086767055 -0.45207867 0.065104656 -0.40791634 0.45609593
-0.45656618 0.33135152 -0.48499992 -0.70827925 -0.037419833 0.79308516 -0.26107994 -0.0060137487

blocks.1.mlp.0.bias f4 [32]
00000000: be7f 40be 1a11 9bbe 0e14 783e 579c 5dbe
00000010: 0286 cbbe d2a8 c6b9 e41c bf3e a3dc 363e
00000020: 2203 3a3e 6c6f 0dbe 6cd2 ad3d 3701 21bf
00000030: 864d d33e eda9 5b3e ea06 1e3d 34fc abbe
00000040: d899 fbbc a8b3 27bf ae1b acbe 86bb 873e
00000050: 3f22 67be d024 dc3d 7ff4 1c3d 548e edbe
00000060: 8191 6f3e b9d4 59be f529 87be 9148 a7be
00000070: 3dc3 3abf b13d 79be 7177 9a3e 083b ef3d
-0.1879873 -0.30286485 0.242264 -0.2164167 -0.39750677 -0.00037891284 0.3732673 0.17857604
0.18165258 -0.13812035 0.084874004 -0.6289248 0.41270083 0.2145154 0.038580813 -0.33590853
-0.030713007 -0.6550851 -0.33614868 0.26510257 -0.22571658 0.10749209 0.038319107 -0.4639765
0.23395349 -0.21272554 -0.26399198 -0.3267255 -0.7295416 -0.2433994 0.30169252 0.11681181

blocks.1.mlp.2.weight f4 [8, 32]
00000000: 0648 01bf 6249 97be ced1 4ebe 1436 a6be
00000010: f66f 4cbe b18c 84be 1cd7 863e c1d6 f7be
00000020: 1335 a6bd 11db 58be 21ef 5c3d f95d a4be
00000030: d5f2 99bd d1b0 86bd 7e43 fbbe a30e 9f3e
00000040: ef11 debe 5ce7 333f d8c5 95bd 7f6f 2cbe
00000050: d30e 6bbe 7765 633e d3da 25be 5c62 26be
00000060: 5f68 263f 33a3 1ebd b3f6 1e3e d3e8 093f
00000070: 1fef 1c3f 0f4a d43e b04d 92be 3453 9a3e
00000080: 08ea 19be 908c 59be c6a8 2d3e 2f67 18bf
00000090: 2a5b 833e 93c0 013e 58c5 32be 9917 8cbe
000000a0: 473e 9b3e 03ff b6bc 260b 9a3e ad96 be3e
000000b0: ce7a 29bf e91f 44be d16f 10bf 5a99 bfbc
000000c0: 5636 91be e1ac d53e e876 6c3d 29a0 c6bd
000000d0: 3b72 72be e85d f2bd 9e3b 613e c48c 5c3e
000000e0: 9341 6e3e d18e d63d 6353 edbe 2e38 493f
000000f0: 094e dabd d74a 8bbc eff1 21be a2c8 3c3e
00000100: 3410 2ebe f055 81bd 1adb 333d 9f02 41bc
00000110: 4ad6 12bd b173 f0bb 5af6 a3bd d21a 2cbe
00000120: 5d99 643e 187f dc3c 91af dc3d f659 fc3e
00000130: 7854 18bf 2986 a2be 1817 263f 6c6f 34be
00000140: d580 09bd 07c5 0a3f e60d 7abe ac61 8a3e
00000150: 1d05 403e 9ded 273e 503b c33d 8fb5 31be
00000160: b6cc 7d3e a8a4 343e cbc2 3ebe 265f febe
00000170: c751 bfbd cae7 70be fb36 303e c52a 273e
00000180: f0d4 aa3e fe60 403e ea5e 6e3e 8823 cdbe
00000190: 9689 3dbe e129 a9be 290c cb3c efdc 91be
000001a0: 2434 c8bd f133 233e a65c 44be 5b1e b7be
000001b0: af5c e33d ce51 273e 7bc5 973e 35da a83d
000001c0: f76e cd3d 7339 b1be 39a1 863e 45ed 353e
000001d0: 4483 473e 92be 583e d951 283d f802 80be
000001e0: ad2f 243d bfe8 dfbb bc91 f7bd de06 0bbf
000001f0: 8d05 14be e9a5 09be 5f8e bc3e d818 863e
00000200: 4a06 9dbd 5560 bfbe 6567 f7bd 55a1 c23d
00000210: 4ee1 153e fd3a ad3f 7ffc 0f3e c97a a43c
00000220: a643 8a3e b615 17be cf69 8a3e 8f8a 973d
00000230: 985f ad3d 5ed5 b8be f436 10bf 96e9 f7be
00000240: 3d75 0c3e 0ef4 5abd 164a f83e 3c37 a03d
00000250: 0951 cc3e 977f 56be 613e a13e c015 88bd
00000260: 4210 ce3d 4bae 0fbd 807a 86bd c818 96bd
00000270: ce50 02bf 60d6 29be 85d5 d83e d048 00bf
00000280: 999e 873e d382 f93d cf83 f4bc 83c5 9fbe
00000290: 3bdb c43d 6d36 89bd 9d7e 2f3e b04b 81be
000002a0: 3730 c7bd ded8 a43c 72f2 e1be 49e3 c73d
000002b0: e2e0 e0be b2ad c83d 69cc 17be 7e9b c13e
000002c0: 81b1 16bf c100 0fbf 0d5b f3be 9b4e c73d
000002d0: 8dd4 99be b7c1 8d3e fbcb adbc e536 7b3e
000002e0: 3227 f53c b9a9 33be d7e8 dc3e 9c5e bcbd
000002f0: 87d7 363d 793c 573e 240b 99bc 0bb9 83bd
00000300: e517 65be 6192 0c3e ea43 263e 6581 7f3e
00000310: 87a3 773e 2361 ed3c 9807 8f3e c817 ec3e
00000320: 668c 963e c457 ae3b e737 853b 3afc 023f
00000330: 185b d9bd fd46 33bd f2c8 a23e 29e3 76be
00000340: 7a04 493e 342e 263f d20d 6abf 1d6d 6dbe
00000350: b0bb 88be 2c27 eebd 75f0 c83c 1420 9e3e
00000360: e0cd 0c3e a8f0 c63c 3aac 0d3f dc91 e33e
00000370: 0610 4bbe 36e7 af3c b44a 0bbf d246 74be
00000380: bfee 0abd 44af 873e f510 75be 9f5e c4bd
00000390: 3afb e53e a272 4fbd 7195 96be ba45 6dbe
000003a0: eb5e 1f3d 8db4 1dbf f5b6 c0bd 317b 493f
000003b0: 756a 6abf e25b d3ba 91c1 4d3f 8e58 7bbd
000003c0: 526f 2cbe b007 1f3c 3191 2bbe 05e2 88be
000003d0: af23 9abc c266 a63e e924 9a3d bae0 133d
000003e0: b231 5e3e 2592 6a3e f71c a03e 44aa 9bbe
000003f0: c308 193f 55c4 313e da50 8ebe 7ea7 0a3e
-0.50500524 -0.29548174 -0.20197222 -0.32463133 -0.19964585 -0.2588859 0.2633599 -0.48406032
-0.08115592 -0.21177317 0.05393899 -0.32102945 -0.0751702 -0.06576694 -0.4907493 0.31065854
-0.43373057 0.702749 -0.07313126 -0.16839407 -0.22954874 0.22206675 -0.16196756 -0.16248459
0.6500301 -0.038729858 0.15523796 0.53870887 0.6130237 0.41462752 -0.28574896 0.30141604
-0.15030682 -0.21245027 0.16958913 -0.59532446 0.2565549 0.12671117 -0.17458093 -0.27361754
0.3032095 -0.022338396 0.3008663 0.37224331 -0.6620301 -0.19152798 -0.5642062 -0.023388553
-0.28361768 0.4173346 0.057730585 -0.09698517 -0.23676388 -0.118343174 0.21995398 0.21538073
0.23267202 0.10476459 -0.46352682 0.7860135 -0.10659415 -0.01700346 -0.15814947 0.1843591
-0.16998369 -0.063152194 0.043910123 -0.01178041 -0.035848893 -0.0073380102 -0.08005972 -0.16807106
0.22324128 0.026916072 0.10775674 0.49287385 -0.5950389 -0.3174298 0.6487899 -0.17620629
-0.03357013 0.5420689 -0.24419364 0.27027643 0.1875195 0.16399236 0.09532797 -0.17354415
0.24785122 0.17640936 -0.18628995 -0.49681967 -0.0934177 -0.2352592 0.17208473 0.16324909
0.33365583 0.18787 0.23278394 -0.4006617 -0.18509516 -0.33039764 0.024786072 -0.2848887
-0.0977557 0.15937783 -0.19175968 -0.35765347 0.11101662 0.163398 0.29642853 0.08244745
0.100309305 -0.34614143 0.26294878 0.17766292 0.19483668 0.21166447 0.04109368 -0.25002265
0.04008453 -0.0068331654 -0.120883435 -0.54307353 -0.14455242 -0.13442196 0.3682737 0.2619083
-0.07667215 -0.37378183 -0.12080268 0.09503428 0.14636728 1.3533627 0.14061163 0.02007808
0.27004737 -0.14754376 0.2703385 0.07399475 0.08465499 -0.36100286 -0.5633385 -0.484204
0.13716598 -0.053455405 0.48494023 0.07823035 0.39905575 -0.20947109 0.31492904 -0.066447735
0.10061695 -0.035078328 -0.06566334 -0.073289454 -0.5090455 -0.16585684 0.42350402 -0.50111103
0.26488188 0.12183156 -0.029848007 -0.31205377 0.096121274 -0.06699834 0.17138143 -0.25253057
-0.09725993 0.020122942 -0.44130284 0.09760148 -0.43921572 0.09798755 -0.1482407 0.37813944
-0.588646 -0.55860525 -0.47530404 0.0973179 -0.30044976 0.27686855 -0.02121543 0.2453266
0.029925916 -0.17545213 0.43146393 -0.09197733 0.044639137 0.21019162 -0.01868207 -0.064317785
-0.22372396 0.13727714 0.16236845 0.24951704 0.24183474 0.028976982 0.2793548 0.46111894
0.2940399 0.005320521 0.004065502 0.5116612 -0.10613078 -0.04376887 0.31793934 -0.24110092
0.19630614 0.6491425 -0.9142734 -0.23186155 -0.26705694 -0.11628565 0.024528721 0.3088385
0.1375041 0.024284676 0.5534092 0.4444722 -0.19830331 0.021472555 -0.5441086 -0.23855141
-0.033919092 0.26500905 -0.2393225 -0.0958836 0.44918233 -0.05064643 -0.2941089 -0.2317113
0.03890888 -0.61603624 -0.09409896 0.787036 -0.9156869 -0.0016125406 0.80373484 -0.06136375
-0.1683934 0.009706423 -0.16754605 -0.2673494 -0.018815843 0.32500273 0.07526571 0.036102988
0.21698645 0.22907312 0.31272098 -0.3040334 0.59778994 0.17360051 -0.2779606 0.13540456

blocks.1.mlp.2.bias f4 [8]
00000000: 14ac 143e 561d a03d 452e 33be ba11 813e
00000010: 598f 01bd aa2e 88bc e66c 2f3d 2361 52be
0.14518768 0.078180954 -0.17498119 0.25208837 -0.031630848 -0.016623814 0.042828463 -0.20544867

mlp.0.weight f4 [251, 8]
00000000: 9d78 9c3d c0ce 943d bc12 813d 95ee 5d3e
00000010: 0b2f 9d3d abcd e23d fc94 483e aa20 823d
00000020: 8b04 4a3e 7e46 e3be e649 3c3e e919 bc3c
00000030: 3547 8f3e 56e3 3d3e 0106 ed3d 62bf 373e
00000040: 93e2 0ebe 6008 39bd fd87 b8be 909d 95bf
00000050: 2633 73bf 8efd a83c 2cb5 76bf 18c3 aa3e
00000060: 81a4 54be 89b6 883f a70c 5fbe 875e 243d
00000070: 77ac b5be a06c 40be 6820 d43d 611e 923d
00000080: e632 ed3d 522f 023e 19b5 a1bd f4e8 d73e
00000090: 336b 1d3e 0101 133e d1a2 a33e 854c bf3d
000000a0: 7ecf dc3e 5ad6 88bf b0a5 5f3e 9c80 3dbb
000000b0: aa37 013f bb69 e13e 75df 6a3e dc47 753d
000000c0: 3bbe 9cbd edf1 7dbf 2aac 1dbe aa99 84bf
000000d0: 8b42 4bbf c45b e3be 3467 93bf a96b 15be
000000e0: 8f8d d4be aede 7e3f bf90 283e 4c8c d93d
000000f0: 0f18 d4bd 7a5a d3be 4570 63be 4d88 313e
00000100: 9246 723e 0c6e 733e 5afb 85bf e4ad 5a3e
00000110: a25b da3e 67ee d33c 7128 bf3d 9c28 f83e
00000120: fa74 b53e 8558 37bf bb53 dcbe 38ff b2bd
00000130: c176 c33d e0f6 a43e c345 d03e cf33 3fbf
00000140: da5d 0abe 123e 1b3e e3b6 253f 71a5 9abe
00000150: cbc2 503d f4df 513f 09b1 ae3d 0184 f9bd
00000160: c4d1 cd3d 3d6d f93e 4bb4 103f adf2 633e
00000170: 8725 e43e 4ef6 e1be ce4d 15bf ac31 a03e
00000180: ab7a ad3e d672 b1be 5a82 b0bf 0b5b ef3e
00000190: 8228 9b3d f0d0 dabe 0f50 e1be 5669 113f
000001a0: 520c 45be 6d79 533d e065 6ebf 6c08 8dbe
000001b0: 5957 3ebe 350a 81bc d1c1 1c3f 7229 22bf
000001c0: b744 21bd 1b73 8c3e 97ce a63d a238 6dbd
000001d0: f247 8a3e 5d17 593f d53c 083e be1d 813c
000001e0: c2de 5b3f 54e6 033e c786 113f f4d1 c63d
000001f0: 402d 1f3f 18a6 93be 3471 eebe 7ffe a93e
00000200: ebf6 0dbe 6971 8ebf fc9d 323f dcc1 893f
00000210: 1ac7 1dbf 8045 65bf 944e bebe 2a75 3bbf
00000220: 0ed6 92bf 1414 763d 45b5 07be b4e8 31be
00000230: fe12 c1be 49cf a9be 38a4 243f 1b6c 953e
00000240: 30e2 473e f1a4 ef3e 3dba 39bf 0f5f 58be
00000250: 2f69 c33e af05 5e3f 07de b93d 5cb5 fa3e
00000260: f706 c93f 5a09 223d e23e 9f3e eb65 223e
00000270: 817b 333b f214 2f3e fa5f d6bd b595 fcbd
00000280: 44e8 5fbe 44da afbe b23f 093f 79e1 d13a
00000290: 8e88 3a3e c557 68bf ee11 b8bb 6f79 6cbf
000002a0: d3b9 acbf b802 163d fd87 0b3e e65b 463d
000002b0: 6bb4 213e cd4a 93be 151b 3cbd 4631 1a3f
000002c0: 8ebe 053f 9706 b63d 3838 8ebe 1cc4 d53e
000002d0: a4ee 13bf add7 883f bf47 58bd 13c6 b53f
000002e0: 18aa 8d3f 518d a73d a93d 13bf 59aa 4f3e
000002f0: 4480 8dbd 2334 f63e 1700 743e 79dc 30bf
00000300: d766 39be 4602 3f3d c5dc 5d3e 3ce6 bebe
00000310: e0bc 013f dea3 49bf 5900 6e3e 1a79 14bf
00000320: 1771 74bf c308 d83d 4f12 133d 9baf 293e
00000330: 7ac8 663f d54d 2dbe fc8f 2dbf 86ad 1d3f
00000340: f14b b93e ec34 88be 9d84 273e aa6a 8d3f
00000350: 657a 52bf 3478 8d3f 0a90 d0be 5d6d 203f
00000360: c9c8 983e 19fb 073e 4d4b 4fbf 09b4 a23d
00000370: d220 f93c 6afb b43e ff59 113f bdc5 17bf
00000380: b056 e33d e10c ba3e dec0 06be 3355 06bf
00000390: c629 003f c29a 14bf 6d97 e43e 9e4b f03c
000003a0: 94ae db3e 4517 253f 5f76 6d3e d188 66bd
000003b0: ed0f bc3e a212 47bc cca9 ffbe 4e22 933d
000003c0: d33e 94be 65d6 c1be 158f 213e c723 773f
000003d0: ef1c 66bd a51e 2c3f 80d0 2abf 497b 2cbf
000003e0: deb4 6bbf d764 0dbf 81d2 483e 7f9f 83be
000003f0: 2d09 873d d38c 973d 66d7 073f 81a3 a13e
0.07640193 0.07265997 0.063024014 0.21673043 0.07674988 0.11074384 0.19588083 0.063538864
0.19728296 -0.4438972 0.18387565 0.022961574 0.27984014 0.18543753 0.11573411 0.179441
-0.13953619 -0.045174003 -0.3604125 -1.1688709 -0.9499992 0.020628717 -0.96370196 0.3335197
-0.20765878 1.0680705 -0.2178217 0.04012921 -0.35483143 -0.18791437 0.103577435 0.071347006
0.11581974 0.12713364 -0.0789587 0.42169917 0.15372925 0.14355852 0.31960157 0.09340767
0.43127054 -1.0690415 0.21840549 -0.0028915768 0.5047556 0.44025978 0.22936805 0.059882984
-0.07653471 -0.99197274 -0.15397707 -1.0359395 -0.7939841 -0.4440595 -1.151587 -0.1459185
-0.4151425 0.9955853 0.16461466 0.10622463 -0.10356151 -0.41279966 -0.22210796 0.17337151
0.23659733 0.23772448 -1.0467331 0.21355397 0.42648035 0.025870515 0.093338855 0.48468482
0.3544081 -0.71619445 -0.4303263 -0.08740085 0.09544135 0.322196 0.40678224 -0.7468843
-0.13512364 0.15160397 0.6473219 -0.30204347 0.05096702 0.8198235 0.085298605 -0.12183381
0.10049775 0.48716155 0.56525105 0.22260542 0.4455988 -0.44133228 -0.58321846 0.31287897
0.3388265 -0.34657925 -1.378978 0.46749148 0.075760856 -0.42737532 -0.44006392 0.56801355
-0.19242981 0.051629473 -0.931242 -0.27545488 -0.18588008 -0.015751937 0.6123324 -0.6334449
-0.039372172 0.27431569 0.08144873 -0.057915337 0.27008015 0.84801275 0.13304456 0.015761252
0.85886776 0.12880832 0.5684628 0.09708014 0.6217842 -0.28837657 -0.46570742 0.33201978
-0.13863723 -1.112836 0.69772315 1.0762286 -0.6163193 -0.89559174 -0.37169325 -0.73225653
-1.1471574 0.06007774 -0.13252743 -0.17373925 -0.37709802 -0.3316596 0.6431308 0.2918404
0.19519877 0.46805528 -0.725498 -0.21130012 0.38166186 0.8672742 0.090755515 0.4896649
1.570525 0.0395597 0.31102663 0.15859191 0.0027386846 0.17097834 -0.10467525 -0.12333242
-0.21865946 -0.3434621 0.53612816 0.0016012631 0.18216154 -0.90758926 -0.0056173718 -0.9237279
-1.3494209 0.036623687 0.13626094 0.048427485 0.1579148 -0.28768006 -0.045924265 0.60231435
0.5224389 0.08887976 -0.27777267 0.41751182 -0.5778601 1.0690819 -0.052802797 1.4201072
1.1067533 0.08181251 -0.5751596 0.20279826 -0.0690923 0.48086652 0.2382816 -0.69086415
-0.18105637 0.046633027 0.21666248 -0.3728503 0.50678825 -0.78765666 0.2324232 -0.57997286
-0.9548506 0.10548546 0.035906132 0.16570894 0.9014965 -0.16924222 -0.6779783 0.615929
0.3619075 -0.26602876 0.16359182 1.1048176 -0.8221801 1.1052308 -0.40734893 0.62666875
0.29840687 0.1327938 -0.80974275 0.07944495 0.030411158 0.35348064 0.5677795 -0.592861
0.11100519 0.3633795 -0.1315951 -0.52473754 0.5006374 -0.5804864 0.4464678 0.029332932
0.4290663 0.6448863 0.23189686 -0.056282822 0.367309 -0.0121504385 -0.49934232 0.071842775
-0.2895418 -0.37858883 0.15777238 0.96538967 -0.056179937 0.6723426 -0.66724396 -0.6737562
-0.92072856 -0.55231994 0.19611551 -0.25707623 0.06593547 0.07399907 0.53063047 0.31570056

mlp.0.bias f4 [251]
00000000: 29ec 8b3f 191f 123e 9718 53bf bedb 793d
00000010: 9438 dc3e 89b5 3ebd 67f2 3ebe a85c bcbc
00000020: c99d 483d e74c 1f3f 51c8 113e a849 8fbe
00000030: 1687 823e cd78 283f 82e8 eb3d 39c3 8bbe
00000040: 6559 16bd c129 413d 47be ab3e c311 813e
00000050: e87c c53e 7acd 033d 566e 053f 8f48 3a3e
00000060: 456d ec3d eeb4 42be 06dd e73e 24da f1be
00000070: 6ac6 8dbe 3d3e 6b3e 1061 f93e 0199 fabd
00000080: 382a e9bd 60a2 133e 0f7d 043f 39ae 48be
00000090: 9729 a8bd 0baa 003d 1abf ab3c 1a9b ef3d
000000a0: b9f2 98bd fba1 d2be 5109 833d ad75 0b3e
000000b0: eb19 d3be e538 bdbe 4a5f 5e3e e850 f3bc
000000c0: 10ed 083e cfef fb3d 0572 c23d dfd7 c53c
000000d0: c772 983e 00d8 323e 725b 4dbe 593a 1e3e
000000e0: b9ec 9b3e b3fc 2f3e 50b6 98bc e227 4a3e
000000f0: 33af 9a3e 8fe0 cbbe 9a1e 6abe 2196 7c3d
00000100: 2618 5b3e 8793 183e 2cd7 e63d d04a f4ba
00000110: 8008 52be 03bd fd3d 09ec 853e f47a 793d
00000120: c095 99be 89ec f53e 7f45 f3bc 661d 45be
00000130: ecd8 47bd ef2c bb3e 61e1 f43d c873 c53d
00000140: 7b6f 5dbe 868e 8bbc 4484 5f3d 3b79 a4bd
00000150: 942e 8ebe 487e eabb b031 f4bd ed68 c9bd
00000160: cce0 363d 7992 44bd 2c9a 563d 9607 75be
00000170: 04a4 5b3d 5ee4 df3d 0cab 6fbe 0778 5d3d
00000180: f003 893d fbe0 643b 1262 2c3e 6a36 e8bd
00000190: e625 f73d 4567 e1bd 9939 b53d 4413 6a3e
000001a0: a67d a03e b882 403c d93e 2e3e e3c1 443d
000001b0: 61c8 a53d eec4 12bd 640c 84be 16b9 92be
000001c0: 8e5b 35be 8f97 e4bc 1901 f43d a22e 393d
000001d0: 8408 783e ae93 2e3e 3394 a63d 2e05 67bd
000001e0: adb0 bebb 0f6b 703e f828 45bd 8c85 953d
000001f0: c501 b13e 7a0f d13d 1af2 afbc fcec 363d
00000200: ed94 233d 6dd9 c23d 2aac 2abe 04f0 3c3e
00000210: bdc9 c53d bb62 193c 79ec 1fbd 53ca 93bd
00000220: dcd8 c8bd 8f59 27be 72e9 693e 2343 713d
00000230: b7b0 a7bd 4234 9b3d c1c8 143e dae1 cc3d
00000240: 61f2 513e efad 883d 20e2 033d b78f 6fbc
00000250: 8348 6dbd f576 853e 4453 d73c f1c1 823e
00000260: 72c1 56bd ce30 36be 61ba 733d f076 65bd
00000270: 6f10 a4bd 03e2 ad3e 518f b8bd a1d9 0ebe
00000280: 66c2 56be 1c5f 0abd 7e38 17be 0900 0bbe
00000290: 1781 2ebd d1c1 4f3e 8592 c0bd 14db d7bd
000002a0: 68f7 6b3d bd69 883d c66a 233e d7d5 9d3d
000002b0: 68d9 d73d 30ff dc3c 0940 8a3e 5843 a33d
000002c0: 4a71 e03c e7e4 8fbd df55 76be c655 1f3c
000002d0: b66f 3e3e 43e9 96bc 8f3b 103c ecc3 43be
000002e0: 3df8 463e 55bc febd 1cf3 72bd 6e2c cf3e
000002f0: 10b2 2a3e 41d4 4b3e 8ce9 5d3d 987b 1ebe
00000300: 93b2 673d 56a5 b5bd 1baf 953d 4515 723e
00000310: 34d2 05bd ca51 7c3e efdb 04be ced2 8cbd
00000320: 05e0 3d3e 35c2 3fbe ffa0 5f3e 4d36 7f3e
00000330: 0ccd 26be 3afd b13e dd75 27be 5afb b43c
00000340: 8334 27be 407c e0bd 18b9 63bb 37e7 43be
00000350: 7404 2d3e 01a1 cdbc 2b0d bbbb fe26 08bd
00000360: e8d8 3e3b 19a8 c43a 9f7c 953d 56a5 5e3d
00000370: b344 c2bd 2837 12bd e4bc e7bd 7a1a 933d
00000380: c3bb 51be 078b acbd 232b b73d 2571 e03d
00000390: 9e9e a93d bd1a 5e3e c601 203e 940e df3c
000003a0: 426c 38be 6e2f 353d 2db6 b43d 2ef4 31bd
000003b0: 948e 3b3e 1f21 b03d 599c e03d b201 0ebe
000003c0: 8349 85be df31 283e 5438 4e3e a87f 523e
000003d0: ecb5 01be 73d4 283e f87a 243e b302 08be
000003e0: e676 b23d 9f5b 843c f258 e03d
1.0931445 0.14269675 -0.82459396 0.061000578 0.43011916 -0.046559844 -0.18647157 -0.0229934
0.0489786 0.6222672 0.14236571 -0.27985883 0.25493687 0.6580933 0.11518957 -0.2729738
-0.036706347 0.04715896 0.33543608 0.25208864 0.38571858 0.03217838 0.52121484 0.18191741
0.11544279 -0.19014332 0.45285815 -0.4723674 -0.2769044 0.22972961 0.48706865 -0.122362144
-0.11385006 0.1441741 0.51753324 -0.1959771 -0.08211058 0.031412166 0.020965148 0.11699505
-0.07468171 -0.41139206 0.06398261 0.13619108 -0.4123071 -0.3695747 0.21716037 -0.029701665
0.13371682 0.12301599 0.09494404 0.024150787 0.29775068 0.1746521 -0.20054415 0.15451945
0.30454043 0.17186241 -0.01864162 0.19741777 0.3021179 -0.39819762 -0.22863236 0.06166661
0.2139593 0.14900027 0.112715095 -0.0018638019 -0.20511055 0.12389567 0.26156643 0.060908273
-0.29997063 0.48032025 -0.029696224 -0.19249496 -0.048790857 0.3655772 0.1195705 0.09641224
-0.21624558 -0.017035734 0.054569498 -0.080309354 -0.2776991 -0.007156167 -0.1192354 -0.09834466
0.044647977 -0.04799125 0.052393124 -0.23928675 0.053623214 0.109322295 -0.23405093 0.054069545
0.06690204 0.0034924138 0.16834286 -0.11338504 0.120677754 -0.11006025 0.088488765 0.22858912
0.31345862 0.011749916 0.17016162 0.048036467 0.0809486 -0.035832338 -0.25790703 -0.28656834
-0.17710707 -0.0279043 0.11914272 0.04521049 0.24221998 0.17048523 0.081337355 -0.056401424
-0.0058194012 0.2347834 -0.048134774 0.07300863 0.34571663 0.1020803 -0.021477748 0.0446596
0.03993695 0.09514127 -0.16667238 0.18450934 0.09657619 0.009361918 -0.039043877 -0.07216325
-0.09806988 -0.16342758 0.22842959 0.058901917 -0.081880026 0.07578327 0.14529707 0.10004015
0.20502616 0.066738 0.03219807 -0.014621667 -0.05793048 0.2606732 0.026284821 0.2553859
-0.052430578 -0.17792055 0.059503917 -0.05602163 -0.08010947 0.33961496 -0.090117104 -0.13950206
-0.20972595 -0.03378211 -0.14767644 -0.13574232 -0.04260358 0.20288779 -0.094029464 -0.10539833
0.05760899 0.06660793 0.159587 0.07706802 0.10539514 0.026977152 0.2700198 0.07971829
0.02739777 -0.070260815 -0.24056195 0.00972504 0.18597302 -0.018421775 0.008803262 -0.19117707
0.19430633 -0.12438265 -0.05931388 0.40463585 0.16669488 0.19905187 0.054177806 -0.15476835
0.056566786 -0.08869426 0.07308789 0.23640926 -0.03267117 0.24640575 -0.12974523 -0.06876145
0.18542488 -0.18726428 0.21838759 0.24923058 -0.16289157 0.3476351 -0.16353555 0.02209251
-0.16328625 -0.10961199 -0.0034747776 -0.1913117 0.1689623 -0.025101187 -0.005708357 -0.03324031
0.0029120985 0.001500371 0.0729916 0.054356895 -0.094857596 -0.035697132 -0.11315325 0.071827844
-0.20481782 -0.08424955 0.089437746 0.109590806 0.08282207 0.21689887 0.15625677 0.027228631
-0.18010047 0.044234686 0.0882381 -0.04344576 0.18316108 0.08600067 0.10967321 -0.13867834
-0.26032647 0.16425274 0.20138675 0.2055651 -0.12667054 0.16487293 0.16062534 -0.1328228
0.08714084 0.01615697 0.10954465
