nn_14/models_3/000.pth (torch, 173698 bytes, 28 tensors)

nn.0.linear.weight f8 [16, 8]
000000 6d 6b 4f ef 52 5b ce bf 99 8a 69 44 9b a2 ba 3f
       -0.2371619862086293 0.1040436784765383
000010 b7 d5 3d ea d5 c9 d7 bf e1 b1 dc 44 73 64 c9 bf
       -0.37169406771803487 -0.19837799894720745
000020 08 8d 14 d8 92 2f d0 bf c4 c6 8b ed 49 03 b5 bf
       -0.2529036626967387 -0.08208143281424457
000030 7b 5f 92 0f e9 53 b1 bf 79 93 56 da cc 05 c1 3f
       -0.06768662100000526 0.13298950825733494
000040 32 84 f2 7b 83 a7 5a 3f 46 4e 76 2d c0 8d e2 bf
       0.001626852419384994 -0.5798035514766944
000050 4b 7d f1 4b 83 9e cd bf 5b ac 58 5d 0e ca d8 3f
       -0.2313999291245444 0.3873325263581983
000060 5e 85 8a 08 2b 1f aa bf 31 7c 00 fa c6 bc c1 bf
       -0.05101904372464604 -0.13857352454303531
000070 b9 84 d7 2c d2 9a d1 bf 35 5a 44 a5 6b f8 90 bf
       -0.27507452372635616 -0.016572648965928322
000080 2b 5e 3c 96 34 69 99 3f 84 d0 d8 af b7 a9 d1 3f
       0.0248153893181479 0.27598373577644275
000090 ae 68 1f 71 5e bc d2 bf 0f 6a 7c 23 37 a1 cc 3f
       -0.2927471260751514 0.22366990311350363
0000a0 e0 2f a4 b8 e1 0d da bf 7a 8f 68 55 ce 9f af bf
       -0.40709727317221045 -0.06176609795173156
0000b0 88 66 bf 2e 69 0e 84 bf cd 83 bc d7 bf 90 d2 bf
       -0.009793111552357972 -0.29008480136877496
0000c0 90 a6 14 bc 05 fc d3 bf fc 15 8a 31 99 15 c5 bf
       -0.3122572266316661 -0.1647216312305061
0000d0 f9 09 0c f6 ca 45 d2 bf d4 84 83 31 83 54 db bf
       -0.28550981548337934 -0.4270332320721313
0000e0 dc 11 6f 9f 67 a6 d9 3f 40 bd 7e 13 db d2 d0 3f
       0.40078154153550627 0.2628696146375269
0000f0 dd a1 43 5f 4a 36 c3 3f d7 b2 74 a9 dc 23 dc bf
       0.15009431506702145 -0.43968884037421446
000100 e3 38 58 16 7d 3c c5 bf 08 06 06 8c af 1d 97 bf
       -0.16590846625371744 -0.022574179574354175
000110 0a d4 62 b1 dd eb 84 3f 4e 62 bd a1 b2 44 d6 3f
       0.010215503669636323 0.3479429797639896
000120 9c 5f 10 ea 3a fd d1 bf d1 53 64 a9 b5 dc b0 bf
       -0.2810809407978867 -0.06586776147408037
000130 6b 02 c6 93 62 76 e6 bf 90 a6 de a5 08 b9 cd bf
       -0.7019513021660492 -0.23220928286655296
000140 87 06 0b b3 2b 36 5e bf f8 ea c2 14 87 76 d7 bf
       -0.001843969988997081 -0.3666093542812372
000150 7f 7c ac 36 18 38 b3 bf 06 d6 4a 5f 60 9e c8 bf
       -0.07507468542870475 -0.1923332658094951
000160 4a 95 7a 8e 0d 5b d0 3f eb 37 b5 02 9e e3 db bf
       0.25555743135403886 -0.435767653126162
000170 77 f7 6d 6f 9c 02 b7 3f 85 ac e0 f7 c4 9e b3 bf
       0.0898835918469255 -0.07664137889575968
000180 14 4a 1b 82 63 ba da bf 65 e8 d3 34 cd cf d7 bf
       -0.4176262636730439 -0.37205820235215575
000190 5a 06 8a 09 f9 1d b7 3f 7a 3f 01 2c 5f 72 c5 3f
       0.0903010986603702 0.16755284928012398
0001a0 ff c4 09 5d cb b0 95 3f c0 21 15 0c c7 e3 d8 bf
       0.021182229570006147 -0.3889024370187393
0001b0 f2 2f 7b 6b bb a8 d7 bf c8 a8 80 c1 21 33 d0 bf
       -0.3696735906239602 -0.25312084099517707
0001c0 4c 1c da dd 67 f0 e2 bf cf 39 e7 37 c4 b4 c5 bf
       -0.5918464024588359 -0.16957905511522006
0001d0 2c 0f fb 9e c1 66 c6 3f 72 4c ed 35 2e 7f c3 3f
       0.17501087439279084 0.15231874116088623
0001e0 c1 92 75 43 76 2e d4 3f 9d 97 d7 32 37 d1 d8 bf
       0.3153358134061755 -0.3877695080285493
0001f0 94 60 56 f8 e0 70 d2 3f f1 fe a2 2d df a6 d5 bf
       0.2881395745439559 -0.338310045783131
000200 55 b0 83 90 9d 0f b7 bf 39 c5 02 26 9d ed e1 bf
       -0.09008202341255019 -0.5602555982970109
000210 ef a2 66 ba db 38 d9 3f fc e1 88 d7 de 67 d8 3f
       0.3940953560182114 0.38133975075064064
000220 87 c5 86 00 96 62 d9 bf 29 60 b7 b6 86 ef cb bf
       -0.3966422085896614 -0.21824726030058741
000230 5c 53 93 1e 76 d6 c1 3f 21 a2 4a 2b 84 55 d7 3f
       0.13935734265273936 0.36459449985207654
000240 3c d7 08 64 a0 77 92 bf da 1b a7 bd 52 3a ca 3f
       -0.018034463983176638 0.2049048830069456
000250 5d d7 ac 28 f6 f3 d1 bf 23 35 1c 97 88 ee a9 bf
       -0.2805152318209048 -0.05064799160582314
000260 dc 43 58 7d df e4 c7 3f 0d 59 14 a3 86 5e d4 bf
       0.18667214985228398 -0.31826940465670434
000270 52 b6 ce a5 63 df b4 bf 5b 7c 42 75 fe 77 a7 3f
       -0.08153364942583011 0.0458373563899321
000280 6e 12 8a 0f 6e 71 e1 bf fe 40 8c ca b3 07 bd 3f
       -0.5450964263441855 0.11339877791420247
000290 34 0e 6d 5e c2 2d d2 3f 1b 40 2f 07 f9 fb d6 bf
       0.28404292317665925 -0.3591291971361003
0002a0 7d 91 b4 54 b2 fa 8e bf 0e 08 9a 26 b0 d9 e3 bf
       -0.015126603326799376 -0.6203232530535858
0002b0 b1 29 50 ff f6 a6 e1 bf 2f 4d 39 97 0b fc c9 bf
       -0.5516314493736926 -0.20300431140877026
0002c0 bc 2f e9 8c c2 ce e2 bf 06 61 47 04 e3 45 d5 3f
       -0.5877392532506671 0.33239055078367163
0002d0 2e 5e 1f ba 86 1a c7 bf 50 0f 64 c2 93 71 93 bf
       -0.1804970177461071 -0.018987950076748306
0002e0 5f 3e 4a da ea 52 74 bf 72 f7 82 6c 09 2a 94 bf
       -0.0049618886884129345 -0.019691607711812727
0002f0 c0 1f b1 8f 47 d2 df bf 43 b4 41 6f 56 52 e1 bf
       -0.4972094443551178 -0.5413009808522776
000300 a3 a4 dd e4 a5 6d a0 bf 90 ff 4b 77 c2 5d c8 3f
       -0.032086548030585214 0.19036131691973113
000310 95 cd 99 b4 fe e6 69 bf db 43 5f b9 16 cf ca bf
       -0.0031619047847983397 -0.2094448475968694
000320 88 72 5c 59 c2 71 95 bf 00 48 87 c1 46 5b e0 bf
       -0.020941769317789155 -0.5111421375133887
000330 47 55 bb 58 ec 73 dc bf 2b 7f 52 66 e8 32 bc bf
       -0.44457539239131844 -0.1101517915544689
000340 73 80 ea 50 8f 8d c1 3f 92 99 f6 9e 41 fa dd 3f
       0.13713256312348995 0.46839943431623354
000350 05 2c 7c af ab 07 e1 bf 5f 59 db b0 a6 86 e3 3f
       -0.5321863582079237 0.6101869062647828
000360 6a d7 35 95 7f d6 e3 3f f3 df 17 a1 67 b4 d0 bf
       0.6199338831199672 -0.261011035268438
000370 42 03 cf 0c 16 71 d7 3f 67 a0 09 e0 ff 22 d8 bf
       0.36627722979396904 -0.3771362007014489
000380 03 71 bb 80 25 9a b3 bf 5f 25 aa 26 3e 96 d4 3f
       -0.07657083886028108 0.3216700913986496
000390 f9 0d 5d 9f f6 39 b9 bf 14 dc db 09 b7 2e e1 bf
       -0.09854070082388224 -0.5369525139384472
0003a0 b0 26 3b a0 8f 7a d5 3f 45 4c 49 17 2d 83 c5 bf
       0.335605532146114 -0.16806567799594255
0003b0 5d a5 b7 21 4f 23 c7 bf 0e 54 03 3a 76 64 bb 3f
       -0.18076504846912203 0.10700167576153793
0003c0 9f 34 26 fc 0f 57 cc 3f ee c8 2e 7d b6 e6 8e bf
       0.22140693485235816 -0.015088487334513147
0003d0 9b db b6 c4 90 a3 b6 3f 31 fd 4f ef 14 ae 71 3f
       0.08843331148714954 0.004316407944315246
0003e0 23 81 f6 c7 06 fd c6 bf 91 a0 8f 85 8a ee db bf
       -0.17959675563634744 -0.4364343933398312
0003f0 aa 8d ea fb d4 4f 7e bf 41 cc 83 f6 a8 b0 c3 bf
       -0.007400352448402906 -0.15382873570306013

nn.0.linear.bias f8 [16]
000000 1c f0 71 4d ec b7 b6 bf a6 8c 25 00 87 11 c3 bf
       -0.08874394312619 -0.14897239215051633
000010 ef 34 5f f6 11 02 cb bf 86 3c 46 2f ed 03 a9 3f
       -0.21100067644002915 0.048858081837459585
000020 d0 eb a1 41 07 45 ce bf 7d f7 70 e5 c1 30 cb bf
       -0.23648157791816837 -0.21242545798480342
000030 62 cc 60 c6 36 89 dd bf c4 a5 d1 cc dd ff dc bf
       -0.4614998757635417 -0.4531168461022299
000040 31 10 b7 c3 cd 25 c1 3f d1 3a ca 31 42 3b b7 bf
       0.13396617943192404 -0.0907479640538711
000050 a2 be 53 bf 72 53 cd bf a6 d7 a2 98 53 df d0 bf
       -0.2291091379370203 -0.2636307707392639
000060 d8 46 eb c3 d5 f1 ba bf 44 d3 98 5b 54 6c be 3f
       -0.10525260956935811 0.11884047733549347
000070 c3 14 98 7c 56 95 cc bf a0 a8 7f f3 c2 4f d9 bf
       -0.2233074291581599 -0.39549325732390095

nn.1.linear.weight f8 [16, 16]
000000 65 81 b0 d9 f1 db da bf 77 cb 19 da 41 6e d1 bf
       -0.41967436083543525 -0.27235456751730375
000010 b1 d2 4f 2f 04 15 d0 bf 2b 6c 2f b1 bf d6 db bf
       -0.25128273601812184 -0.43498222640272627
000020 cc 34 38 f4 70 56 d7 bf bc b2 05 8b 14 c6 d7 bf
       -0.3646509537655447 -0.37146485878364977
000030 a2 f3 6f cb 65 27 c6 bf 42 88 ce 4f a3 44 d4 bf
       -0.1730773204179999 -0.3166893271792369
000040 17 7c ab 44 ad af d2 bf 68 81 a5 00 75 03 d3 bf
       -0.29197246271172744 -0.29708600104461036
000050 91 78 fc 6b d5 51 e4 bf 7f 85 be 82 c1 7c e0 bf
       -0.6349894627671963 -0.5152289918516287
000060 75 24 29 e7 00 f0 cd bf 00 55 b1 e2 03 19 ef bf
       -0.23388682639259498 -0.9718036105720387
000070 e1 76 2b 96 f4 2f d6 bf fe 94 00 e8 03 c2 e2 bf
       -0.34667696633355943 -0.5861835032743838
000080 ca 2f 44 76 bb af d0 bf 77 fb c4 b6 75 10 de bf
       -0.2607258467621675 -0.46975462769108084
000090 71 73 eb 87 d3 86 c7 bf da d5 f2 cf 85 98 e0 bf
       -0.18380207192140177 -0.5186184941764467
0000a0 cb 07 61 19 ba a7 b5 3f 50 14 ae 59 b0 19 e0 bf
       0.08459056014638049 -0.503135848194356
0000b0 67 74 77 7d 69 53 d0 bf 37 3a c8 72 a4 53 c3 bf
       -0.25509106876945115 -0.1509900627574596
0000c0 dc 39 00 d7 71 af d8 bf 40 3e b3 f4 24 c1 d4 bf
       -0.38570829387836425 -0.3242885961198887
0000d0 98 7c 54 df bc 63 a0 3f 98 c6 9c 47 0b bf d7 bf
       0.032010938894239505 -0.3710354041423698
0000e0 35 95 7a 06 a8 4c e2 bf 9d d6 59 9d f6 0d e7 bf
       -0.5718574644603566 -0.7204545090923663
0000f0 22 3f 3c fb 0b 5a d0 bf 83 03 bb b4 e7 6e e2 bf
       -0.25549602064801225 -0.5760382203953757
000100 59 6e c5 04 21 f0 d3 bf 9a 54 ad 87 ab 91 bb bf
       -0.3115313097566506 -0.10769149839809913
000110 a9 e1 64 41 8e 64 e0 bf a4 c7 9a 5b 20 cb c8 bf
       -0.512274863932409 -0.19369892571336067
000120 1f 99 13 28 14 e5 ea bf 9f 7a 4c b5 18 9f d4 bf
       -0.8404637129540652 -0.3222104807372634
000130 c9 ba cb e5 03 f5 db bf c6 f5 94 67 4a 86 d0 bf
       -0.43682954255102097 -0.2581964503804922
000140 26 66 8a 29 e7 fe cf 3f c3 b9 56 8a aa e6 e3 bf
       0.24996652153349536 -0.6219074918679371
000150 36 6f 79 78 27 33 a6 3f 74 fc bd 88 9c ff 91 3f
       0.04335902543672747 0.017576642843320348
000160 e8 4d 1b a0 f5 b8 e2 bf ab 5d 16 21 8e 74 dc bf
       -0.5850780608256487 -0.444613964378244
000170 22 02 3e 8e 4f 83 a0 bf dc 1e f4 a7 80 38 d8 bf
       -0.0322518216262362 -0.37844864274710033
000180 5c 3a bd 50 48 d5 c2 3f af 4a 2d fb b6 a2 ea 3f
       0.1471338648065793 0.8323626428412662
000190 23 30 6a 71 d1 22 d6 3f 19 c1 e3 67 5e f8 cb 3f
       0.345875130421293 0.218517113425613
0001a0 71 93 6a 37 91 c8 d9 3f b2 4f 53 43 e2 3e 73 bf
       0.40286665355443235 -0.00469864257793866
0001b0 a9 83 9f 57 d9 07 d3 3f da 43 be e7 05 8f a9 bf
       0.29735406453078866 -0.049919304408042556
0001c0 1e b7 07 ee 5e 3d e0 3f 09 8a 73 3d e2 d6 c2 3f
       0.5074915551210528 0.14718273163369158
0001d0 55 81 c0 e9 8b 6d d3 bf 84 68 ae e2 71 28 e3 3f
       -0.30356118991223485 0.5986871173256678
0001e0 2a bb 19 75 8e f2 a7 3f 3c d0 9f d3 a1 98 c4 3f
       0.04677243403863536 0.1609079631158482
0001f0 e8 79 f1 03 3d 90 c1 bf ac c1 fb 42 dc 18 b4 3f
       -0.1372143048528891 0.0785043395551443
000200 63 91 15 b1 4b c0 d4 bf 7d 39 2f 06 49 de dd bf
       -0.32423679631599195 -0.4666922150035118
000210 ee f2 f2 e7 da 32 d2 bf 79 a9 b6 72 00 ef c1 3f
       -0.284353949082102 0.140106254589522
000220 94 b8 8e 69 08 84 bc bf e6 e8 0c bd 9e 2a b1 3f
       -0.11138966157042979 0.06705658069123252
000230 6c 5c dd 9c 61 c8 ba bf 99 fb f5 0d ca d4 d1 3f
       -0.1046200759859503 0.2786126266800522
000240 92 4a 34 38 1d a3 dd 3f cf 1f 09 d3 6c 73 bd bf
       0.46308069695184273 -0.11504249717938751
000250 39 d2 04 81 c8 39 c5 bf 69 31 5a 16 29 3a de bf
       -0.1658259038901109 -0.47229983504146006
000260 7a ac c7 0a 2a 8c c8 bf 46 c8 67 bd 9e 07 ad bf
       -0.19177747274747842 -0.056698761578346565
000270 57 79 51 9b c8 f2 e9 bf 25 a4 d0 b7 7b d0 d2 bf
       -0.81088667235944 -0.2939748091762929
000280 b2 f0 bf 8c a7 5e d4 bf 01 e1 88 d4 6a 91 c4 bf
       -0.31827725167364485 -0.1606877839819916
000290 12 3c e1 79 be dd d7 bf aa 9b 44 09 be 24 d8 bf
       -0.3729091825707097 -0.37724257378652715
0002a0 80 be 39 c7 54 4d d2 bf 9f 6d 5c c3 c5 78 d0 bf
       -0.28596991973515884 -0.2573713691542369
0002b0 21 4b c5 c8 c0 83 a3 bf d2 cd ab fc ac c2 c8 bf
       -0.03811457110227524 -0.19344103181320677
0002c0 2f 2d 56 2b 87 dc d7 bf 83 5a cc ab a8 29 c9 bf
       -0.3728349612435577 -0.19658382786356662
0002d0 8d 67 d8 05 c0 e3 94 3f 8c 4e d8 2a a3 4a cc bf
       0.020400047642489084 -0.22102775184668066
0002e0 08 3d 2a 9b e0 b4 cc bf f4 b1 54 14 37 c4 e2 bf
       -0.22426993919769012 -0.5864520451628423
0002f0 8d 16 a8 5f 43 31 ac bf 29 68 4d df 82 4c d4 bf
       -0.05506334822352441 -0.3171698742568219
000300 3d a7 6c 16 ff 29 d5 bf a3 50 1c d2 79 b6 d0 bf
       -0.33068825902829585 -0.2611374427663213
000310 a1 50 2d c4 0e 8b dd bf a1 a4 8f fb e6 53 c0 bf
       -0.4616124072829369 -0.12756049426324004
000320 cc 6a 53 0f ed d5 d0 bf ba 82 25 4b 9e 9a d9 bf
       -0.2630570077578056 -0.4000621541836541
000330 e3 1c 2f 12 ff e6 d1 bf 8d 47 fb 37 c1 0b db bf
       -0.27972389961037275 -0.4225924536414077
000340 29 6e 84 7b 76 ea d9 3f 54 67 b8 b7 57 4c a1 bf
       0.40493547498928933 -0.033785573174283684
000350 60 e4 3a a0 3f a4 e8 3f 7e 0e ab eb 41 da de 3f
       0.770049870442687 0.48207138075324696
000360 6c d2 35 9f 32 07 d2 bf 53 b5 9d 04 56 1d ab 3f
       -0.2816893152987976 0.05295819097851031
000370 59 c9 25 3a 5c 45 be bf 5e 03 32 12 ef 36 a8 bf
       -0.1182458536111758 -0.0472941121779573
000380 34 79 50 58 22 e6 ca bf 9d ac e3 3e 56 c6 d1 bf
       -0.21014813720916836 -0.27773052350557653
000390 0b 67 87 88 c7 f4 bb 3f 83 0d 57 aa e2 43 e3 3f
       0.1092037876436757 0.6020367934183216
0003a0 75 ab 0d 7f 9c fd d5 bf de 4a 19 cc ee 14 c4 3f
       -0.3436042061572871 0.1568888184143224
0003b0 9c bb ea ce c1 e3 d1 3f 05 be fe 01 7d b2 c3 3f
       0.2795261879609201 0.1538845309964786
0003c0 f2 a8 b6 71 70 2e de bf 9f 62 16 1b 8b dc d2 3f
       -0.4715844259723233 0.29471089978464166
0003d0 35 3e 9e 3b ff b2 d4 bf 6a 5c b7 0a 79 0b d4 bf
       -0.32342511007388747 -0.31320024534711044
0003e0 f0 91 a0 4d 97 ed b5 bf a2 a1 ca 98 8e 28 d0 3f
       -0.08565660138317077 0.2524754039864324
0003f0 42 cc e2 80 83 fe ae bf 52 f5 64 79 bf 74 e3 bf
       -0.06053553531946722 -0.608001458261848
000400 fb f9 a4 56 6a f4 c4 bf 22 25 3a a9 7e 3b eb bf
       -0.16370896559415357 -0.8510125451295247
000410 78 23 19 a9 e7 05 dc bf 92 5a 6f 36 eb 36 d5 bf
       -0.4378604079579911 -0.3314769775001106
000420 29 56 9d 0e e4 50 d2 bf f3 17 41 b3 63 6c d9 bf
       -0.2861871855469383 -0.39724056725788087
000430 04 33 c2 5a cb 2f 77 3f c7 8e 54 02 46 22 ba bf
       0.005660814622513003 -0.10208547169582537
000440 93 6a 63 1e 0c 89 e4 3f 70 c6 5d 5a f2 b9 db bf
       0.6417294114611017 -0.4332242853625763
000450 f4 d5 eb 74 6d 04 da 3f fb e3 32 08 02 8b dd bf
       0.4065202371415062 -0.46160937119162754
000460 76 e7 9e 65 b9 29 e0 bf 00 d6 a6 34 44 22 b3 3f
       -0.5050932869701075 0.0747416142028996
000470 13 19 7c dc a4 85 e9 bf 17 c6 94 9d f1 f6 90 bf
       -0.7975639635413095 -0.016567015879621474
000480 d9 d2 46 e3 80 ba d4 bf 79 03 8f 1e 60 b6 bb bf
       -0.3238832683085043 -0.10825157877026283
000490 99 0f d2 f6 36 d7 d4 bf 07 41 3b 47 37 c7 d3 bf
       -0.32563566306657205 -0.3090341754550682
0004a0 81 2c 96 f7 42 77 a1 bf 74 58 39 31 be bf c0 bf
       -0.03411301872537199 -0.13085153010860362
0004b0 29 05 5b a7 5f b7 e6 bf 72 d6 13 99 be f0 c2 bf
       -0.709884478441528 -0.14797193979727613
0004c0 59 a7 2c 87 11 4d c2 bf 63 91 45 a8 67 e7 d8 bf
       -0.14297694301904576 -0.3891238349226766
0004d0 50 eb ac 2a 1e 91 d9 bf 36 a0 db 52 ab 59 df bf
       -0.3994822899582475 -0.4898479756507216
0004e0 f8 8b 1e c9 05 e5 d8 bf b0 f7 56 5a 0d b0 d6 bf
       -0.38897843018111145 -0.35449537107694606
0004f0 00 92 4c 09 37 c1 b3 3f 9c 39 94 4c 2d ca d2 bf
       0.07716697670964123 -0.2935899017183148
000500 8d 47 2a fd be db e4 bf 1c 31 46 49 a1 b3 e0 bf
       -0.6518244690544052 -0.5219274932037794
000510 e9 aa bf 0f 88 7c d0 bf 8d b2 97 dd cc a3 d9 bf
       -0.25760079896887916 -0.40062257423304787
000520 fa a4 17 69 01 ee cd bf f7 cc 03 3b 55 07 d0 bf
       -0.2338258517404837 -0.2504475666348322
000530 a2 dd de 2b 14 31 da bf b3 41 0a 2f 4a e3 b3 3f
       -0.4092455318854836 0.07768691681326949
000540 fc f9 54 31 79 eb c0 3f 93 e4 7f 2d f8 62 e4 bf
       0.13218607815538508 -0.6370812309898092
000550 c1 4b d1 1a 9e d7 d2 bf 2d bf 73 bf db ee c8 bf
       -0.2944102537050491 -0.19478937958000966
000560 8a 1e b1 36 1b bb d4 bf 7b ee 76 cb 09 f2 d3 bf
       -0.323920062456161 -0.31164784307086507
000570 90 84 94 b4 7e 17 e1 bf 1c 60 32 4c 31 bf dd bf
       -0.5341180350261698 -0.4647944683179064
000580 09 92 ca d4 36 11 e8 bf 64 e7 2e f8 e8 1e e8 bf
       -0.7521013408737086 -0.7537731978729707
000590 ff df 89 7c a3 c0 dc bf f8 85 4a dd 93 60 c6 3f
       -0.4492577282139791 0.17482231431226558
0005a0 4a 25 93 47 4e 67 c5 bf 93 8c cd 15 2a 98 c0 3f
       -0.16721514220106776 0.12964368881793983
0005b0 bb d5 c1 2c 8a bd be 3f 43 2c 87 f8 f9 98 b0 3f
       0.12007964699463163 0.06483423535898773
0005c0 7f 9b 78 17 5d aa 73 bf d9 48 ff d3 49 3c b8 bf
       -0.004801143302336607 -0.09466992784226437
0005d0 aa 46 a7 c6 c6 e0 b2 bf be b2 91 63 a9 eb c1 bf
       -0.07374231672226964 -0.14000432359480003
0005e0 38 5d 28 0e b2 62 ca bf 55 3c 92 e5 7c 88 e2 bf
       -0.20613694850247 -0.5791611179173609
0005f0 09 95 1e 0b de 14 dc bf f7 68 7c da 82 cc c6 bf
       -0.43877364240536615 -0.17811618488560274
000600 ed 17 3f 00 94 e1 b4 bf 23 43 51 28 20 13 bc bf
       -0.08156704908387243 -0.10966683372795365
000610 29 c1 e8 a1 5a 55 a9 3f c2 f8 bc 16 63 99 e7 bf
       0.049479324592882463 -0.7374740070443055
000620 93 fb 7d 6d e7 ca 70 bf ba 18 52 3f 1d 9e c4 3f
       -0.004099754347293055 0.1610752638991409
000630 21 7d 30 08 2e 10 c4 bf 2a b8 e3 c3 f3 10 d1 bf
       -0.15674376869081022 -0.26665968065106205
000640 f4 7b a8 d6 6c b0 ec bf d2 73 68 d8 27 a6 d1 bf
       -0.8965362732450317 -0.2757663358077568
000650 b3 4d 07 0c 41 5c dc bf 8b 38 5f f9 55 01 c0 3f
       -0.4431307427850825 0.1250407664906031
000660 b5 4b 44 15 7c 2c b6 bf fe 84 6c 8e 93 4e d0 bf
       -0.08661628264626027 -0.25479592236122517
000670 d2 dd 6f 42 d1 07 c0 bf a9 20 9a bc 8a 4e 9a 3f
       -0.12523856872552003 0.025690238725048307
000680 a9 fc 39 74 79 f9 db bf 92 a3 01 d9 a2 a1 db bf
       -0.43710171079869525 -0.4317404860690256
000690 8b f6 bb ed 34 43 d6 bf 16 dd 44 d1 51 76 d7 bf
       -0.3478519746421191 -0.3665966552393497
0006a0 e0 50 64 13 39 81 f1 bf ef 51 03 f7 8b 64 e8 bf
       -1.0940485723013396 -0.7622737717124987
0006b0 74 4d cd 6c 04 4c e5 bf 5b cd 1e a7 10 dc d1 bf
       -0.6655294537580816 -0.2790567047151932
0006c0 7b ab 47 e6 19 67 d1 bf 72 6e b2 8b 07 7d ee bf
       -0.2719177960231531 -0.9527623871285427
0006d0 e4 62 b1 63 ba ea cc bf 8c 67 8e b3 17 ab d2 bf
       -0.22591333263223767 -0.2916926625708747
0006e0 b6 89 cd 1e b3 3a ee bf f4 d2 18 00 94 85 e2 bf
       -0.9446654893511581 -0.5788059236425327
0006f0 62 85 08 5d a4 da bf 3f e0 df c1 d5 e1 46 a7 bf
       0.12442996283836785 -0.0454626630243522
000700 a6 0c 47 d2 0d 03 a3 3f ef eb db 22 84 5e c3 bf
       0.037132675093311904 -0.15132190420248956
000710 00 12 7e 6d 2e 00 b6 3f a1 d0 04 66 da 50 cf bf
       0.08594026730686011 -0.24465494138133173
000720 bc 0c 57 b5 71 ec e2 bf b5 c4 5a e3 59 1b dd bf
       -0.5913628141210192 -0.45479438021272794
000730 56 43 b8 14 c0 50 c7 bf be d4 18 7f aa f9 cb bf
       -0.182151804081992 -0.2185567017164995
000740 8a a0 85 a0 a9 e5 d0 bf ae d6 8b 68 96 07 e5 bf
       -0.2640174930188627 -0.6571762124937857
000750 bd 67 ea bc 40 c5 b5 bf 24 a1 41 8c 45 be bc bf
       -0.08504109012792944 -0.11227831529834426
000760 b2 29 6a be bd 79 a4 bf d9 af 5f ff fc 59 b9 bf
       -0.039991311544400956 -0.09902936205588676
000770 03 10 30 87 92 d0 d6 bf d1 3a 1e ed c8 59 e2 bf
       -0.3564802475159469 -0.5734600669109914
000780 fe ec a4 8d b9 62 e7 bf 12 d4 08 e5 f2 f1 e5 bf
       -0.7308013693322264 -0.6857847665147594
000790 78 4f da 08 6d 59 e6 bf ed 6a 5b 0d 52 18 e0 bf
       -0.6984162495523227 -0.5029688130265108
0007a0 19 c8 06 28 4a 19 da bf 89 65 61 21 38 f6 dd bf
       -0.40779355915867793 -0.4681530309659015
0007b0 89 e8 c1 73 6e 9b d5 bf 7e 0c 44 a4 8b e3 e0 bf
       -0.3376117830699817 -0.5277765472714149
0007c0 37 24 30 52 db df ca bf 5e f4 35 ca 35 30 c6 bf
       -0.209956565028081 -0.173346256004069
0007d0 81 60 07 07 8c b9 e3 bf b7 47 4b 48 ed 71 d0 bf
       -0.616399778106839 -0.25695354518859
0007e0 26 ed 39 e3 8d 74 d7 bf d6 88 2b 06 e3 70 d3 bf
       -0.36648890676561263 -0.30376506426376915
0007f0 b3 99 8e 4d fd 31 e9 bf fc c1 8f 0e d1 ea c8 3f
       -0.7873522295747563 0.19466603480351796

nn.1.linear.bias f8 [16]
000000 99 56 4f 32 f4 e9 d5 bf ae ae 45 c5 2a 47 dc bf
       -0.34240441239431046 -0.44184369339812235
000010 8f 48 3f f0 9a 69 d8 bf b8 94 b5 74 fb 1f cd 3f
       -0.38144563161507333 0.22753852080055537
000020 fd f9 9d 92 3a 54 d2 bf c2 e3 f7 d2 a4 d0 ca bf
       -0.286390917950399 -0.20949230481326536
000030 f3 f9 f9 94 e7 9a c9 bf 33 3b c6 a5 03 9c bc bf
       -0.2000398137497111 -0.1117555885050308
000040 18 51 50 d3 ec bd d7 bf 47 99 ed 2c 0f 84 d4 bf
       -0.37096710811717193 -0.320560258746259
000050 da 7e 6e 13 cf e0 d6 bf c5 56 ec d9 c2 7c d5 bf
       -0.3574712457429833 -0.33573981553614046
000060 4b 94 7c 93 c8 98 b8 bf 89 1f 48 42 18 55 da bf
       -0.09608129120586388 -0.411443772056821
000070 9e 28 82 69 06 c2 d0 bf 70 9e 65 6c a0 aa d8 bf
       -0.2618423490863594 -0.3854142244876817

nn.2.linear.weight f8 [32, 16]
000000 76 40 5c 30 c5 4b ce 3f 16 95 43 21 13 32 d0 bf
       0.23668732510896334 -0.2530563187450111
000010 9f b1 9a ba 71 e7 d2 bf 30 0e 77 59 a2 ad e4 bf
       -0.29537623618196024 -0.6461955783237894
000020 f1 ee 73 ed 1f 08 b4 bf 12 34 f4 bf b1 28 a3 bf
       -0.07824897334279136 -0.03741984813868994
000030 75 7b 63 71 7b 97 d6 bf f7 0a 12 07 5c 6d e4 bf
       -0.35299573968034476 -0.6383495462508496
000040 58 06 60 82 77 22 da bf 04 23 fc fe ea 41 de bf
       -0.4083536885446839 -0.472773312576962
000050 70 2f 87 7a 3a fb a7 3f e7 4a 68 ae 5f 6a d1 bf
       0.04683859582618666 -0.27211753875705685
000060 87 f7 79 a4 00 ec e5 bf fe 29 a5 81 6d 97 cd bf
       -0.6850589001112305 -0.23118370848017372
000070 68 1d 39 85 21 50 d3 bf 1a 96 53 06 08 aa de bf
       -0.30176580438679546 -0.4791278898031536
000080 74 f0 34 96 b3 62 aa bf 6e 31 8d b0 2c ac cf bf
       -0.051534282766142164 -0.24744185085945553
000090 12 5a 73 72 a4 9a e2 bf 2c 47 0e e8 ad 24 a6 3f
       -0.5813772425997874 0.043248591019745625
0000a0 c6 4d 3c 29 fa 23 d1 bf 17 01 61 cc 33 14 af 3f
       -0.2678208735171349 0.060701006601904854
0000b0 c2 1a a3 8a 0d 1f d2 bf 65 05 fa ec 22 90 d4 bf
       -0.2831453184011644 -0.3212973894333884
0000c0 ce 41 96 ef eb d8 a6 bf 5e fa 4a 49 e6 67 b3 bf
       -0.04462373065610202 -0.07580413140656492
0000d0 f2 bd f8 2c 2d 29 e2 bf 8f e5 cb 5f 0e 3a de bf
       -0.5675264242508418 -0.47229346614002393
0000e0 54 62 26 38 13 8d bc bf 32 29 41 68 77 14 c5 bf
       -0.11152763481948941 -0.16468708601525744
0000f0 34 16 f7 07 71 d8 d3 bf 39 ca b8 73 dd 91 b6 bf
       -0.3100855424675928 -0.08816322398414735
000100 4e 33 98 67 05 c1 54 3f ba 8d ad f8 92 d2 c0 bf
       0.0012667229442541897 -0.13142621176221586
000110 24 fe c6 51 ed 87 a3 bf 18 be f8 db cd eb de bf
       -0.03814641593225712 -0.4831423423920298
000120 9c 70 44 e8 56 10 d6 3f d7 ce b7 74 78 1d c0 bf
       0.3447472828136229 -0.12589936923142517
000130 7d 8b c7 b2 41 74 cf bf 49 db de 4a 3a a5 b4 3f
       -0.24573537091699996 0.08064617469686398
000140 ba 81 54 41 6a c9 af 3f 88 de 10 84 14 a7 e3 bf
       0.06208354995237948 -0.6141455249225638
000150 30 11 38 bc f8 de c5 bf 9c f5 c0 7e ca 35 d1 3f
       -0.17086705389386614 0.26890814188285517
000160 fc 53 b0 e6 78 81 d7 bf 0c 50 ba 88 3e 42 e1 bf
       -0.3672773602314121 -0.5393364592041521
000170 ac 55 e3 d1 af 20 e7 bf 89 1a f3 2e 6b ba bd bf
       -0.7227400874495991 -0.11612577339392706
000180 79 1a d7 98 de ff 95 bf 2b 2c 87 55 8c b4 b0 bf
       -0.02148387725699272 -0.06525494659506197
000190 ff cd e6 24 9f cd bb bf 7d eb 8f 87 50 c1 e3 bf
       -0.10860628748815059 -0.6173479697894063
0001a0 f9 49 32 fc af d6 d2 bf 1d 8c 2d 56 ec ef e0 bf
       -0.29435348156508173 -0.5292874987757191
0001b0 0f 8a f7 f3 26 a6 dd bf 97 38 25 c4 07 4f d9 bf
       -0.4632661230554342 -0.39544862894843774
0001c0 52 0b d1 0a bf 6d 84 3f 88 d8 a7 92 6c 92 de bf
       0.009974949376674456 -0.4776870186027584
0001d0 fd 21 97 b1 66 ea d3 bf ef 5f ab aa 9b 71 d3 bf
       -0.31118171065148187 -0.3038090864843061
0001e0 7f 7e bf 7f a6 f8 da bf 09 a9 ff 9b 1c 19 95 bf
       -0.4214264152087494 -0.020603606244471915
0001f0 64 cc 6e 6a eb 8b c9 bf 7f 54 18 3a d5 fa b4 bf
       -0.199582507104057 -0.08195240658126755
000200 b7 e0 d2 b5 56 f7 c3 3f 6a f7 2d fa 82 54 a5 3f
       0.15598567846405384 0.041660397567268984
000210 1e 80 bb 68 90 07 c0 3f 47 ea 0a 09 07 e6 e2 bf
       0.12523083795440554 -0.5905795265783319
000220 a8 f3 9e ff 63 db a5 bf ab eb df 7e 35 e0 d4 bf
       -0.0426894425904501 -0.3261846293459551
000230 e9 90 0f ba 61 2e d3 bf 2a db 06 f6 9b af c7 bf
       -0.2997059170723007 -0.18504666817690324
000240 7c 7c f0 ff 26 e8 d0 bf ca 7e a1 66 73 e1 c5 bf
       -0.26416945451814633 -0.17094271193763283
000250 d9 15 71 3d 19 a4 d2 3f dd b0 87 05 62 37 da bf
       0.29126578331155667 -0.40963030376475534
000260 df 3d 6b 42 c9 94 af 3f 4d 89 e9 67 fd 15 99 3f
       0.06168202338960404 0.024497947184849257
000270 e6 a3 3c 16 a9 1c dc 3f c4 d0 2d 6e 42 0b d3 bf
       0.43924929782457267 -0.2975622249571297
000280 ce aa 37 56 4c 70 d0 bf 7c 69 50 29 de 94 a0 bf
       -0.25685413760826925 -0.03238577131579043
000290 d9 0d cc ad 30 23 c7 3f 18 58 1a 4c 6e cb d0 bf
       0.18076141821084837 -0.2624164336388062
0002a0 22 6d 9d 26 57 df d3 bf 2b 8a 4d 25 5a 20 e6 bf
       -0.3105066182231032 -0.6914492348262845
0002b0 82 ff a2 59 85 05 c5 bf c1 be 2f 3b b7 b2 d8 bf
       -0.1642309844664816 -0.38590794353420327
0002c0 4f 83 1b 8e 11 e1 d6 bf 6c 6d c3 95 dd a0 de 3f
       -0.35748709561999176 0.4785684549840059
0002d0 8a 65 bc fa ad 34 c4 3f 6a 66 47 73 ea cc 8d bf
       0.1578576540276056 -0.01455100216201118
0002e0 13 28 36 ff 55 1a aa 3f 42 87 50 bf ca 61 d3 3f
       0.05098217716575006 0.3028437488848007
0002f0 05 c1 e2 3c 87 93 c7 3f 70 fd ad 98 7a 9f b6 3f
       0.18418970559060469 0.08837095477610091
000300 54 e2 31 96 33 a5 d5 3f 0e bf 2a ce a2 7e a7 3f
       0.33820810000864765 0.04588803068815937
000310 25 09 3e 53 14 8b c2 3f 87 fe f8 a5 18 f0 c7 bf
       0.14486936630789518 -0.18701465705997952
000320 b2 d6 4c 17 bf 9f c7 3f c1 1e 38 21 ac f9 d4 bf
       0.1845625747461575 -0.3277387928396643
000330 2f 5e 26 eb b6 3d d3 3f a9 b8 58 b6 7e 1b c6 bf
       0.30064175571303314 -0.17271407989159585
000340 50 32 ab f9 6a 34 c4 3f 70 21 bd bd 33 90 ce bf
       0.1578496665082576 -0.23877569927777698
000350 69 b0 fe fe 8c e1 d9 3f 69 81 c4 9b 11 3f e2 3f
       0.4043915262398117 0.5701988260589533
000360 14 e1 69 04 99 5b c3 bf 3c be ba d9 b3 8b e7 3f
       -0.15123284068591458 0.7358035328415506
000370 1d 49 e2 8e 00 b4 9f 3f b7 84 29 3f d4 06 dd 3f
       0.030960091324751738 0.45354181450063485
000380 0c ec 9e 48 c7 73 a9 3f 3c 40 9d e9 5a 93 d1 bf
       0.04971144448742146 -0.2746188432111045
000390 d7 d9 99 df 60 fe e9 bf d1 f9 5c 6a 78 20 ea bf
       -0.8123020522314687 -0.8164636685758585
0003a0 d9 6c 4e 82 60 c5 d1 bf 7b 97 59 1b 01 f2 c3 bf
       -0.2776719353220876 -0.1558228858513607
0003b0 ea cc 5c ea ee 48 e4 bf 38 02 44 7a 21 32 b0 bf
       -0.6339029862778294 -0.06326493487359464
0003c0 10 44 49 a0 cb de d8 bf 8a e8 7d 7e 8f f0 e2 bf
       -0.38859835293720923 -0.5918652983230157
0003d0 c1 2f 3c 2a 29 26 d0 bf f8 cf 08 cc 2d 84 e2 bf
       -0.25232915043374865 -0.5786351189658481
0003e0 26 b7 76 78 bc c6 c7 bf 7a 3d 44 f5 c1 3d df bf
       -0.18575244791048212 -0.4881443877393036
0003f0 e9 dd b6 34 da 54 d4 bf b2 cc c6 6e 7a 9d e0 bf
       -0.3176789774692837 -0.5192234195332246
000400 f9 bb 0c 66 ee e6 b2 3f e8 a0 e3 e7 87 57 99 3f
       0.07383623115013895 0.024747966316596953
000410 a1 fb 48 9e 4c 81 d0 bf 2d 08 e9 b4 e9 9a de bf
       -0.25789180238273884 -0.47820513407725934
000420 75 a0 a1 50 91 66 b7 3f 66 22 21 62 da 90 e3 bf
       0.09140880793131763 -0.6114322582807972
000430 6b 00 e9 38 ac 92 64 3f bb f6 17 a1 82 12 de bf
       0.002511345264139255 -0.4698797772578975
000440 52 6b f4 31 53 15 e2 bf 87 fe 0f b8 5d 09 e0 bf
       -0.5651031470946271 -0.5011433215112938
000450 45 d6 fd 00 63 df b1 3f 80 72 5c ca 29 1a de bf
       0.06981486105163366 -0.47034687768772443
000460 85 2a 79 88 26 41 e1 bf ee 03 46 66 67 fe d7 bf
       -0.5392029443258514 -0.37490258205076443
000470 1c d7 c0 81 d2 51 c4 bf 33 ab 81 9e 56 1a d6 bf
       -0.15874701820001114 -0.3453575656810017
000480 0d 9b c9 24 a6 a9 a8 3f e2 6e 0a e1 f7 fd cf bf
       0.048169319143928836 -0.24993799675291145
000490 4d d9 f6 5b 84 ef e1 bf eb b9 6d 68 22 98 ca bf
       -0.560487918489153 -0.20776777361920948
0004a0 c4 2c ad 69 80 bf d7 bf 11 ed ad aa 81 79 b3 bf
       -0.3710633308407518 -0.07607279221513276
0004b0 86 7f 1c bc 94 4e d6 bf 17 02 57 0b 0d e9 b9 3f
       -0.3485462033295267 0.10121232535221512
0004c0 4c 98 ca da c3 fc dd bf bc 03 dc cc 26 69 dd bf
       -0.46855255476328206 -0.4595429421024695
0004d0 87 e4 9b 73 b0 b5 9e bf 7a 5c 10 f1 57 42 d3 bf
       -0.02998996453877514 -0.30092428723714415
0004e0 dd f3 b1 a2 4b 9b d3 bf 9e 11 44 c3 85 22 d1 bf
       -0.30635348213382746 -0.26773208683905547
0004f0 9b 6b 13 49 c2 50 cf bf 72 20 c5 7b 62 c7 d4 bf
       -0.2446520668807722 -0.32466947638432153
000500 c3 33 d2 cb 20 87 c1 bf 28 cd f9 66 9c e9 d0 3f
       -0.1369362826557375 0.2642584806082646
000510 d2 a2 b2 d6 2a f4 e1 3f 46 e5 f8 16 99 da cb 3f
       0.5610555833164546 0.21760858174983805
000520 e2 ba b8 e2 57 9f c9 3f 5a a1 41 c9 19 ed c4 3f
       0.20017527170553878 0.1634857399651633
000530 1d 3e fc 42 23 7a d3 bf 79 c6 bb f1 58 c8 d9 3f
       -0.3043296960977118 0.4028532372168239
000540 b9 fc 09 98 48 15 e2 3f 0c 98 b2 25 50 19 dd 3f
       0.5650980920326197 0.45466998750123433
000550 10 6a e0 49 41 e2 a4 3f b2 37 35 d9 53 70 c3 3f
       0.040788688915388005 0.15186546426633424
000560 0f e5 e6 58 45 56 d0 3f ec 6c d0 53 04 82 e2 3f
       0.2552655571158348 0.5783712040896751
000570 e1 b4 0d b8 b0 20 e6 3f 2d ca c3 77 f8 36 a6 bf
       0.6914905161662795 -0.043388142223097816
000580 f3 f9 17 4d 03 fd d0 bf 0e 13 e2 ec 26 e1 d7 bf
       -0.26544268158605105 -0.37311719067683746
000590 d4 1f b8 ea aa 63 b4 3f cf b5 8a 35 61 d6 d6 bf
       0.07964580755663003 -0.35683469990439404
0005a0 e4 b9 46 36 cc d4 d2 bf be 75 5d 09 a3 0b e5 bf
       -0.29423814106385593 -0.657670515338104
0005b0 61 1c 7c b3 0b b1 e8 bf 29 e1 e3 73 b8 82 ba 3f
       -0.7716120248377473 0.10355713681554292
0005c0 a3 63 d0 d1 6b a2 db bf 7a 42 b0 5c 5e 6f 98 bf
       -0.4317884015049975 -0.02386233750081821
0005d0 ff 4b 93 cd 33 ca a1 bf f4 e3 52 76 c3 50 c3 bf
       -0.034745806545878104 -0.15090220716027114
0005e0 e2 59 93 09 b1 21 e2 bf b0 9d 15 60 67 15 b3 bf
       -0.5666127383254287 -0.07454534622012576
0005f0 fd 89 8d 0f 74 c7 80 3f 80 1e 17 3c 13 80 d0 bf
       0.00819292709792751 -0.25781708591646435
000600 ca 3c c7 94 63 b1 d1 bf e4 78 a9 d6 f1 24 c8 3f
       -0.27645196465614374 0.1886274622110654
000610 2a da fc d1 f0 03 cb bf cf 37 4f f9 18 85 ce bf
       -0.2110577607470117 -0.23843681500733147
000620 fb b9 71 bb f9 2e c7 bf c2 60 b9 d1 8e 1d e6 bf
       -0.18112107899237614 -0.6911081405806032
000630 a6 4b 0c 16 5c d5 dd 3f 95 63 17 c1 ac 4d 9a bf
       0.46614744332435476 -0.025686930928575064
000640 cc ae cb b0 5d ec c9 3f c3 b5 24 86 bc 60 d1 bf
       0.20252581722831164 -0.2715293226236463
000650 97 95 42 e7 c8 6c cc bf 8a fe 49 3f f5 06 d2 3f
       -0.22206984798428372 0.28167468243189175
000660 30 f6 1d 47 6d e5 c8 bf 58 19 a6 8b 81 bf d2 3f
       -0.1945015523196374 0.2929386008985566
000670 22 6d 03 b7 e0 3a ce 3f 8f bf c3 91 84 ea ac bf
       0.23617180763435736 -0.05647672919610535
000680 98 5f 68 8f a8 f0 83 bf 42 a2 e2 38 d8 85 cd bf
       -0.009736363293128922 -0.23064711358644457
000690 c6 f1 4c c8 59 ff c0 3f 7a 8e 14 2d a2 ca e1 3f
       0.13279268532086358 0.5559855347132292
0006a0 fe 96 fd d8 77 31 b1 bf d3 e5 67 b4 cd 10 c3 3f
       -0.06716107413884839 0.14895030316237853
0006b0 ff e0 33 bc 01 fa d4 3f 0f 63 7d 35 66 94 b5 3f
       0.32775920275845744 0.08429564290907997
0006c0 05 08 7e ad 33 30 c6 bf 01 b2 19 9d 93 0c ae 3f
       -0.17334600421241944 0.0586897019646564
0006d0 73 53 55 8d 77 79 c3 bf 4b ff 4b a8 44 13 be 3f
       -0.1521443786720301 0.11748150929269945
0006e0 c1 ef 2e 50 e8 49 bf 3f d2 39 26 24 2a 78 d9 3f
       0.12222148854829042 0.3979592659969998
0006f0 1a ac d4 99 cd 4f a9 bf f2 a2 fb de c2 6f d6 3f
       -0.04943697455231462 0.35057136321715554
000700 53 ab f5 67 5f 82 d7 3f fd 48 2e 58 9a f0 ad bf
       0.3673323168974793 -0.05847627951074406
000710 8a 52 2b 52 37 54 74 bf ed 92 b9 d2 48 ca b8 bf
       -0.0049631272292641835 -0.0968366159882625
000720 12 9c 01 5f 2a a0 b3 bf b0 0e 94 74 00 79 b7 bf
       -0.07666268176545568 -0.09169009061957456
000730 10 43 45 cf f8 06 60 3f f9 3a ca 55 b6 d0 b0 3f
       0.0019564494670379975 0.06568469614488127
000740 ce 45 6a 0b bf 5d 9e 3f a7 cb e5 f6 c5 97 d8 bf
       0.02965448863193903 -0.3842635069951776
000750 64 5a a5 18 14 61 e4 3f dd c0 44 78 6f 79 8c bf
       0.6368504029622497 -0.01390349469929258
000760 b2 56 6b fa 90 fc d3 bf fd 29 01 47 87 89 dd bf
       -0.31229042487153 -0.4615190690425662
000770 63 ca 71 50 bf 63 b0 3f ed 0b d9 57 58 a4 b3 3f
       0.06402202333428302 0.07672645706865895
000780 17 f4 12 2c a4 85 c0 3f 4f 3a 8d 1a 20 ae d0 bf
       0.12907840873768414 -0.2606277713102018
000790 ef b8 b9 80 52 a5 bd 3f 41 43 5a 74 37 08 bb bf
       0.11580386774742 -0.10559412565841077
0007a0 ab 39 0c ad d1 4e d2 bf 88 d8 52 0c 23 4d d3 bf
       -0.2860607328338129 -0.3015830631587808
0007b0 97 9b c0 1f 69 5f d1 3f 81 98 6a b0 72 23 d8 bf
       0.2714484033662585 -0.3771635744873337
0007c0 b2 cf 59 93 b0 60 b6 bf f1 23 78 e0 0a da da bf
       -0.087412868475268 -0.41955825730161594
0007d0 5d 5e 6b 8d 5a 3f e4 3f 39 fd 6a 78 0e e0 80 bf
       0.6327336084459138 -0.00823985390650127
0007e0 09 fc cc 46 77 fa cb bf 0e e4 de fb e5 55 d7 bf
       -0.2185811134058613 -0.36461782070870263
0007f0 9f 1f 0e 97 28 bb e2 3f 39 31 b6 8f ba 33 da bf
       0.5853465032860078 -0.4094072726664027

nn.2.linear.bias f8 [32]
000000 38 12 50 b1 db 6b d9 bf 67 1a 5c 26 ae 93 d1 bf
       -0.39720814052296616 -0.27463868852684076
000010 03 14 8d f6 07 7d ca bf c6 c3 8d 12 a5 b1 d8 bf
       -0.20694064653994823 -0.3858425790013452
000020 c2 f0 4e 69 2e f5 b9 bf 36 1d 9d 82 8c 44 95 3f
       -0.10139741965298568 0.02076930567934917
000030 ce 6a e4 a0 e0 ed bb bf df 54 35 3c fa 6c d1 bf
       -0.10909847190888941 -0.27227645759314884
000040 e2 2a 90 68 4d aa d5 bf 89 18 05 3b 88 a1 d9 bf
       -0.33851943217511693 -0.4004841400495783
000050 af 9d 3e 5f 7c 1c d7 3f 61 42 fe f8 fc 6a d2 bf
       0.3611136369822487 -0.287780039937422
000060 17 8d 86 dc fd 98 c7 bf 9c 9c 91 43 29 9b c7 3f
       -0.18435643451548664 0.18442264365441907
000070 ca c2 a6 27 e5 59 c4 bf 61 b3 73 bb c7 62 d5 bf
       -0.15899338184455863 -0.33415406518797935
000080 76 0b ba 34 30 1a a8 3f e7 dc 66 30 2d fe d5 bf
       0.04707480090748721 -0.3436387036012562
000090 17 d6 8f 3b 17 72 a2 bf 0b 71 04 13 5a f8 d1 bf
       -0.036026693363890576 -0.2807831941334064
0000a0 d3 82 3f ba 34 5a cc bf 08 cb ab a8 32 6f d3 bf
       -0.22150286764283197 -0.30366198035987724
0000b0 1a 12 2f 77 f3 c5 dd bf 2c 84 80 89 ea 23 ba bf
       -0.4652069724946003 -0.10211053711874801
0000c0 e3 23 1c 05 90 93 d2 bf 1b d5 ab 77 98 8a d1 bf
       -0.2902565050031269 -0.2740842026390326
0000d0 ab eb ac 42 da 97 d4 bf 37 b8 a8 54 af b5 d8 bf
       -0.32176834594036546 -0.38608916537748733
0000e0 3b ea 95 bd ce 0b d1 bf a0 15 cb e0 46 68 d7 bf
       -0.266345677511399 -0.36573955490561083
0000f0 78 03 a1 a8 d2 da c1 bf aa df 84 e0 80 f4 c9 bf
       -0.13949044450603387 -0.2027741524013867

nn.3.linear.weight f8 [32, 32]
000000 00 3e 99 4d 73 2d a2 bf f4 a2 5e b2 c4 2a d7 bf
       -0.035503009054647094 -0.3619853727237079
000010 e8 ac e4 3f d9 c8 e2 bf ad f0 3c e6 15 0d c4 bf
       -0.5870176551738071 -0.15664933912365112
000020 da c9 21 bd f4 6a e3 bf 1a 1b a3 ae 97 0b c1 bf
       -0.6068061536773783 -0.133166275283849
000030 d2 6a 1c 8c 92 41 dc bf 47 cb d3 0f 9e 71 ba bf
       -0.4415022247573407 -0.10329616438302223
000040 5d 1a 71 f5 e8 04 ac bf ae 9b 37 d1 5a c3 b9 bf
       -0.054724960290106074 -0.1006371269973971
000050 28 ec c1 0e ad 29 e2 bf 02 47 4f 98 d4 12 cd bf
       -0.567587403128873 -0.22713715970035514
000060 10 e7 f5 92 3e 58 d7 3f cd 9f 2d af 81 cc d5 bf
       0.3647610125695886 -0.3406070910191346
000070 57 9b ba db 54 01 b8 bf bb 04 44 12 11 78 d0 bf
       -0.09377031673885249 -0.25732828887710085
000080 1a cb f5 b1 ce a8 d3 bf 96 da fd 0d 2e 76 d4 bf
       -0.3071781862155817 -0.3197131287228471
000090 44 10 16 6c e9 02 c0 bf c2 d2 95 ae e8 88 af 3f
       -0.1250888612522677 0.06159140711944168
0000a0 e2 9b 8d 63 5f ed a6 bf 7d 2a ee 2a 4c c9 d7 bf
       -0.04477975931404622 -0.3716612262002526
0000b0 be 08 dc ef a1 f0 d0 bf 08 82 59 92 ff 8a ce bf
       -0.26468704627781026 -0.23861689229944738
0000c0 d7 e7 fd 84 ee b8 c3 bf 77 e2 b9 f8 4b ae c6 bf
       -0.15408116811505465 -0.17719411511258773
0000d0 e3 9e 45 5c 21 c1 d7 bf 88 4b 1f c6 a3 c9 d1 bf
       -0.37116273890431567 -0.27793211315036404
0000e0 9e de 71 54 b7 d6 b2 bf d7 97 62 6c 24 ad da bf
       -0.07358880817070676 -0.4168177660416154
0000f0 10 7d 98 15 ce 64 db bf c6 ed 24 9e c3 21 d7 bf
       -0.428027649964819 -0.3614357990624878
000100 b6 a6 c3 a7 34 d4 e5 bf 72 a5 c6 80 71 73 d3 bf
       -0.6821540142675164 -0.30392110420014895
000110 22 86 36 a7 ab ea c4 bf 9e 6f 22 6d 78 75 dc bf
       -0.16341157593437666 -0.4446698251501803
000120 e6 2a 94 12 bf 77 c2 3f 71 55 2b c1 40 d9 de bf
       0.14427936942259761 -0.4820100675982167
000130 87 9f 3e e0 27 9a e4 bf af 02 38 4e 17 af ad bf
       -0.6438178424623268 -0.05797646360224939
000140 cc 22 5d db cd 85 de bf 26 37 42 a7 ee 5e d1 bf
       -0.4769167558884362 -0.27141920408108644
000150 28 d8 3d ec 28 b9 c1 bf 69 66 1a c4 d1 bd d3 3f
       -0.13846313033326507 0.30846065664954964
000160 f4 c2 2d ec 76 57 d4 bf bf 58 5f 06 73 04 bc bf
       -0.3178384119446911 -0.10944289117410032
000170 6f 2b 30 1c e3 d8 6a 3f ea 2b 4f 7a 37 ae e1 bf
       0.0032772479767166278 -0.5525166882374581
000180 ff 19 bf f2 86 ed db bf 3f 5f ad 7f 0b 5d d3 bf
       -0.43637250619613605 -0.30255401104431096
000190 8f e3 6b e4 26 91 d0 bf 3d a0 45 58 9f b4 c7 3f
       -0.2588593702963004 0.1851996594443807
0001a0 a7 63 a6 c3 31 65 c1 bf 4f ef dd 49 6f 5f da bf
       -0.13590070775242433 -0.4120748730999723
0001b0 89 35 ab 23 c5 bc e3 bf cb fd 36 f1 9e a4 bc 3f
       -0.6167932221084566 0.111886915102324
0001c0 ed bc 5c 7f c9 b1 c1 3f a9 ce 3c e0 2d 4a d3 bf
       0.13823813170299762 -0.30140253923603183
0001d0 e9 6a c9 c0 38 3b a1 bf b9 e7 81 e0 c7 80 d5 bf
       -0.03365495065073338 -0.33598515438609017
0001e0 97 e2 3b 34 3a 01 ca bf 28 b8 66 d2 d5 42 cb bf
       -0.20316245604023628 -0.21297714971064008
0001f0 46 b5 1a 5d 90 36 ca bf b8 45 08 a4 69 96 d3 bf
       -0.20479015871152678 -0.3060554601553025
000200 d4 8d a9 d4 71 70 7e 3f ea c8 30 9e 46 22 d6 bf
       0.007431454325885285 -0.34584203193948204
000210 b4 20 be 27 c2 c1 d6 bf 00 8c cf 00 3e 82 cb 3f
       -0.3555760753738568 0.21491217650972771
000220 a5 37 0a 02 c1 d2 c7 3f 33 72 4d c4 1a 8b bd bf
       0.18611919974904115 -0.11540381710569463
000230 db db 82 b4 1a 4e e0 bf 61 89 f8 93 fa 21 ab 3f
       -0.5095342183693633 0.05299361282620186
000240 28 98 98 36 6a 85 a1 bf 59 04 bc a2 ec 88 ab 3f
       -0.034220999874648605 0.05377902494911586
000250 f2 cf 3d 2a 33 c5 c6 bf 17 36 39 9d 0d 12 b9 bf
       -0.17789306223460205 -0.0979317196699515
000260 d8 1a 3d 22 5d 7d de 3f 20 79 d0 b8 16 f2 da bf
       0.47640159934637216 -0.42102592514301485
000270 19 6b 6f 83 d8 e1 be 3f 19 d4 6d bd d0 6c dc bf
       0.1206336327444827 -0.4441415643589735
000280 53 5d 18 39 a2 55 cf bf 53 f2 c7 ef d1 4d dd bf
       -0.24480083263254446 -0.457874759827779
000290 7f e6 d9 ba 21 7c e1 bf b9 cb 82 e9 1f 7c cf 3f
       -0.5464028024136524 0.24597548391247218
0002a0 ae 14 71 61 1f 34 c8 3f c1 48 5c 4a c9 e9 d8 bf
       0.18909065492531368 -0.3892691827942479
0002b0 92 d7 40 99 3b 95 da bf 69 c5 bb 73 ec c7 d5 3f
       -0.415358447705665 0.34032737066362145
0002c0 76 36 27 a2 7a 06 bb bf 22 2c 7e 4f 7b 8d d4 3f
       -0.10556761225526565 0.3211353565499754
0002d0 07 71 24 50 39 e3 d4 bf bd dd 0b f2 19 60 d8 bf
       -0.3263686449661382 -0.38086556088770945
0002e0 44 44 d3 6e 64 17 cb bf b8 52 64 51 49 e7 df bf
       -0.2116513768328635 -0.49849160145212634
0002f0 b9 57 ab 6b 75 89 d0 bf fe e3 d7 46 c0 8c c1 3f
       -0.25838981165486136 0.13710788211008657
000300 be 9a 46 6c e9 10 c4 bf a6 7e 30 9d 92 58 c1 bf
       -0.15676610743431313 -0.1355155246283079
000310 5d 5d 90 cb f7 36 b7 3f 94 74 ae 5b 25 6d d4 3f
       0.09068249435255411 0.31916173890369604
000320 53 15 6c cc f9 81 ce bf b9 73 79 cb 86 7a 99 3f
       -0.23834154588272813 0.024881464165776388
000330 4f 95 aa d2 57 bc bd 3f 3f 2c 40 7e ca 4e d0 3f
       0.11615513699742518 0.25480902032058234
000340 33 51 7b 2f b3 3c a4 bf 96 95 92 d2 c9 75 da bf
       -0.039525603815180686 -0.41343923152666073
000350 1c 1d 7c 0c b8 5c cc 3f d8 99 1f be de 80 c9 3f
       0.2215795575104743 0.19924530299540666
000360 41 ac a3 01 f4 b0 e6 bf e3 60 bc df 04 35 bc 3f
       -0.7091007263201236 0.11018400633145435
000370 8c 8f c5 9d 9c b7 bb bf 3b 0d 1a a7 3c f4 d2 bf
       -0.10827044345711395 -0.2961570388653915
000380 19 cc 18 19 59 f7 b4 3f fc 75 81 e2 74 d7 d0 3f
       0.08189923155514157 0.26315042609880357
000390 b9 e8 09 ef 6f 03 cc bf e8 d1 a4 90 d0 c3 cb 3f
       -0.2188548962765873 0.21691329062163267
0003a0 87 d0 9c ae 7b eb de 3f ba 71 51 c4 26 46 b4 3f
       0.4831227498245955 0.07919542591975573
0003b0 24 50 f1 45 3f 80 d4 bf 12 01 88 d7 3a 3f d7 3f
       -0.3203275855096328 0.36323424385047176
0003c0 f9 2b 7b cc 6f b4 dd 3f 52 e4 24 59 4e cd c3 3f
       0.4641379830251818 0.15470294335117046
0003d0 ab ae 1f f8 40 4a d1 3f 3d e1 99 0a a3 cd 93 3f
       0.27015709143482053 0.019339129945792555
0003e0 fa 9a aa cd e7 6d a4 bf 51 c5 74 0d ee 4e c3 3f
       -0.039901012283101125 0.1508462491706646
0003f0 14 b3 99 e3 33 a3 cf bf 7f cc aa 89 de a8 be bf
       -0.24716805089283211 -0.11976424084677893
000400 5c eb d1 9e 5b cc d1 bf 34 80 39 d2 4f c0 e0 bf
       -0.27809801587834726 -0.5234755617093527
000410 c6 34 b8 89 94 be cb bf 35 a8 df a8 a2 a8 db bf
       -0.2167535469492689 -0.43216768733566663
000420 06 ba 4f 81 20 ab b2 3f 7f 2e 86 0b b3 71 e0 bf
       0.07292369038598431 -0.5138793206292148
000430 aa 77 66 01 fd 26 e0 bf 7d 52 82 af 70 79 bc bf
       -0.5047593142842193 -0.11122803006066735
000440 80 2e 7c 8c 83 42 d8 bf cd fe 07 aa 17 78 9e 3f
       -0.3790596839832929 0.029754991295702738
000450 9e 03 92 90 3e d9 c4 bf c3 85 fc ad 21 1d cf bf
       -0.16287977274990068 -0.24307652469091864
000460 01 98 87 ca fe 7c c4 bf 9b 9b 9a 9b 4e 3d 91 bf
       -0.16006455315726956 -0.016835430381117438
000470 43 7b b5 5b 0f 91 dc bf c2 47 d6 77 66 5c ce bf
       -0.44635375934551663 -0.23719483233850097
000480 f3 d0 cc 89 38 40 d8 bf 74 ab 96 78 37 f8 df bf
       -0.37891972977673943 -0.49952494407869286
000490 6a 5b 91 c9 f6 99 a5 bf bd 58 d2 9d 7a 19 e1 bf
       -0.04219027720016906 -0.5343602259115624
0004a0 c4 88 1a c2 43 03 c9 3f 35 fd 41 9f e1 8f de bf
       0.19541213014333014 -0.4775318198444041
0004b0 67 64 a9 53 71 12 c9 bf 9c 8e 33 fe 13 c5 cd bf
       -0.1958753260139787 -0.2325768462388752
0004c0 b9 2d a6 0c db c3 e1 bf 2b a4 56 6c 15 9f c9 bf
       -0.5551581618359968 -0.20016734876597417
0004d0 bf 13 bd 75 d9 e0 b0 bf f6 26 e3 20 93 a2 dd bf
       -0.06593093037106622 -0.4630477734723252
0004e0 e6 18 63 9d 0a 28 b6 bf c1 78 5f bc dc 73 cd bf
       -0.08654848425348724 -0.2300983352460602
0004f0 e2 a2 0f 97 2e 42 d4 bf 69 4b 09 2d f2 cb e1 bf
       -0.3165394282537318 -0.5561457519164438
000500 3f e2 c4 2b ab f3 d7 3f 0c 54 28 34 d2 14 d0 bf
       0.37424735330890607 -0.25127081960209874
000510 e5 8d 26 18 df 4d cf bf a6 42 b8 4e d6 68 d6 3f
       -0.24456394843319554 0.3501487511394238
000520 2b 16 61 50 83 b5 c3 bf f9 e7 9d 0c 9a 62 ac 3f
       -0.15397683548705862 0.05543977169050147
000530 53 b5 ce 4e 9e 44 c4 bf cf 8d 22 24 be 7b dc bf
       -0.15834406707782964 -0.4450526574020985
000540 0a a1 10 44 5d bc bb bf 99 ff f3 0f 35 45 d3 bf
       -0.10834296142332192 -0.3010990768234421
000550 8a af 2e 74 11 95 de bf b3 a0 06 4a 67 4d a5 3f
       -0.47784839960035497 0.04160616663585994
000560 3e 54 5c 0c bc f4 d8 bf 57 45 4f d9 30 72 b8 bf
       -0.3899374123296332 -0.09549241357242032
000570 5a c1 34 74 c6 58 cf bf 76 e7 a3 ff 9b 00 d1 bf
       -0.24489670442700168 -0.2656621929632971
000580 21 99 b7 c6 fd 90 b7 bf 7f 83 cd 2a 7f 06 cb 3f
       -0.09205614186757717 0.21113576498012418
000590 9f d6 4a 1e 13 58 d4 bf 53 cd f0 ce 34 b1 b5 3f
       -0.31787565191494055 0.0847352032877116
0005a0 cb cd eb fa c3 fa 9a 3f 0b 90 73 e9 06 02 dc bf
       0.026347219648369873 -0.43762371824254903
0005b0 b8 d7 78 f9 ff 7d c6 bf 9c 4e fe d2 7b 4f b4 bf
       -0.1757202118039325 -0.07933782483297097
0005c0 ad 1f 9a 31 eb ad ca bf 99 d4 e7 34 c3 73 d0 bf
       -0.20843257829642195 -0.257065583863843
0005d0 8c ed d4 3e 07 3a e4 3f 85 f0 85 65 4b 38 df bf
       0.6320835330183612 -0.4878109446942818
0005e0 61 83 1a 3d fd 64 dc bf 33 b9 d8 94 78 b2 c2 bf
       -0.4436638924326442 -0.14607150333308425
0005f0 b3 6b 5d ac 6b d8 d7 bf 71 2a 40 bc 08 ab b2 3f
       -0.37258426506530923 0.07292227359736515
000600 ad 8f 18 09 ea a9 cf bf d9 76 76 58 c0 a7 d8 bf
       -0.2473728699125081 -0.3852387298482945
000610 62 38 e1 00 90 95 d1 bf 8c bf 45 0f 5e 63 76 bf
       -0.2747535713759871 -0.0054658579068557304
000620 07 4e 9d 54 f5 37 e1 bf c7 ca d2 b6 9b 7f d1 bf
       -0.5380808498979953 -0.2734135899910765
000630 72 9a c8 6f 17 a7 a7 3f 74 8f 80 b0 3a af ca bf
       0.04619668235345821 -0.20847257250090545
000640 03 d7 30 2b b9 66 c2 bf 15 b6 42 c8 96 6d bf bf
       -0.1437598667995915 -0.12276594533133108
000650 fb 42 f3 e4 d0 8a d5 bf f1 00 ff b1 fc 7a dc bf
       -0.33659765585348084 -0.4450065363162273
000660 6a 2e 2d a8 8e f6 d3 bf a9 8a 86 10 1c c6 cc bf
       -0.3119236605022936 -0.22479582602416784
000670 0f 09 db 25 9d cc d2 bf 19 26 6b ba 0f 3a df bf
       -0.2937386388477003 -0.48791878895699053
000680 fa dd 93 e2 ae 71 db bf 6b f5 e0 3e f5 59 cc bf
       -0.4288136685058529 -0.22149530000926218
000690 ef ca 58 e4 94 e9 c4 3f d9 8b 38 b8 58 73 97 bf
       0.16337834501026502 -0.022900949710798677
0006a0 2c 72 d3 74 b9 f6 d9 3f e4 0e 96 70 b6 e1 d7 3f
       0.40568386467728845 0.37315140719168327
0006b0 57 01 f0 37 4e e0 cf bf 66 ae c1 b2 f3 e1 cd bf
       -0.24903276187252274 -0.2334580061754991
0006c0 b3 74 2f 8c 17 ce c7 3f a0 11 13 27 1a 4b c7 3f
       0.1859769281863116 0.18197943599637956
0006d0 c3 35 2c 30 b2 42 d2 bf 66 97 45 bd e2 6d b0 bf
       -0.2853208036838987 -0.0641767227258164
0006e0 6a c8 77 33 e1 61 cd bf 4d 50 fe 56 c0 f7 a5 bf
       -0.22954955113488335 -0.042905817622483335
0006f0 a7 3a f6 df 9b a3 e0 bf 2e 49 55 07 11 71 b8 bf
       -0.5199717878584423 -0.09547525815040522
000700 b2 b1 34 eb 47 63 c4 bf e9 36 f3 62 a2 62 ac bf
       -0.15927981362018567 -0.05544002015959199
000710 42 32 fb 51 82 d9 cb bf ea bf 4e 96 4a 93 82 3f
       -0.21757534983625432 0.009069998466514979
000720 69 8d 94 e4 46 61 db bf 34 50 b8 2c 03 34 d7 bf
       -0.42781231233876454 -0.36254958502945844
000730 ce a3 89 f5 0e d9 d8 bf a0 1d f3 b6 22 64 dc bf
       -0.3882481954411191 -0.4436117922418479
000740 4e b9 86 86 1b 7c d0 bf f2 cb 10 22 5a ff ae bf
       -0.25757492196398324 -0.06054193178024282
000750 c4 1d cf 89 48 71 db bf 52 48 cf a4 63 89 be 3f
       -0.42878926713862264 0.11928389333414316
000760 c5 08 1f 06 14 7b d6 bf 39 45 ed 8c 42 bf d0 bf
       -0.35126209829116944 -0.26167358171831584
000770 8a b9 69 fa ac 1a dd bf 03 18 65 eb ea 59 e2 bf
       -0.45475315527337357 -0.5734762761646838
000780 0a 58 e8 db 57 23 cd bf 84 d9 91 a5 a7 88 c2 bf
       -0.22764108884501894 -0.1447953756757664
000790 92 3b 26 b7 a1 cb c0 bf 6c 5e 05 e9 86 14 b8 bf
       -0.13121434634055312 -0.0940632170580728
0007a0 2c 30 51 48 b7 1c d5 bf dd 8d 87 d6 88 c2 da bf
       -0.3298776823255618 -0.4181234450354319
0007b0 c8 ad 87 f0 f1 04 d7 bf 57 8a 0e 49 fe 7c c7 bf
       -0.3596768235135781 -0.1835019928667687
0007c0 48 75 8d 03 97 b1 dc bf e6 14 db fe 78 29 dd bf
       -0.44833922717028374 -0.4556562889886905
0007d0 1c 20 24 96 bd 83 ca bf ae 0b 55 8c 34 fa d6 bf
       -0.20714540320500496 -0.3590213175231679
0007e0 62 52 23 51 be a1 c3 bf 11 5f 59 29 a6 a5 c9 bf
       -0.15337351762595391 -0.20036770838736875
0007f0 b3 85 22 5c 38 32 e0 bf a8 d5 74 07 c7 8b dd bf
       -0.5061303901203956 -0.461656338960291
