nn_14/models_3/001.pth (torch, 173698 bytes, 28 tensors)

nn.0.linear.weight f8 [16, 8]
0.06059980630097351 0.5849895528866113 0.19617129227604094 0.385667075981571 0.15264580816968518 -0.3914393083541297 -0.03299363919652537 -0.4024110257965191
0.27703823327717975 -0.4492205582898171 -0.06839206825928432 -0.027166138528769274 -0.29589640224785596 0.2862819717387909 0.1263063491641282 0.17846254907314527
0.3773889032209638 -0.4533700384727556 -0.3395400503118139 0.23858865361256607 -0.07722026486082201 0.25743345709336035 -0.157036898333033 0.11853399362612145
-0.2775565432419918 0.852065787690258 0.10391575866942782 -0.32406034499601816 0.1608160554621466 -0.001798476898165758 -0.3546855552280602 -0.33576315707648813
0.12169812785225925 0.7589045152239005 0.020455285085796818 -0.09535152214022387 -0.0834013930518757 0.23985722234377102 -0.09583052212806704 -0.06916699907527296
0.1646247358974829 0.6705947028393456 -0.2810047185054253 0.174254941944323 -0.008800819739071705 0.41032493043224405 0.47575709784247705 0.7275845265264685
-0.48692514506495777 -0.8331709496413865 0.1729588027985018 0.18822250270922947 0.4495908139760298 -0.0694278004867302 -0.11465943004884711 -0.4571269448729897
-0.02005442152162794 -0.25895728461892387 -0.014406132237723088 0.21518799506131728 0.06701548219222432 -0.192143007952918 0.17549522149196625 0.05322049380848851
-0.05772556042308619 -0.34357818771124193 -0.015342068546095669 -0.2777849382149076 -0.08744466387026001 0.24819212761082257 0.07801842229432293 0.25428369528150446
0.01951650131874523 0.7716145393695284 -0.2590297383700932 0.2291149444228384 -0.09835879276833895 -0.11661726046622968 -0.134477599914006 0.5463304855299688
-0.4446263579066182 -0.5455826156098414 -0.6860574830598315 0.1425467070021828 0.0015545789213483642 -0.3200298918910245 -0.09821793954423078 0.27444065739266754
0.053794203442758114 0.4086691778402658 -0.12886736488170142 0.4258720558911845 -0.0857638427735112 0.08260332567903735 -0.22487771696176115 0.5755388160688851
-0.17817485043486034 0.14532704615814915 0.31477552500544403 -0.5734218161049696 0.026456532105667792 -0.14428784333862307 0.09622648561253853 -0.17447336798473764
0.09622470753260894 -0.28983797044960097 0.1758680914598813 0.2347080882816656 0.47156492815095774 0.3668118566143762 -0.42882245804967933 0.08480252180868132
-0.14182103880039035 0.3373989833769398 -0.04843001274123161 -0.3432183784101979 -0.33229267316502165 0.1889813767067978 0.2042308821507389 0.11796545072489413
-0.33249038266080894 -0.07984713012466965 -0.05090317066898074 0.10412995105377307 0.14946622973764268 -0.6115715327957465 -0.15572574430942718 -0.0920977199410436
00000000: 91c9 6914 f006 af3f ffc9 c402 3cb8 e23f
00000010: f5ac 5e12 241c c93f e006 9ff5 c4ae d83f
00000020: b3ea fad8 e589 c33f 7dfd ef74 570d d9bf
00000030: 8873 a6d2 8ae4 a0bf 9a22 d62c 1ac1 d9bf
00000040: ddb1 ea91 feba d13f 8aeb a295 07c0 dcbf
00000050: a6bb 7a80 2482 b1bf 259f 28b2 70d1 9bbf
00000060: 8a26 aa76 f7ef d2bf 365c 839e 7152 d23f
00000070: 7cf2 7773 ce2a c03f ef3b ea5d dcd7 c63f
00000080: 3345 4dc9 2327 d83f 0683 0ec4 0304 ddbf
00000090: 325f f130 06bb d5bf e737 3bb0 128a ce3f
000000a0: 906a 2a10 b5c4 b3bf 512e c72d ca79 d03f
000000b0: 0f86 4dfb c819 c4bf 95a5 166a 3e58 be3f
000000c0: 75f8 0085 7cc3 d1bf c471 8578 1f44 eb3f
000000d0: 5833 0621 399a ba3f 570e ec99 67bd d4bf
000000e0: a4d9 70d9 9e95 c43f 0377 74dd 5b77 5dbf
000000f0: 165c 040b 2bb3 d6bf 3518 b6c0 247d d5bf
00000100: 1c21 1cc7 9b27 bf3f 628c 351f f248 e83f
00000110: f439 e5f1 3af2 943f 1d51 3715 f568 b8bf
00000120: fb40 992f cb59 b5bf cb83 d636 a4b3 ce3f
00000130: ada7 7f5e 5988 b8bf 6ca2 fdae edb4 b1bf
00000140: f26a 6560 6c12 c53f 431b b205 8375 e53f
00000150: c228 0037 fbfb d1bf 849b 6866 fc4d c63f
00000160: 1e8f a807 2a06 82bf 5c28 3c7f c342 da3f
00000170: 21b1 04e6 cd72 de3f ed37 5058 5f48 e73f
00000180: f2db 6915 c829 dfbf 0dfc 951f 56a9 eabf
00000190: 9e95 c998 8323 c63f e0f2 c0ca ac17 c83f
000001a0: f7fa a68c 18c6 dc3f 7412 8634 05c6 b1bf
000001b0: 55e0 3c06 525a bdbf 8764 965f 9141 ddbf
000001c0: 9d67 4d72 2589 94bf 94f3 1f93 c192 d0bf
000001d0: e53d 9556 f680 8dbf 85dc a3bc 478b cb3f
000001e0: b95d 5738 ed27 b13f 7e0b a85f 2498 c8bf
000001f0: 4fc5 749e a076 c63f d5d3 c470 b73f ab3f
00000200: 8123 5264 348e adbf cead f55d 2ffd d5bf
00000210: 888c 4495 a96b 8fbf 0815 3d7a 3ac7 d1bf
00000220: 9450 8803 c662 b6bf 3948 9b77 c2c4 cf3f
00000230: ac58 3dec 03f9 b33f 41f7 c81e 2f46 d03f
00000240: 34dd 953b 22fc 933f 32ba 76f9 10b1 e83f
00000250: 536c bf77 f193 d0bf d714 a974 a353 cd3f
00000260: 72cc 36b6 0a2e b9bf 8100 daf7 a0da bdbf
00000270: e16d d6de 8f36 c1bf ab16 0512 8a7b e13f
00000280: 4a81 891c c274 dcbf ddee 69ac 6975 e1bf
00000290: ab60 9dd2 2ef4 e5bf 0e0a 5d72 f83e c23f
000002a0: 155a 1468 6078 593f f884 daa7 5e7b d4bf
000002b0: fa14 3996 cf24 b9bf 8e6e 0c8c 6f90 d13f
000002c0: 4385 00f1 e98a ab3f f041 6dc4 a227 da3f
000002d0: 4224 d8ce b97e c0bf 964e 15de 7c41 db3f
000002e0: 6e3a e483 9ef4 b5bf c511 55d6 7d25 b53f
000002f0: 9b96 f903 cbc8 ccbf 7f05 1361 d06a e23f
00000300: 7730 cbf9 6ece c6bf bb9c 3c9f 139a c23f
00000310: f8b1 5e3e 4825 d43f 0c7b 5fb5 7859 e2bf
00000320: 423e a3d0 6b17 9b3f dbc4 2c28 0678 c2bf
00000330: 8f01 b788 4ca2 b83f df3a c2b0 2455 c6bf
00000340: c972 ebb3 2ea2 b83f 4f15 0e8f b48c d2bf
00000350: ce74 9d7a d882 c63f 3562 a325 ea0a ce3f
00000360: 4055 16aa 1e2e de3f 0267 fc6f d879 d73f
00000370: f046 47c0 d371 dbbf 795f c939 9eb5 b53f
00000380: 7526 c419 3127 c2bf c9af d3e7 f197 d53f
00000390: e2a5 bc91 d1cb a8bf e51b aa37 4af7 d5bf
000003a0: 866d fc7c 4844 d5bf cf1e 41b0 8a30 c83f
000003b0: fbd7 d5cf 3c24 ca3f 9ddb ebd8 fb32 be3f
000003c0: 13d0 f0bd 8547 d5bf 1c9e 908c dc70 b4bf
000003d0: ce6b 92fa fa0f aabf 865e 4fae 42a8 ba3f
000003e0: 4430 4a9c b521 c33f deb6 9076 fe91 e3bf
000003f0: cb24 7a39 d2ee c3bf c4d5 2e57 b793 b7bf

nn.0.linear.bias f8 [16]
0.17063912080775234 0.0729688669752018 -0.014990368592604294 0.17807402741663864 0.24553463550387594 0.09945215798513109 0.011804325473671946 -0.023808437332800084
-0.155816178042955 0.09121059526578264 -0.0056505253787769326 -0.1477127550641833 0.03815287357898961 -0.05583227885665419 -0.02662127695321494 -0.023283393184104606
00000000: 74cc a4b1 80d7 c53f e2df 4871 16ae b23f
00000010: 8bbb e136 45b3 8ebf 8abf 0236 21cb c63f
00000020: 7220 c3ce ad6d cf3f 4111 1056 b275 b93f
00000030: 84d6 e2be dd2c 883f 115c da2e 3d61 98bf
00000040: 18ec 70d6 c8f1 c3bf 3d19 b7db 9359 b73f
00000050: 5323 505b 0125 77bf eaf2 1966 40e8 c2bf
00000060: 6855 8a00 c688 a33f 2e3f 8067 0c96 acbf
00000070: 6538 91a7 9b42 9bbf 9003 1011 9ad7 97bf

nn.1.linear.weight f8 [16, 16]
-0.1321317313142265 0.3942601029588417 0.3115911895035641 0.09758396448946818 -0.48967075070755095 -0.20640410780263124 0.3374839434503077 0.330748226017145
0.5049272688139257 -0.07414911741277123 0.05889528016861299 0.04014362663515477 0.17877998844995796 0.22297616022476438 -0.09614169768375448 -0.11648706660142578
0.4287927092581418 0.36175839148704064 -0.08143499705850023 0.4078558040870106 0.6862140363407487 0.24920974369126775 0.06314269423305495 -0.1663201832856095
0.13846602210227746 0.2856478967178039 -0.23945328948802908 -0.3309062179034343 -0.01014721705821744 -0.1026351986449256 -0.0634148427407751 0.42896082881106556
-0.16726801979283337 -0.22625795260758283 0.062088598863542545 -0.14104553383816334 0.10664660503796333 -0.3860858388231339 -0.34052902554144693 0.20236252254705578
-0.38770868293280714 -0.040762861602860585 -0.3470644711227241 -0.18188697528873454 0.1609849917904642 0.2374288851587126 -0.09819559030732479 -0.07253833739734294
-0.4170098454241052 -0.11780209510731929 0.17012548149830087 -0.5610081401385179 0.3846391731310614 -0.08309212402012674 0.23892570384117293 0.25414600214810773
0.419863949404392 -0.10758171505754995 -0.022465259869847442 0.18042189642296605 -0.2257023744271053 0.13125940322895432 -0.04538784184738786 -0.227307579642877
0.20347163264608284 -0.0041123215090877316 -0.25348782588977786 0.20901070726537604 0.3055148808660232 0.26667013269876033 0.12230498537525351 -0.2624477540124695
0.13207809551953512 0.036880963218836715 0.07048357266665231 0.496170197042004 0.15427666823537511 -0.060035792625893786 0.015458114733325454 0.1933322359167085
0.48116025468911133 0.0811980213467893 0.04196368980408799 -0.2007805443407621 -0.21060990488014783 -0.09555280664059432 -0.23588369364062528 0.15023724314088763
0.385320890770094 -0.2419638717348562 -0.6338785198961454 -0.37405172528708575 0.2585990144172377 -0.09192757105186371 -0.18680708743244656 -0.214584160373852
0.48559166672719534 -0.32467729988454935 -0.3831272899466261 0.17180952284430873 0.8361279313877983 0.10936731033253878 0.16367679991986114 -0.1900957937291035
-0.018353173170577605 0.09777809453343765 0.18798934121229027 0.13159671966541886 0.3540891568678091 -0.46721000124783285 -0.24964700185647384 0.10290540957465368
0.22900097787348703 0.09959802635894482 0.017168863760507736 0.5496645051770741 0.18665235299478342 0.2772523408195453 -0.20059722167560762 -0.2484293568345223
0.46243599604601354 0.007547495633150379 -0.29064918048233085 0.16426489929775076 -0.04989367200539908 -0.02783599500912468 -0.21380433522671877 0.1879158847767406
0.4002114244443031 -0.1740656883774143 -0.5294500902655133 0.09644474977261862 -0.12220888051066463 0.2553838370145437 0.391029498916758 0.2417756904759085
-0.6684776706680143 0.05839463988106168 0.21037037856004842 -0.12426852420029293 -0.1933793132404461 -0.26705095646100774 0.17146605214659205 -0.009759373709995118
0.05050786806034288 -0.16313877742572563 0.1276737244883103 0.13651443893836895 0.5856476903162435 0.0952956043161678 -0.07007158354973271 0.13853210938849994
-0.5436432642392027 0.4195028590878616 0.195801674067973 -0.4772363972357826 0.23791731279916814 0.35090941991653174 0.2251899330751903 0.08633980649335066
0.027775679644572497 -0.30258438327298315 0.14582200006620533 0.13429312466917695 0.15405488670505893 0.028230419944118058 0.08320189217823881 -0.35009357339183395
-0.19490159170877194 0.31216708650266306 -0.10445782208997438 0.3266776771867102 -0.009293956763295615 0.09407922694510938 0.2690596588744426 -0.5942284068383105
0.029716228589316093 -0.1129553554425005 -0.5420147494428229 0.053000383946933585 -0.23444874794923398 0.18691414223804959 -0.006484724130723618 0.13870415628378602
-0.33530154576038107 -0.20173145880380816 -0.372947488799135 -0.1240313756811607 0.14258010546175787 -0.6678372177241109 -0.1064617694753387 0.2260181194354369
-0.24167611935319014 -0.2171768657891471 0.12449336175195842 -0.023488757020901842 -0.05253698364707345 -0.16489328158142072 0.08317486633058735 0.13396729152211928
0.38127570595816473 -0.2649677359496785 0.19124796296168745 0.3665099625916863 -0.13554590634903765 -0.3170042370136393 -0.02428718545331435 0.13705585896777173
0.4732929085248122 -0.09920243656726824 0.1206470801786103 0.17076152107450368 -0.36863233815163454 0.12074589217650836 -0.14979342488918032 0.035522035168534756
-0.150187028886405 0.2190436493618349 0.1064213800416277 0.10113981275091402 0.09438754555182528 -0.056645155986407306 0.521975822549507 -0.3862610458393949
-0.08753521275069627 2.302695853683643e-05 0.2042222257875472 0.1788909416478114 -0.16107173180712875 0.07557786229408252 -0.42482669355102853 -0.363433119590949
-0.12258447566014584 0.13958002293543323 0.10016425308287925 -0.004005636385173845 -0.02730677098669652 -0.0353731682671652 -0.1583812090896549 -0.2138242552151722
0.1273979561431764 0.03408408624610184 -0.03613688442953623 -0.061755492947015385 0.38109517531544324 -0.2730885514290432 -0.098997461372009 -0.35540108537231224
0.5982604006178291 0.45069130735124213 -0.6971374095930878 0.022920637868495592 -0.5419697650949982 0.2918602318920044 -0.6122730732332349 -0.07111666545828486
00000000: 4815 614c b1e9 c0bf 33da 14ba 8e3b d93f
00000010: 54ee 282c 1cf1 d33f 8aa6 1840 43fb b83f
00000020: 5630 06fd c356 dfbf aedc 6226 736b cabf
00000030: edd3 0241 5699 d53f ab08 7d9b fa2a d53f
00000040: dc42 4d3b 5d28 e03f 7bab 50c2 6ffb b2bf
00000050: ce07 6dac 8527 ae3f ebe6 1497 b48d a43f
00000060: a231 c93d 43e2 c63f 87fc f999 7b8a cc3f
00000070: b969 5507 be9c b8bf f5c8 75ad 18d2 bdbf
00000080: a3b9 c1f9 5671 db3f c962 1fab 0c27 d73f
00000090: b1b9 1d89 ecd8 b4bf 4c66 023b 4f1a da3f
000000a0: 3078 8423 77f5 e53f 12d0 7fd9 1ae6 cf3f
000000b0: 3759 b69e 1e2a b03f 7c2e f0d1 fa49 c5bf
000000c0: ddab 442e 41b9 c13f eebe a41d 0e48 d23f
000000d0: 7aa6 a2c7 67a6 cebf 1b0d fc45 912d d5bf
000000e0: cd9d 486b 10c8 84bf fc31 99e5 4c46 babf
000000f0: 9511 a783 f43b b0bf 988c c01e 1874 db3f
00000100: a9a4 56d9 0969 c5bf 0b6a 7445 05f6 ccbf
00000110: cd91 25ab 13ca af3f 8977 8ab1 c70d c2bf
00000120: 4213 de20 314d bb3f ed6b cc60 a1b5 d8bf
00000130: 4a83 0241 3acb d5bf 1049 23e0 03e7 c93f
00000140: c095 6414 38d0 d8bf c189 f3aa dede a4bf
00000150: 3ad7 44e6 4d36 d6bf 1c7c 3789 1248 c7bf
00000160: 0785 71fd 279b c43f d3f2 70d8 1164 ce3f
00000170: 5d3b fba0 5823 b9bf d0ea d35a df91 b2bf
00000180: 1138 0d10 4ab0 dabf 2edf e231 4728 bebf
00000190: b02f a0f9 abc6 c53f 38e9 d557 c7f3 e1bf
000001a0: dfef 569f ed9d d83f 1dbc 3883 8645 b5bf
000001b0: 9ff7 1512 1e95 ce3f 3da8 e897 ed43 d03f
000001c0: 5285 dd0a 0ddf da3f 4ddc d1ab 798a bbbf
000001d0: 93a0 bf11 2201 97bf 6139 4f90 1018 c73f
000001e0: 9da0 65be d0e3 ccbf 4396 14ae 1bcd c03f
000001f0: dfb8 bd40 133d a7bf 327b 592e 6a18 cdbf
00000200: a977 f0c3 5b0b ca3f 2f53 46e6 14d8 70bf
00000210: 035e 8800 2539 d0bf bbfb 1be4 dcc0 ca3f
00000220: aeb2 7049 8e8d d33f c7b6 b09a 1f11 d13f
00000230: 9b10 5328 614f bf3f f519 19aa f1cb d0bf
00000240: 791e 635e efe7 c03f 4061 bdc5 0fe2 a23f
00000250: ca2d 821f 360b b23f ebe5 62a4 40c1 df3f
00000260: e8aa 4d7e 56bf c33f 74d6 d5eb 02bd aebf
00000270: 724b e609 81a8 8f3f 4a2d 4357 1cbf c83f
00000280: bb95 8161 54cb de3f de32 2fbe 64c9 b43f
00000290: b8f5 a7c6 437c a53f 6cee ce47 2db3 c9bf
000002a0: 8b42 d6ee 43f5 cabf 1af7 8f13 2676 b8bf
000002b0: 424f ecd6 6f31 cebf 4135 f756 f93a c33f
000002c0: 5cae 14f4 18a9 d83f 6716 f511 acf8 cebf
000002d0: 14e8 129b bb48 e4bf cab4 c7a5 76f0 d7bf
000002e0: a5ca 6ce1 e28c d03f 83ba 44b7 9088 b7bf
000002f0: b078 976d 4be9 c7bf d5cc 8567 7e77 cbbf
00000300: 7c6b f311 ef13 df3f 8d7e 304c 83c7 d4bf
00000310: d5a7 2153 2885 d8bf 5cfb e0bc dafd c53f
00000320: b0a5 125d 8fc1 ea3f 7136 21fd 7eff bb3f
00000330: cf86 6283 5cf3 c43f 8a3a 9618 0f55 c8bf
00000340: df8b 2e9a 2ccb 92bf af4b 4936 fc07 b93f
00000350: 7c6e 40e4 0810 c83f 40a7 9c4b 29d8 c03f
00000360: 9963 2791 65a9 d63f d44e eec6 c4e6 ddbf
00000370: 094e 42d6 6ef4 cfbf 2962 b448 0258 ba3f
00000380: 9bfc 5b6f e74f cd3f 4c33 f599 417f b93f
00000390: 5d85 71f1 b694 913f e63d 3004 da96 e13f
000003a0: e7c1 ea6b 39e4 c73f 18cd 239a 80be d13f
000003b0: faf1 6175 2bad c9bf 353c 7c7d 88cc cfbf
000003c0: 2bb1 e025 8d98 dd3f 7ecc 936e 1fea 7e3f
000003d0: d5f8 3105 ff99 d2bf 53aa 2ed9 a106 c53f
000003e0: a1c1 14d3 a98b a9bf 39fd dc00 0a81 9cbf
000003f0: fa58 c5c1 f05d cbbf b0eb c1b1 a00d c83f
00000400: ab53 de60 109d d93f 7fe6 77d3 c847 c6bf
00000410: 82bf d150 41f1 e0bf dff0 2466 9ab0 b83f
00000420: abf6 12c9 1449 bfbf aae2 f972 3558 d03f
00000430: 7c99 6797 a006 d93f 8fea c77d 81f2 ce3f
00000440: 1d03 b448 2b64 e5bf f609 1af9 e6e5 ad3f
00000450: c234 fba3 6aed ca3f 0bc9 5cdf 0fd0 bfbf
00000460: 9c9a 0b41 a7c0 c8bf 2465 17e5 5c17 d1bf
00000470: 1003 2c7f 99f2 c53f b79b 4ff7 b8fc 83bf
00000480: cc0b 05d3 2adc a93f 825f e040 bbe1 c4bf
00000490: ed2e 9ed3 9c57 c03f d606 561d 4e79 c13f
000004a0: c45b 9c39 a0bd e23f 3991 fdef 4a65 b83f
000004b0: cd9b b917 36f0 b1bf 097f a28f 6bbb c13f
000004c0: 5323 138f 8665 e1bf 5d18 1785 22d9 da3f
000004d0: 14df 4f7d 0710 c93f d2aa a587 0a8b debf
000004e0: dbf3 cf12 1374 ce3f e596 99c8 4c75 d63f
000004f0: b022 f912 06d3 cc3f 6c5e 3b95 5d1a b63f
00000500: be5a ca4e 3a71 9c3f c904 9ce3 8a5d d3bf
00000510: 362c a998 4baa c23f e710 4461 8430 c13f
00000520: 9bf6 170e 12b8 c33f ad3a a669 6fe8 9c3f
00000530: 48f0 de1d b84c b53f 337e 10e0 ee67 d6bf
00000540: 2fec 290d 89f2 c8bf 9ba8 daa8 8bfa d33f
00000550: 6315 b071 bfbd babf 1d69 f67c 49e8 d43f
00000560: d153 cac2 b508 83bf 2f53 f682 9315 b83f
00000570: 3279 e200 4638 d13f f530 b74a eb03 e3bf
00000580: 1c69 ce57 ee6d 9e3f b399 8865 a4ea bcbf
00000590: 54cf d950 2f58 e1bf ea7d 74c7 dd22 ab3f
000005a0: 8cda 83a4 6a02 cebf a041 0978 cdec c73f
000005b0: 5a67 0ae1 b98f 7abf ee70 87cb 0ec1 c13f
000005c0: 8eb3 559d 9475 d5bf 4880 1121 56d2 c9bf
000005d0: 8a20 e124 5fde d7bf 557d 3a2e 85c0 bfbf
000005e0: 965d 029d 1040 c23f 6da7 2528 ec5e e5bf
000005f0: 30be 2b1a 1441 bbbf efa9 a367 29ee cc3f
00000600: 754e 6c3a 3eef cebf b98e 0198 73cc cbbf
00000610: c533 4b05 ccde bf3f 6af2 e9cc 6f0d 98bf
00000620: 3b78 30a5 20e6 aabf 0575 dc19 391b c5bf
00000630: 0032 bdb2 f24a b53f 181d e917 d725 c13f
00000640: 5660 f637 d266 d83f c089 193c 3bf5 d0bf
00000650: b06c 2c31 d07a c83f 9353 bf33 e674 d73f
00000660: 111a 7079 9159 c1bf 59b0 aa23 cc49 d4bf
00000670: 297c ef6c bdde 98bf 40f2 fedf 0b8b c13f
00000680: 0abd e256 6e4a de3f 286c bdb4 5465 b9bf
00000690: fb9a b91f bae2 be3f 0f11 3776 83db c53f
000006a0: 80fe 2617 ac97 d7bf 1242 06ea 33e9 be3f
000006b0: b705 8752 6e2c c3bf d924 acb6 f12f a23f
000006c0: bcdd ac1c 5439 c3bf cae9 334f 9f09 cc3f
000006d0: 07bd df7a 6e3e bb3f a2b7 167c 4ce4 b93f
000006e0: 0178 4b3d c829 b83f f27a e008 9800 adbf
000006f0: 00e4 e4a3 06b4 e03f 5455 e63f 80b8 d8bf
00000700: 8d3c 032c b568 b6bf f0f8 9d8a 4025 f83e
00000710: 17da 6f32 f423 ca3f 85c8 f6fb e5e5 c63f
00000720: 4cfa 359e ff9d c4bf 0bcc da1e 1259 b33f
00000730: 303f d14c 5c30 dbbf db49 bbfc 7c42 d7bf
00000740: 8727 f539 b261 bfbf f35f d718 c2dd c13f
00000750: b11f 384f 5da4 b93f a142 62d4 3668 70bf
00000760: 7b8e 6361 4ef6 9bbf e20c ba91 6e1c a2bf
00000770: 13a6 abe0 d545 c4bf fbcf 9edb 975e cbbf
00000780: e028 9b83 934e c03f 036b 7b27 7873 a13f
00000790: c1be 9ba1 8880 a2bf 7990 1c7d 6a9e afbf
000007a0: 702a a904 dd63 d83f 2e2f 5367 487a d1bf
000007b0: 4dd4 faca e557 b9bf 5dc4 a831 e4be d6bf
000007c0: 66a7 e4fe f224 e33f 7f90 6a5a 20d8 dc3f
000007d0: aea7 e01c f34e e6bf b5d0 31f8 8178 973f
000007e0: 4a1f 10fa d057 e1bf 26aa be89 d6ad d23f
000007f0: d242 38b3 bd97 e3bf 3f0a 58a8 b334 b2bf

nn.1.linear.bias f8 [16]
0.029438716562439356 0.05618603818833613 -0.07466728029053628 -0.011799424941984406 0.044256898124660125 0.0015819244727919147 0.13406840822468102 0.041550845686322314
0.002091496575345507 0.0898907418606629 0.05975022346379663 -0.1276315377948315 0.005051926896763504 -0.07055849015806748 -0.08535734156496183 -0.08417338189252122
00000000: e2d0 7cd3 2e25 9e3f e27b 0599 6ac4 ac3f
00000010: b9da ed16 651d b3bf 8e41 e601 4c2a 88bf
00000020: 2bb9 2214 d7a8 a63f be47 0678 12eb 593f
00000030: 683a 6052 2729 c13f 4513 b006 2746 a53f
00000040: 6379 81ac 2f22 613f ae35 8164 1403 b73f
00000050: 4c51 69cf 9497 ae3f b42c 62f0 3a56 c0bf
00000060: 1aa7 da4c 54b1 743f 181d af07 1f10 b2bf
00000070: 24b9 7e8e fad9 b5bf 900e 6c02 638c b5bf

nn.2.linear.weight f8 [32, 16]
-0.11918600075102072 -0.1922511153471508 -0.12136984422239872 -0.05740850095222711 -0.0070545597880590765 -0.2187181769136742 0.048200384952315205 -0.1167802091060003
-0.14798933752889343 -0.1202999982858282 -0.10387554052627494 -0.18292507685487938 -0.15519630521085415 -0.2539445559051304 0.21723150553623619 -0.15799560527732442
0.01765199943834666 -0.17193334762164797 0.26212446273099055 -0.3958941038012622 -0.1717174762053179 -0.2522640838285329 -0.18525254895022644 -0.17785614585861992
-0.01739972785609154 -0.04532614280061151 -0.39725185394241924 0.010032090234811114 -0.07423880611866084 0.20205469462848988 -0.26698660662873863 -0.34024939781341834
0.49409662866951487 -0.053647272323091626 0.11199551361092577 0.24256305566023897 -0.14233861443647078 0.23205318844388098 -0.06055073603737983 -0.2077466023909445
-0.07639469838243614 0.16056293326666202 -0.34161749716971407 0.056237281062302254 -0.22442767830643828 -0.05346949325430688 0.08581874461907602 -0.03925878955216513
-0.11651038503877739 0.10555356104214574 0.031078554890169245 -0.10348059244921556 0.024476795014362205 -0.05687700046667818 -0.4207315293540607 0.06184920300413555
-0.08690083800505377 -0.2517422597147496 0.1617497876843366 -0.020769278028516566 0.006567998763387995 0.24283016952741782 0.06886557072086864 0.30256792702690977
0.4018780956464054 -0.19003551403711577 -0.07356604580640752 0.17094917159647396 -0.30098177746480737 0.17770118255081033 0.06944563649365826 0.024091999564591113
-0.03913317039492924 -0.0003685364196168301 -0.15130792807431703 -0.02251369871145491 0.10364536936162022 0.18598018642469258 -0.17422841097996852 0.17274364177984877
-0.18528118507342667 -0.05715513948856755 -0.13740040623252592 -0.09269034717153464 0.06221984739262733 0.35670839370891877 -0.29632981629945726 -0.0409545875761093
0.06490804167960575 -0.17607058076285417 -0.014240710000714111 -0.12452241254371409 0.10412986167173166 -0.18722951283825787 0.12488476368832785 0.044849909732968644
-0.5170382233671262 0.08055787133989456 0.07962592784152825 0.11737081845519064 -0.02425950196536432 0.2054483791895061 0.06126605633856065 0.15243022675740567
0.10498685422646288 0.12939697387576693 0.02425268461175128 -0.08254600465925806 -0.2172887465703293 0.12068220212508317 0.20413595046667504 -0.09828505400196663
0.2239364509049089 -0.08398778626359035 0.3310034019363248 -0.20950625671252573 0.24682256328005142 0.027094156028108957 0.10116157857144928 0.36232435296675575
-0.13674526886110114 -0.0035222925974358046 -0.1952714709149719 -0.22232064659563858 0.3651548896779404 -0.11013033002064423 -0.12627049388224565 -0.32037296470344817
-0.21853432454111787 0.21131283315190758 -0.14427661567889402 0.007456441267696982 0.06854658435010517 -0.17569298622742904 0.14713620274449096 0.23939126131406369
0.09059519124957117 0.27269827262573176 0.3234076865178065 0.10984155796089695 0.0031623703946473242 -0.28503197337819847 -0.03568965541481899 0.028112458955856224
0.33599887574729126 -0.16717718605333426 0.024288275492856278 0.09060297390297478 0.11181429009802682 -0.04251049770730334 0.004254808031388873 -0.14136649332480036
-0.06624817975637953 -0.3845764735876706 -0.40392714543320735 -0.09223423166249863 0.04483217807525063 0.2705280990515426 -0.36779290568119694 0.19280056713210092
-0.37178498623909073 0.4000346859320037 -0.029255948061073175 -0.19856801065348811 0.10274491015504428 -0.06706938385898209 0.30171683690017154 0.029839322912164016
-0.1633353211248154 0.49742354306093417 0.24867041403584197 0.06157718022941395 -0.15650878829237522 -0.28347405650603885 0.14108611429781545 -0.008945755126148605
-0.039550246211066266 -0.067986762101546 0.21144552997836244 -0.31959096618057475 -0.020317935205616637 0.2145857946975495 0.01878006605969808 0.043618585933619336
0.16974745199101035 0.1449993516771741 0.09401725112539283 -0.125648541615663 0.12185736695214178 0.02550553437033738 -0.3158017170286936 -0.1499868062294088
-0.30624055572334524 -0.2517092606765299 -0.03599850308680753 0.010641469305546995 0.021670750566150292 0.08930194541734225 -0.2908605806175122 -0.07011478087033085
0.38312209278139153 0.07229573232442892 0.13069663666667566 -0.2691443338972711 -0.06976248451767933 -0.46688320819054663 0.10597528191616098 -0.18983959893021196
-0.06299722642071062 0.24355974427924865 0.12970711956573913 0.06041894820449333 -0.34370827353367445 0.2558130535695838 0.15927455716137118 0.46917982242111184
-0.3819860048229362 0.11171622343973583 0.0027809405302163443 0.3113553364166404 0.0665150819208628 0.16191205698582037 0.3520974908223083 -0.07959919301334419
-0.5340690940762562 0.06210146350137543 -0.004249175057540254 -0.17938944878402577 0.5895636815321155 0.0013227973415588358 0.16447349984427184 0.2500906780533101
0.127696727871275 0.46420120983946356 -0.16069538009425607 -0.11427362438777246 0.13745926190152585 0.0008422516955038883 0.019685300319024185 -0.21113145528843294
-0.11296250547826232 -0.40544263579109235 -0.24895839723310254 0.11468312927240441 -0.2827573015732604 0.03099616402518856 -0.24680654311799377 0.2294692354757057
0.10902722367960031 0.09442108719755384 -0.26009411055675563 0.15231520568550777 -0.03704970550624447 -0.2998844885450989 -0.13805245551001594 -0.08573764733188173
00000000: c9dd 5d47 f982 bebf 758c 843e af9b c8bf
00000010: a0e3 a717 1812 bfbf 9953 34a4 a564 adbf
00000020: befd 3cf9 3de5 7cbf cb46 710c f5fe cbbf
00000030: 27b3 0c8a b8ad a83f f928 eeca 4ee5 bdbf
00000040: 58f1 6b8a 50f1 c2bf 73b3 580e fbcb bebf
00000050: 0b28 6a61 9697 babf 11e1 5ac3 166a c7bf
00000060: 849a abf7 78dd c3bf 9d06 a7aa a040 d0bf
00000070: 6930 f8f1 3dce cb3f 72f6 c932 3339 c4bf
00000080: 8ed4 2fa1 5d13 923f 3e3a 9074 e901 c6bf
00000090: b250 baae a5c6 d03f 945c 2039 5456 d9bf
000000a0: 3e0c 3a98 d6fa c5bf d1ee 7f41 1825 d0bf
000000b0: 53f5 9e03 5bb6 c7bf 0a7d ed7c fdc3 c6bf
000000c0: 7aa4 67f8 3bd1 91bf fc03 f7f9 fc34 a7bf
000000d0: d850 3d0a 936c d9bf 4395 c05b b48b 843f
000000e0: f7ac 5f7c 5001 b3bf 7360 b7a0 eddc c93f
000000f0: 5230 fcfd 4e16 d1bf aae8 0569 a5c6 d5bf
00000100: 56c3 4c77 479f df3f df68 4bc0 a777 abbf
00000110: 4af5 41ec bcab bc3f a9a7 a363 4e0c cf3f
00000120: 5436 fbd6 2638 c2bf 6f45 a63b ebb3 cd3f
00000130: 22fd 0e8e 8100 afbf 82e6 8fcf 7097 cabf
00000140: cded 235b 9a8e b3bf 2742 aa81 538d c43f
00000150: 7775 85a2 0fdd d5bf 4904 f505 22cb ac3f
00000160: a859 52d1 0bba ccbf 37cd b879 5a60 abbf
00000170: 28d0 859d 37f8 b53f 7308 6a62 ba19 a4bf
00000180: 6ecb 62e5 9fd3 bdbf c700 a7e4 8e05 bb3f
00000190: eedc 7083 0ed3 9f3f d60f 5740 b47d babf
000001a0: 69ec 63e8 7110 993f 6c44 cc71 fb1e adbf
000001b0: 3b31 beef 43ed dabf 6173 5fe0 b2aa af3f
000001c0: 0009 3a21 223f b6bf 44be 1f91 8b1c d0bf
000001d0: 199d 1e90 37b4 c43f 5c77 93a7 8a44 95bf
000001e0: 0e04 39be 0be7 7a3f 4a1b 4d1a 0f15 cf3f
000001f0: 8906 118e 2ca1 b13f b98a d9dd 455d d33f
00000200: b0ec 71e7 5eb8 d93f 5a19 ef6e 1553 c8bf
00000210: 9ca5 d570 39d5 b2bf b97f a496 a9e1 c53f
00000220: a0cf b912 4943 d3bf af14 c28f e9be c63f
00000230: 2415 9771 30c7 b13f ac91 e6b8 92ab 983f
00000240: aeed 114e 4309 a4bf 01ad a0de 0327 38bf
00000250: 0034 5ae5 0e5e c3bf fdf5 b5be d40d 97bf
00000260: 643d cabf 8088 ba3f e7f2 32e1 32ce c73f
00000270: 9fb4 98d7 1d4d c6bf 6ba8 04b2 761c c63f
00000280: c22c 3a3b 4bb7 c7bf b1ad cd3d 7043 adbf
00000290: 74e7 9c25 5696 c1bf 55b2 c1f9 8dba b7bf
000002a0: b248 6da3 47db af3f 5b10 4c71 4fd4 d63f
000002b0: ad7e 7555 11f7 d2bf c667 85ec fff7 a4bf
000002c0: 51e5 423c d09d b03f 0704 1515 7b89 c6bf
000002d0: af91 ccbd 3b2a 8dbf 9f88 7e69 b3e0 bfbf
000002e0: 80c6 6a2e 41a8 ba3f 0d40 3efd 22f7 c7bf
000002f0: dc5f cfa7 72f8 bf3f bf34 103f 91f6 a63f
00000300: 9a99 84be 938b e0bf d818 d7ce 709f b43f
00000310: 8a36 fe63 5d62 b43f 6b11 c592 030c be3f
00000320: 24e4 3b9e 7bd7 98bf 204c d1ea 214c ca3f
00000330: 3274 a8b8 435e af3f 6326 6c6b d582 c33f
00000340: ad9e 6921 6be0 ba3f 6eb7 7f7d 1490 c03f
00000350: 4f9e fd1c b2d5 983f 5d4e 6d26 bc21 b5bf
00000360: 8979 271e 1ed0 cbbf 7724 565f 07e5 be3f
00000370: 7e9b 9877 2021 ca3f 20c1 9f94 3529 b9bf
00000380: 196b 821a f3a9 cc3f a6fb 433b 3980 b5bf
00000390: bc99 8be4 282f d53f 739f 71dc 19d1 cabf
000003a0: 72f2 99ba e197 cf3f 65bb 3608 92be 9b3f
000003b0: e27b 93a7 b9e5 b93f 4557 a27b 5230 d73f
000003c0: 6b11 d274 de80 c1bf 7eeb 6970 c8da 6cbf
000003d0: a1f7 b5d2 a7fe c8bf ad4a 2dc1 0075 ccbf
000003e0: 1c0a 499d b25e d73f b281 bc55 8031 bcbf
000003f0: 1046 d6ac a129 c0bf b920 7b9b fd80 d4bf
00000400: 0c91 7ac8 eef8 cbbf f667 ce85 4c0c cb3f
00000410: 7b8e f5f8 a777 c2bf 1e96 3a36 a58a 7e3f
00000420: df44 09da 448c b13f 99df fd96 1b7d c6bf
00000430: fa2f 6ced 5bd5 c23f 5263 2573 5fa4 ce3f
00000440: 797e 9717 3f31 b73f fe9a a674 e373 d13f
00000450: ae9d 3727 b6b2 d43f a409 2f8b 931e bc3f
00000460: 5bfa 87ad f8e7 693f 2f51 febe f63d d2bf
00000470: 07d3 9f1d ea45 a2bf 9d5b 4d2f 83c9 9c3f
00000480: daf3 b46d 0181 d53f a241 5ee1 0f66 c5bf
00000490: df16 ac93 06df 983f 0068 d5a9 c131 b73f
000004a0: a24c 327f dc9f bc3f 3573 c79a efc3 a5bf
000004b0: ec77 8755 7d6d 713f a544 ca18 4c18 c2bf
000004c0: 4822 7905 a4f5 b0bf f3ae 37a4 e69c d8bf
000004d0: 738b e63d f1d9 d9bf 0de7 8fa0 a99c b7bf
000004e0: 4f86 4845 3ef4 a63f c0d3 8416 5550 d13f
000004f0: da7f 6641 eb89 d7bf b0c6 3d61 b0ad c83f
00000500: e89a 4241 53cb d7bf 55fd 5515 2b9a d93f
00000510: ef0a 8b70 45f5 9dbf eeed e433 ad6a c9bf
00000520: 8845 f28c 7d4d ba3f 08b9 3c8a 752b b1bf
00000530: 25e2 c822 544f d33f 718c 2b10 338e 9e3f
00000540: 78a1 41fb 2be8 c4bf 1c42 6d8e c9d5 df3f
00000550: e723 e29f 6ed4 cf3f 51cc 874e 0b87 af3f
00000560: a74c a0df 7a08 c4bf 1e4e 7d5e 7024 d2bf
00000570: 4717 6a1b 1c0f c23f 487f a3ed 2652 82bf
00000580: 2df1 0c0c ee3f a4bf 927d c997 9467 b1bf
00000590: f13b 12aa a510 cb3f 55ed f5aa 2d74 d4bf
000005a0: 3ee6 eb8c 39ce 94bf 2dc1 341d 8c77 cb3f
000005b0: 6528 2ce6 143b 933f 8052 2ae0 2c55 a63f
000005c0: 6bbb 70d5 48ba c53f 6684 b2b8 568f c23f
000005d0: d8e7 d7ba 8311 b83f 51c2 835c 4015 c0bf
000005e0: f80b d65d 0b32 bf3f 334e f36f 1f1e 9a3f
000005f0: 2d2b aa67 1836 d4bf 421c cb85 c432 c3bf
00000600: bd99 e2fc 7199 d3bf ac2f ad28 011c d0bf
00000610: 41f3 ec52 656e a2bf 0290 30d5 31cb 853f
00000620: 5b76 d873 db30 963f af62 0907 7edc b63f
00000630: 88a8 5cb2 759d d2bf 20e5 cdd2 0af3 b1bf
00000640: fec0 b786 1285 d83f 734a f91d f981 b23f
00000650: cd1c 17da aaba c03f da84 ff27 a939 d1bf
00000660: 4abb 7d45 f4db b1bf 9eb7 8e1b 6ae1 ddbf
00000670: 9ea8 0332 3221 bb3f d80c 72fa a94c c8bf
00000680: 7235 3713 9620 b0bf 6c97 2638 f72c cf3f
00000690: 59ee 4b2e 3e9a c03f 2fac 317d 3bef ae3f
000006a0: b345 8cfc 50ff d5bf 1929 beb6 3d5f d03f
000006b0: 80e6 0bd3 1b63 c43f 0b79 4fce 0a07 de3f
000006c0: 20a1 8f6d 7572 d8bf 1636 1b36 6f99 bc3f
000006d0: ad0b 2414 0ec8 663f 150d d6ee 3eed d33f
000006e0: 3c76 8ae5 2107 b13f 1985 cac6 88b9 c43f
000006f0: 6978 05ea c388 d63f 11c2 c7da 9c60 b4bf
00000700: 6c94 9b11 1817 e1bf 9b56 8b55 c3cb af3f
00000710: 4b8a 833e 9567 71bf 892e e3c3 3bf6 c6bf
00000720: 9adf 62a7 b4dd e23f 390c 8fd4 36ac 553f
00000730: 40e5 71b7 770d c53f e87f d154 7c01 d03f
00000740: 0eb5 01cb 5d58 c03f 568b c1fd 78b5 dd3f
00000750: 5fc2 0f8d aa91 c4bf 8176 8a47 0941 bdbf
00000760: fa1d 33dd 4398 c13f d73b 5cbe 5199 4b3f
00000770: 681e 5424 6228 943f 4973 cf03 5b06 cbbf
00000780: 3d0f b45a 1ceb bcbf 2d1d 48ab c5f2 d9bf
00000790: e422 1767 dedd cfbf 2fbf a0a1 df5b bd3f
000007a0: 5a97 bd14 b218 d2bf 7e96 285b 75bd 9f3f
000007b0: 68b7 9057 5b97 cfbf 2634 e776 3f5f cd3f
000007c0: fbda 1348 35e9 bb3f 49f6 90f9 fa2b b83f
000007d0: 654d aec4 61a5 d0bf 8a27 8d8d 107f c33f
000007e0: a795 f3d2 2df8 a2bf ad3f b8b5 4e31 d3bf
000007f0: 4e25 c6ee b3ab c1bf d98f 5307 e7f2 b5bf

nn.2.linear.bias f8 [32]
0.0007303314005448757 0.007302513543428449 0.016286630670553554 0.004745012722407269 0.005850511904912991 -0.0616918019120465 0.02890033718170854 -0.003219174778355473
0.03792033610133639 -0.01069447219904586 0.09244270880779693 -0.03658144241116615 0.006044682951003029 -0.01796402895613059 0.11211216161864906 -0.005165965249448848
0.004470496892034189 -0.010765179281973552 -0.023033937521980012 -0.019695275688858257 -0.0016375359000346506 0.014117177144014613 0.05777656471172155 0.008352679459390042
-0.07915882632569356 0.037879828062258196 -0.0728740514073369 0.0051624023281217095 -0.05479390855412863 0.05391595544191617 0.009343709418582384 0.009999999951942274
00000000: ffb6 83bd 76ee 473f 5ddc 8f8d 3de9 7d3f
00000010: 7844 5e48 71ad 903f a4b5 63a7 816f 733f
00000020: cc4c bed4 b4f6 773f 627f 495f 1196 afbf
00000030: 11be 27cc 0c98 9d3f 6aa4 944c 195f 6abf
00000040: d12f d156 4b6a a33f 8839 bec2 fbe6 85bf
00000050: 9848 154b 53aa b73f 64ca 9785 cdba a2bf
00000060: 088e 6d39 4fc2 783f a2e1 7b93 2965 92bf
00000070: 8cce a2f3 61b3 bc3f c34a c73c e828 75bf
00000080: 22a6 2bdf a74f 723f 56fc 9ce7 0d0c 86bf
00000090: 1e88 6b61 3596 97bf 4f9d e093 ff2a 94bf
000000a0: 7347 bfc8 52d4 5abf bfbd 2971 77e9 8c3f
000000b0: 11fb d2cf e394 ad3f 187b e5a8 351b 813f
000000c0: 7533 42ba c043 b4bf 8f37 691d fc64 a33f
000000d0: 4d83 85b3 dfa7 b2bf 8371 b0d2 2b25 753f
000000e0: 571e 857a f20d acbf 3e14 b642 df9a ab3f
000000f0: e954 0273 cb22 833f 1a5c 0746 e17a 843f

nn.3.linear.weight f8 [32, 32]
0.006302319569254989 0.016274150788662848 -0.1738715716238609 0.007693618287477398 -0.18839521131610584 0.20576454134324476 0.15579310820285053 -0.12701168006604815
0.2625251060497053 -0.2164357794774328 0.5091425488293864 0.37292773224941245 -0.21137402702997693 -0.17841558559511886 -0.025287854892066534 -0.0013339933153078513
-0.2002693274470148 -0.043366586484310306 0.2891828467291216 -0.18695149276181242 -0.06500797252615093 -0.0023509038930000408 0.06963627765924577 -0.28801922172521466
0.06736362298818807 0.22707644895687443 -0.09807292346201688 -0.1717229678605686 -0.053748555722806325 0.04686807472194229 -0.1756429720350954 0.2093357550099392
0.001046551676018071 -0.13226753122331228 -0.09289182198073116 -0.027169118951427776 0.12190272800130426 -0.07889308429908298 0.06475192239744859 0.08878838648487412
0.08987619471847146 -0.022714464050230157 0.21428736611567004 0.09643827586315548 -0.035654366283044595 -0.050805461412248634 0.29066778979031904 -0.20345409067957018
0.2625828243213737 -0.0014885257150358993 0.21469109965791297 -0.20686195675783536 -0.22862031559043416 0.10197715197689448 -0.08796379378157605 -0.11223822938514676
-0.25620108016069004 0.15895963507094527 -0.0544017820469716 0.19227622051819956 0.1441385792956991 -0.13075447560688527 0.16808612869047007 -0.009956765217820178
-0.022294824596102183 -0.27392531146128585 -0.13702824735016267 -0.04319102667756791 -0.19450460154147486 -0.02768217777745403 -0.0434806858309377 -0.46227885605815716
0.12574352200072028 -0.03641641809613302 0.04500982509342011 -0.10048118876085715 -0.11898185684928755 -0.12823606008028574 0.07153566540381597 0.01602366730371167
0.07523038784070367 -0.31997552878021207 -0.08609378945486915 -0.3546469983909439 -0.25128642828292674 0.14139487317957827 0.15851743910620145 -0.02684569776925133
0.015108246472318631 -0.2277340932507549 -0.3255362092734375 -0.10612927066210485 -0.09695849435122797 -0.22351832733111135 0.2229351553407332 0.23438188258336298
-0.3757941457961117 -0.048858918038707344 0.09379061793320097 -0.02493420133752238 0.12546278492771445 -0.19611628551253812 0.2771602722072949 0.10154033313207819
-0.05137240551383267 -0.018615246666627772 -0.303632979262858 0.04299053756111725 0.05186781655438406 -0.04125190668511549 -0.04142151931915094 -0.04799032344568329
0.09750209386849636 -0.20020910744681125 0.07993810214965151 -0.19938664180525112 -0.14431379738269745 -0.33827485167010707 0.027652781655268594 0.35797177986807893
-0.008596323467528706 0.02272550255105685 0.03520860669754913 0.002707170346944859 -0.021257144069674883 -0.146254306734836 0.21065575453324606 0.12130282453976758
-0.06296142453802835 0.10252305432319704 -0.11603220120097972 0.12803575356543873 -0.13667671617555172 0.14555799197516997 0.1501593653784037 0.2609752668516798
0.2552043946128229 0.4120199360103901 -0.000547169177701366 -0.2747131684894463 -0.1695198897151987 0.10223716305249562 0.14524649455650124 -0.13129513367267184
-0.2245038275689579 0.05950421203261195 -0.1070732849452087 0.12004178664734085 -0.22545275758897307 -0.10094186859388164 -0.22494504526472786 0.360100917824853
0.018594656945246923 -0.12315396593728622 -0.3616118918049947 -0.12470205739894001 -0.006684647435231482 -0.0005295974079350931 0.04263534231498265 -0.16539369009208968
0.027638986772086753 -0.34120201719078813 0.08007015305807741 0.1464096891724879 -0.02773449444721913 -0.22668140469888787 0.0741443406915994 0.04742563683582523
-0.5223536117828719 -0.09496482447119334 0.37249018503609643 -0.6169320189337657 0.01595104747907607 -0.07171326666046678 0.1252308442555481 -0.3147634051390072
0.037722521379418915 -0.17429115268610842 0.014030195643865158 -0.07747876682813212 -0.42724985725035813 -0.05034232040766436 0.02565067441365574 0.05786395521877909
-0.07758995101173585 -0.3137398304292933 0.07076874932706204 -0.318524696527275 -0.16275485407052462 -0.4111598226050829 -0.19682928086825796 -0.27107623164725425
-0.06901872815966725 -0.28420752190479265 -0.014183429658151659 0.14068503558548817 -0.2621878997520559 0.23766744991834612 -0.15561428911770217 -0.21896479704839064
-0.32683812825926006 -0.11153652632728654 -0.3067349858575941 -0.36897688333923573 -0.2214106239744054 -0.26486673392768073 -0.18284002132562763 0.033684931009260906
0.16928886196075787 -0.3007580082639948 -0.3387215149840805 0.06794796660021463 0.07904782859550553 0.3007400205474245 -0.1502554480716905 0.17199948805279144
-0.18290210560745881 -0.0011338305357231052 0.48083496356026006 0.1935592487004693 -0.44868361172146004 -0.29437955264033133 -0.03718138074485581 0.3066904465815853
0.10069249557525432 -0.07986057691804643 -0.032686009625236837 0.1826647868208432 -0.215557230807721 -0.017141731378073954 0.02625011398349739 0.14541102884976911
-0.16390537994723545 0.4209117281522585 0.02350345932702618 -0.1593990523764532 -0.22642272819834602 -0.2818386648365128 -0.3520124811551063 -0.06789096805839345
-0.4008923817382266 -0.17237951583954425 -0.08335733613641216 -0.2811737402379515 0.03351524569014497 -0.18630033651381195 0.5147998295776469 0.008627992766485059
-0.35395260738453493 -0.4931106293785741 -0.09873898940498173 0.2013729235560329 0.08042709515399588 0.035201448496805114 0.09940696584842175 -0.1338065261613196
00000000: 8eb2 0507 76d0 793f 5142 a1c5 2baa 903f
00000010: b40f ea74 6c41 c6bf 0b06 ecee 5783 7f3f
00000020: 01b0 a993 551d c8bf 5172 df13 7e56 ca3f
00000030: 0833 5650 07f1 c33f 19fe 0b32 eb41 c0bf
00000040: d331 371a 36cd d03f 8a19 45e9 2ab4 cbbf
00000050: 722d 8750 e54a e03f 4817 7247 0cde d73f
00000060: 2aa6 a8da 4d0e cbbf 1126 9d68 52d6 c6bf
00000070: 815b fd36 0fe5 99bf b09c 636a 2cdb 55bf
00000080: 9e6f e3e1 6ca2 c9bf c9e7 602d 2534 a6bf
00000090: 2d02 51c5 f881 d23f c3d8 acc9 06ee c7bf
000000a0: 4ca5 facb 5ca4 b0bf aa65 c4ea 3342 63bf
000000b0: fa60 29df aed3 b13f 8477 7b2c e86e d2bf
000000c0: a6a1 ac0d be3e b13f 5915 fb50 d710 cd3f
000000d0: 2679 e49e 4e1b b9bf 2373 77a9 04fb c5bf
000000e0: 9dc8 1242 ee84 abbf fc7f 50a0 17ff a73f
000000f0: 71dc 540a 787b c6bf 1d59 d396 83cb ca3f
00000100: cf6b 364e 8e25 513f e5a0 7678 24ee c0bf
00000110: b51c 7929 c2c7 b7bf b418 6eb5 38d2 9bbf
00000120: 8d0c 0f66 0435 bf3f 34f4 f150 5632 b4bf
00000130: 0cd8 0cfd 9493 b03f ab96 37f0 d5ba b63f
00000140: 2338 0155 2002 b73f 44b6 f7e0 7542 97bf
00000150: 05d6 b4b6 c46d cb3f 8235 eac8 2db0 b83f
00000160: 5a62 4a02 4a41 a2bf a295 7266 2c03 aabf
00000170: fa99 c912 4d9a d23f db63 da9c c80a cabf
00000180: 3ce7 bc30 28ce d03f 4f3c fb50 5463 58bf
00000190: 17f2 e279 ff7a cb3f 38de 87dd 737a cabf
000001a0: 24c0 5435 6e43 cdbf 6713 aeb4 2c1b ba3f
000001b0: 1122 8691 cb84 b6bf 73f5 9104 a5bb bcbf
000001c0: c95c 1f37 9965 d0bf 59c4 0111 ca58 c43f
000001d0: 08c3 78e5 8cda abbf 974a 76d7 819c c83f
000001e0: f95d 150a 2273 c23f 09c3 440a 90bc c0bf
000001f0: 3283 d1a4 d883 c53f 3c3b e067 3664 84bf
00000200: 1790 0a5a 74d4 96bf 2876 9107 fe87 d1bf
00000210: 86a2 7f40 248a c1bf 8023 1f5e 221d a6bf
00000220: 0865 45db 86e5 c8bf 73e4 f180 b758 9cbf
00000230: 1495 4db7 1943 a6bf 9fbb 190e fa95 ddbf
00000240: 4da6 561d 5d18 c03f 1b4d 8539 2ca5 a2bf
00000250: 40c2 8c1d 870b a73f 4c51 979b 22b9 b9bf
00000260: d22b fc4f 9875 bebf 5b3a 1b0a 0a6a c0bf
00000270: 6130 684f 2950 b23f 2b2e 201c 8268 903f
00000280: aff3 7077 4c42 b33f 8267 e8a3 7a7a d4bf
00000290: 6aed 181a 3e0a b6bf bfac ed52 89b2 d6bf
000002a0: 2fd8 d9ab 1315 d0bf fa6d 102a 3a19 c23f
000002b0: 7145 67a8 4c4a c43f 5035 d447 707d 9bbf
000002c0: e6f5 fc83 12f1 8e3f 4c1d 5909 6426 cdbf
000002d0: 0491 1fd3 95d5 d4bf df5e a4b2 492b bbbf
000002e0: 2ad4 4e9a 45d2 b8bf adcc f8a0 3f9c ccbf
000002f0: ad97 a8a0 2389 cc3f e737 3cbc 3900 ce3f
00000300: 5a3e 8ee3 020d d8bf 003a 303e 0904 a9bf
00000310: c7d9 b174 a902 b83f aea7 2fed 5988 99bf
00000320: 3c97 101f 2a0f c03f 04a3 3ea4 561a c9bf
00000330: da5e 3870 febc d13f f6f7 061a 8cfe b93f
00000340: da90 32e3 7b4d aabf ad80 8f0e e00f 93bf
00000350: 03f2 fa04 b96e d3bf 1f94 b911 db02 a63f
00000360: a9cb a11f 6b8e aa3f 136e 384c f81e a5bf
00000370: ff1b a78d 3335 a5bf 1b85 720b 3092 a8bf
00000380: 35eb 74b0 e5f5 b83f 3636 6cb8 73a0 c9bf
00000390: 33e3 6fce d276 b43f 7c0a e860 8085 c9bf
000003a0: 8c64 0fe0 df78 c2bf 00df 3e90 4ba6 d5bf
000003b0: 5546 69c3 0251 9c3f e627 db77 02e9 d63f
000003c0: 445f 4501 f39a 81bf b9c2 f7a8 5a45 973f
000003d0: 947e 9bcc dc06 a23f a6c2 5a03 592d 663f
000003e0: 30ab 57ca 6ec4 95bf 8da2 290c 76b8 c2bf
000003f0: 8d9d 378c c4f6 ca3f df8b 4fb0 b30d bf3f
00000400: 41e7 4c6b 3d1e b0bf 3577 676d f33e ba3f
00000410: ebeb 704d 49b4 bdbf 9421 24bf 7963 c03f
00000420: 2ea1 0c65 9f7e c1bf 6936 9aef a4a1 c23f
00000430: 8882 be0d 6c38 c33f 7457 0c9b d1b3 d03f
00000440: 5915 2ad0 4455 d03f a2bc 9ddd 885e da3f
00000450: f123 9fdc fced 41bf 5b55 9c8a e694 d1bf
00000460: 4495 2ce7 d3b2 c5bf bf0c bff7 362c ba3f
00000470: ce49 fde7 6f97 c23f e3c0 9f68 47ce c0bf
00000480: c724 9e9a 8abc ccbf c502 4f09 5677 ae3f
00000490: 0d6e 1da1 2769 bbbf cdc1 cdfb 0ebb be3f
000004a0: af9e 51ce a2db ccbf ef68 6888 53d7 b9bf
000004b0: 5e95 67ce ffca ccbf 164f 54b8 e40b d73f
000004c0: 1038 d74d 7a0a 933f 90c6 12b0 0487 bfbf
000004d0: c96a 4934 a624 d7bf 87b9 455a 79ec bfbf
000004e0: a5eb e961 5c61 7bbf ed46 08c6 955a 41bf
000004f0: 2d11 cbb1 4cd4 a53f 3384 f4d4 9e2b c5bf
00000500: fe6c 1f01 654d 9c3f 7c79 4afc 40d6 d5bf
00000510: 0029 c540 7a7f b43f 351c 687d 8dbd c23f
00000520: 4bd3 7c6a 6e66 9cbf 2083 e571 e503 cdbf
00000530: e332 749e 1ffb b23f df57 674e 2c48 a83f
00000540: ddc1 f1eb 1eb7 e0bf aec8 5f5f 9d4f b8bf
00000550: cce7 b312 e1d6 d73f f69f a537 e8bd e3bf
00000560: 05ce 09ad 7855 903f f3fb fef6 cc5b b2bf
00000570: 1897 4376 9007 c03f 352d c368 1525 d4bf
00000580: 5366 4bc7 5d50 a33f e16d 6228 2c4f c6bf
00000590: 2437 93fb dcbb 8c3f d646 a901 a6d5 b3bf
000005a0: ea19 07c9 0f58 dbbf 6ae7 82f7 77c6 a9bf
000005b0: 7a71 e89e 2b44 9a3f 9250 9026 58a0 ad3f
000005c0: 4af9 175e efdc b3bf a05e c939 5014 d4bf
000005d0: 0a45 f097 e61d b23f e063 a368 b562 d4bf
000005e0: 91c3 bfab 26d5 c4bf ca26 e149 7150 dabf
000005f0: 0ab8 1cae b331 c9bf d276 691f 5059 d1bf
00000600: 70dd 411c 36ab b1bf 31ee f6be 7430 d2bf
00000610: ba0b 37b4 330c 8dbf 8c29 709d f701 c23f
00000620: 70e3 b5c1 afc7 d0bf bd8b 5c12 e36b ce3f
00000630: 4181 4645 2beb c3bf a328 26d9 0907 ccbf
00000640: 6866 fd77 eaea d4bf 7398 e264 a88d bcbf
00000650: 6d08 33c7 8ba1 d3bf 7402 bb37 519d d7bf
00000660: c97f 7aee 2e57 ccbf 5d22 019a 93f3 d0bf
00000670: 712b ff43 4d67 c7bf 8907 1bba 263f a13f
00000680: e468 d9e6 41ab c53f ce40 6084 9e3f d3bf
00000690: 8bb9 5301 9dad d5bf d8ab 60b6 0965 b13f
000006a0: d933 a37e 7a3c b43f 215f 3612 533f d33f
000006b0: 22c2 c10d 923b c3bf 1dc8 0e48 1404 c63f
000006c0: b50e fa10 5669 c7bf 771f 7d44 a193 52bf
000006d0: 55f0 d002 00c6 de3f 56e0 80a9 8cc6 c83f
000006e0: bf11 a677 3bb7 dcbf a6e2 cc55 1dd7 d2bf
000006f0: a578 a31c 7009 a3bf 1a11 84f7 d0a0 d33f
00000700: 8bc6 72bf fbc6 b93f ac4a 1a26 be71 b4bf
00000710: a217 c17c 38bc a0bf e45e c34a 8f61 c73f
00000720: 6224 5e1c 6197 cbbf c09e a91e 9a8d 91bf
00000730: f933 4d54 4fe1 9a3f a598 b11e d49c c23f
00000740: a983 41fb d9fa c4bf bcac babe 37f0 da3f
00000750: 2e1a 9c74 4a11 983f 6631 7c2a 3067 c4bf
00000760: 526c 5782 6bfb ccbf f526 0e0a a509 d2bf
00000770: 7214 965b 5f87 d6bf 302c 816f 4d61 b1bf
00000780: b0ff 3185 38a8 d9bf f0fc 832f 8810 c6bf
00000790: f06a 9608 e856 b5bf 5c39 b424 c0fe d1bf
000007a0: f02a 5008 e928 a13f 4cc2 477e b0d8 c7bf
000007b0: 3bb7 007e 3d79 e03f b9f0 1896 8dab 813f
000007c0: 7c3b 43d6 28a7 d6bf c46b 9fe2 1f8f dfbf
000007d0: f1a0 555a f546 b9bf 898d 7c84 96c6 c93f
000007e0: b410 66bf de96 b43f 2797 219c ec05 a23f
000007f0: 7d45 5023 bc72 b93f 9c57 ed7e 9220 c1bf

nn.3.linear.bias f8 [32]
-0.004582512344315668 0.061099892977828696 -0.03307864308421286 -0.019618295476238026 0.011021173767644055 0.0097486066444803 -0.060177134647084476 0.01978618028657981
-0.0028070481016269867 0.003309699576587203 0.009999999951490727 -0.047954799590621267 0.0021575151954970344 -0.005197461741351629 0.011483567779253124 -0.02641688811143981
0.011134051140551457 -0.004211651741764361 -0.065889869075009 0.017363646723569066 0.018101522266198083 -0.006851794274941964 -0.024638155112091303 0.05567400130895036
-0.023410414670526958 0.009999999951490023 0.03396848136356564 0.013676996603360983 0.0075435917679465775 -0.0009994894863298357 0.0032383941055743773 -0.031269187246891414
00000000: be08 70ca 1cc5 72bf d0fb 4134 7c48 af3f
00000010: d549 7c14 afef a0bf 7713 e585 d116 94bf
00000020: a01d 2ae7 4492 863f 83c3 c1d5 13f7 833f
00000030: 3a6c 8d92 89cf aebf 9277 f914 d442 943f
00000040: b6e4 6e79 cefe 66bf d5e4 1c6e f11c 6b3f
00000050: 4f63 0346 e17a 843f 981c db0f 888d a8bf
00000060: 41ad 9126 a3ac 613f 9b97 3803 ef49 75bf
00000070: 1a24 6d60 b284 873f 1bbe 005a 070d 9bbf
00000080: cb4f 2a0c 73cd 863f 4768 e3a7 3c40 71bf
00000090: 559c d090 28de b0bf a5a2 449b c6c7 913f
000000a0: 1b86 9098 3489 923f edd7 4685 a010 7cbf
000000b0: b8c5 c299 be3a 99bf ab03 b87d 4d81 ac3f
000000c0: 8035 9555 e6f8 97bf b961 0346 e17a 843f
000000d0: fb43 1a19 5164 a13f 0896 f368 af02 8c3f
000000e0: 59d7 007f 07e6 7e3f 1bcf 03aa 2960 50bf
000000f0: 27cf cc98 6787 6a3f ce1f 32d1 8302 a0bf
