nn_14/models_3_1/000.pth (torch, 173698 bytes, 28 tensors)

nn.0.linear.weight f8 [16, 8]
00000000: 0eab 5cc7 2efd c8bf 566d 5fb3 88c0 c23f
00000010: 99d9 59fc 8ce3 d3bf 2ccd a349 d365 c7bf
00000020: 8de3 0774 13a6 d2bf d981 db00 8c6b a4bf
00000030: 0e6d 6fc7 4815 9bbf d86c c3b7 3f67 c63f
00000040: 814b 9390 7cdc ae3f faeb 1939 f5d9 e0bf
00000050: ed49 dcf3 b3d7 c6bf 77fe d030 f17c d63f
00000060: bb28 53b2 bf9a 6fbf 3092 a689 4330 b7bf
00000070: 57a2 1533 491f cdbf f8ac 8fb8 596f a03f
00000080: f011 5c6e 3a57 b13f cc7c da9b fc90 d43f
00000090: df48 9400 b5df cdbf f2a5 5542 e104 c93f
000000a0: 694b 2336 ff01 d9bf f4ae 1be2 cac5 92bf
000000b0: e5b5 e1a0 b433 a13f fa3e d402 608c cfbf
000000c0: cd5b 69c9 75b5 d4bf 7f41 a811 a4c9 bebf
000000d0: 3627 d298 d402 d1bf cc88 3737 98be d9bf
000000e0: 55c3 c04d 1492 d63f 6c75 4504 8b1a ce3f
000000f0: 4edf e38a d666 bf3f 4724 62ab 7b09 debf
00000100: 94ad bf31 421b bebf 8213 8cde 41fd 9c3f
00000110: 84a9 0b9d 076a ab3f 1eee cbf5 c95f d23f
00000120: 7f8b d8a7 fe8f d0bf 1629 c8c4 6964 92bf
00000130: cbf0 e4de a3eb e4bf d3a3 a7a1 7c87 c7bf
00000140: 5e16 ca99 a395 a63f a78b b7fa 5c78 d4bf
00000150: aeb4 f570 35d5 9bbf b602 2e22 d4cb c3bf
00000160: 1a15 f4e3 3e59 d33f 4ae8 9467 6eec d8bf
00000170: ec32 ba62 046f c13f 7ccf f80c 5708 9fbf
00000180: ce0c 1be7 d4b0 d6bf f157 5680 4b1f d4bf
00000190: 2d79 3493 c418 a13f 7e95 4d24 f2f0 ba3f
000001a0: 326f de80 62a3 ab3f 65d6 f4ed d8be d4bf
000001b0: 0dd2 1f6d 728e d3bf 0719 c2bc 3854 c8bf
000001c0: f97c d074 7e2a e1bf 0d49 b70b 1fcb c4bf
000001d0: 6ba6 dd83 08f2 bf3f 01c0 668f 7132 b93f
000001e0: 54ed 71cf 6309 d13f ded5 11e2 75dd d4bf
000001f0: 205b 35c4 cb66 d63f fa87 25fb 90ac d1bf
00000200: 78e2 2763 b0dd c0bf 4d70 751b 335d e0bf
00000210: f236 67c6 b266 d63f 2407 68f8 9c88 d43f
00000220: 4de1 145e 8d61 d6bf ceef 2ed7 4bc6 d0bf
00000230: efcd a3dc 985e b83f 5234 cca2 f087 d43f
00000240: b6b3 7056 4a08 95bf 21eb e844 b60f c83f
00000250: 09e7 e329 5997 d2bf c86c 73ce 873b b2bf
00000260: c8b8 67f9 7afd c13f 6b6c 8332 84d5 d4bf
00000270: ddc2 3771 5830 b5bf 14d9 5f88 cad4 a43f
00000280: 1f38 d0df d3f3 dfbf a467 29c9 da23 c23f
00000290: 5084 52c8 8404 d53f fa46 43fb d209 d4bf
000002a0: a0ef 8966 a3dc aebf ab08 e830 1566 e2bf
000002b0: 411a 4c1f f136 e0bf cc9c a07a 8b48 c4bf
000002c0: 23c3 d869 af47 e1bf 956d b0e3 e346 d83f
000002d0: 8b0c 2efa eebf c0bf 1115 9aea 9eb1 b0bf
000002e0: 1752 493b c8d9 94bf f282 ef97 bc28 9c3f
000002f0: 0226 75a2 8bcd dcbf 48ba 14b7 309e dfbf
00000300: d899 5aad 96a1 873f 3ea6 a092 aa65 c13f
00000310: ed22 9069 4567 a83f bfc7 124b f5a1 c7bf
00000320: 9ee4 0f40 4851 9a3f 946d 5974 3bc7 ddbf
00000330: e78a bc5b a286 d9bf 3bde f441 bd7d b0bf
00000340: 5312 9253 e86b b73f fd8e 3119 2103 db3f
00000350: f9e6 1c9e 5588 dfbf 4ab6 40e3 e4fa e13f
00000360: eb31 69f5 d059 e23f e83b eb49 04a3 d3bf
00000370: d059 e658 c182 d43f 7ee1 9098 1a0e dbbf
00000380: 1b56 ea3d dbc7 9ebf 0d03 70f0 0264 d73f
00000390: 8d48 b971 33ba a8bf aee6 6504 68e7 debf
000003a0: 11f5 97e7 1779 d83f 69e5 6d40 652e bfbf
000003b0: 7ddd a021 723d c1bf 2994 4161 129d c33f
000003c0: 4670 8871 7972 d13f 94d5 16f0 0689 a23f
000003d0: 16d8 b261 bdb7 bb3f c436 92cb d056 6a3f
000003e0: e38f 6d52 f386 c2bf 2522 4de8 35ac d8bf
000003f0: eeed e34d c476 a63f 92b0 93de d45b babf
-0.19522652372810295 0.1465006709903302 -0.3107635940899854 -0.1827949628419473 -0.29138647395262113 -0.03988301763979835 -0.026448380634843942 0.1750259063036086
0.0602759291156394 -0.5266061892756391 -0.17845773131610035 0.3513758637163628 -0.0038579696725707636 -0.09058019743549361 -0.22751727098809013 0.032099536685416596
0.06773724741294251 0.3213492891317855 -0.2333894970730119 0.1954614232920871 -0.39074688231374083 -0.018332643557115127 0.03359760726821629 -0.24647140634669268
-0.3235754458341347 -0.1202642958744544 -0.26579775737683364 -0.4022579707362979 0.35266597359718804 0.2351850291114873 0.12266293421623439 -0.4693288015046772
-0.11760343279427438 0.02830984993763109 0.05354331771907808 0.28709649089407374 -0.25878874198149754 -0.01796117080270062 -0.6537646630672723 -0.18382223027518182
0.04411040546714838 -0.3198463867576557 -0.027180514354246448 -0.1546578566449363 0.30232212315634543 -0.38943061938664825 0.1362004739825332 -0.03030525223421375
-0.35454294747269166 -0.31441009076058807 0.03339208886085241 0.10523904215150101 0.05398090193850037 -0.3241483997147497 -0.30556927353544056 -0.19007024018009863
-0.536437252190722 -0.16244876930301935 0.12478688449268709 0.09842595816621726 0.26619811304381824 -0.3260168750487916 0.3500241676423901 -0.2761576130488944
-0.13176541177360312 -0.5113769089034662 0.3500182092219425 0.3208382058947896 -0.3497041147961866 -0.262103042736041 0.09519343744960172 0.32079711816988266
-0.02053943779553765 0.187979491851217 -0.29048756686062 -0.07122086324982313 0.1405481069372796 -0.3255320065779361 -0.08276894344431747 0.04068596758581769
-0.4992570577313717 0.1417191965327308 0.32840079844215087 -0.3130996183145808 -0.06027708651251307 -0.574961276550558 -0.5067067729258455 -0.15846389281907702
-0.5400006358450792 0.379326794007022 -0.13085734573187255 -0.06521027782044465 -0.020362022989802577 0.027499148152744853 -0.45004549851418585 -0.4940301692867348
0.011538674512235156 0.1359151092486161 0.04766289628611795 -0.18463007131282258 0.02570069209102554 -0.46528517114867296 -0.3988424201835827 -0.06441862926737311
0.09149028816507014 0.42206599674521766 -0.49269619408333615 0.5618767202883614 0.5734638970548621 -0.3068247529853907 0.3204806678926646 -0.42273583315866137
-0.03005926671411006 0.3654792163870731 -0.048295600540442775 -0.4828739207219809 0.3823909532219015 -0.12180168936710846 -0.13468767778406834 0.15323095082126884
0.27261196219638284 0.03620168381477665 0.10827239642353023 0.0032152250319715543 -0.14474336170962862 -0.3855108994071393 0.043874868877505566 -0.1029637378121058

nn.0.linear.bias f8 [16]
00000000: bb83 70bd 6516 a8bf 28ba e43e ea0a babf
00000010: 2bf4 c905 6b72 c5bf 1cb3 ddf9 b34d 923f
00000020: 849d 2d62 c31b c8bf d6e7 a04f 8143 c5bf
00000030: 0e03 fc2e 5275 d9bf 9f3c f72b 3306 d9bf
00000040: ef1b c1f9 0c0a b73f 706e 14ba f935 b8bf
00000050: fd5d 4981 da90 c7bf 6dac a4d9 80b5 cbbf
00000060: e5ac 285c a45d aebf a279 9f2b 88c5 b23f
00000070: b2f9 7d43 e4ae c6bf 8e74 6c7c 0c0c d6bf
-0.047045878767910186 -0.1017290500210285 -0.16755426199589016 0.017874538541423055 -0.1883472661386173 -0.16612259281265435 -0.39778570736238883 -0.39100341123134713
0.08999711129682429 -0.09457360070194354 -0.1841080790788822 -0.21647654177772627 -0.059308182000984457 0.07332659783376141 -0.1772122697402217 -0.3444853987765065

nn.1.linear.weight f8 [16, 16]
00000000: ac7d 026f 5482 d8bf c2b5 696e c097 cdbf
00000010: 4bc6 e96a 1fba cbbf 2599 869f d125 d9bf
00000020: 41a0 bfde 6918 d5bf c6be 818a a51f d5bf
00000030: c44e 1548 d08c c0bf 0059 3857 7fa2 d1bf
00000040: b64b f238 2371 d0bf 90fc e45c ec4c d0bf
00000050: 8916 76ed 4933 e3bf 7f85 be82 c17c e0bf
00000060: c123 9f90 5fdd c8bf 9b05 af93 6900 eebf
00000070: 23c9 1943 cdc5 d3bf 5e8c b0d9 349f e1bf
00000080: 93c7 cf22 b5a3 cabf ad96 634f eee0 d9bf
00000090: 4a77 eccf 896c c0bf 49fa 438b b617 debf
000000a0: 7f1b 2bef 6543 c23f 5282 860d 3e20 dcbf
000000b0: 281f 0bdc 7698 cabf 7be4 2340 dfa1 b8bf
000000c0: 902d bffc f64c d7bf 82fa 8951 2f87 d1bf
000000d0: 02bf 2526 f59d b33f 3801 8f4c 92c4 d4bf
000000e0: 4c78 a2f9 31db e0bf d08d 9080 09c3 e5bf
000000f0: 59e5 4eb0 4f41 c9bf 9d4d bc69 ab5e e0bf
00000100: ea75 01f7 fc1d d0bf f205 4b78 43ce a9bf
00000110: 46fa 4ed3 7994 dcbf 0b6d 757b 6ce5 c2bf
00000120: 1d66 2f57 cd00 e9bf 5c34 51da ab82 d1bf
00000130: 1ada 7cad 65b8 d8bf cdd0 98d7 ce3f cebf
00000140: 98c3 70fc 0906 ce3f 1b32 6925 c1d7 e1bf
00000150: ed0f 030d 1eda a33f 0578 99e9 fe30 a83f
00000160: e864 005f 463f e1bf b702 1284 5cc0 d8bf
00000170: 112b a162 2499 903f 2622 fe48 6652 d4bf
00000180: dd58 1d52 2bf5 b93f 0479 9d41 5646 e93f
00000190: fe81 7d20 0752 d33f ab0e 0a6e 6c16 c33f
000001a0: 0c58 0672 8815 d73f e201 71bb 6358 a9bf
000001b0: 421a 281f 57af d13f 1b25 3bfe 4375 babf
000001c0: 5166 0515 fc90 db3f 9306 6336 82aa bf3f
000001d0: 91bc ee98 9c3e d6bf 8251 f423 3fc4 e13f
000001e0: 4c89 4097 c0d5 513f 6109 dafd edb4 be3f
000001f0: 9b25 b068 b009 c7bf db67 d50f a9fe a23f
00000200: 1d97 f5e1 95e0 d0bf 0269 d0af d0df dabf
00000210: 9f5d e4df d34a cdbf cdf0 da52 de43 c73f
00000220: b62a 1c63 1839 adbf 74fd 869d ce9f bd3f
00000230: 0278 2be3 2b72 afbf a05e 4ad0 0e90 d43f
00000240: b29d 7d39 9764 dc3f f6ec fe24 9b82 b2bf
00000250: a822 8d3b 22d9 c0bf 92ed 0974 88da dabf
00000260: 1ed2 4291 b616 c5bf da77 81c8 a50a a1bf
00000270: c7cc 9b6f 9bf7 e7bf 7acb ccac 8c73 cfbf
00000280: a098 6c2a 473e d1bf e784 fc0b 38df bcbf
00000290: 3110 9ed4 7cbf d4bf 2a52 ed98 12c5 d4bf
000002a0: 52ac 77ba e65f cebf 8d7c c91e 14ef cabf
000002b0: 29eb 4152 8a9a 863f 7924 78ac ca79 c2bf
000002c0: 86b8 260f a5a1 d5bf 9400 53e6 5711 c2bf
000002d0: 8b58 1341 8927 b13f 6461 7741 6f85 c6bf
000002e0: b93f 0122 9fb8 c6bf 8c7e 6f89 6136 e1bf
000002f0: 3894 aa4c 2ce0 80bf b90d 13da 9836 d1bf
00000300: 24be 506f 61bb d2bf d8ac 17f6 3f07 ccbf
00000310: 0862 e754 cd30 dbbf b861 cfa8 78f6 b7bf
00000320: b873 031a 7ec5 ccbf 41d8 c256 6d21 d7bf
00000330: a0af d4de 2a09 cfbf 95c6 3175 6ba4 d8bf
00000340: 20d5 5182 0994 d63f fbcb aa60 b3f5 763f
00000350: d253 3745 6699 e63f cc3d 076d 8da1 db3f
00000360: bcd6 8994 c184 d0bf 2423 51b2 0545 b23f
00000370: cd5c aa91 12d4 b6bf 3a6f 2c82 121c 7fbf
00000380: a30b 1dae 9eec c5bf 2e71 2966 d1d6 d0bf
00000390: 92c8 f15f 0322 c43f df49 43c7 53ad e13f
000003a0: e46d f5aa ef3d d3bf 1e13 45d8 993c bf3f
000003b0: 8f32 d8ed de87 cf3f 3acd e5bf fb49 bf3f
000003c0: a8ca c210 df92 dbbf 1e14 fb7b c0df d03f
000003d0: 5627 44dc 64e6 d0bf 6e64 19ff e4e5 d0bf
000003e0: 4a5d 1faa 3345 c0bf 9895 c370 c053 ce3f
000003f0: 66fe cd11 66e7 b7bf 2031 93ff 75cf e2bf
00000400: cade b651 ced4 c0bf 8abf c237 ab9b e9bf
00000410: 664d abcb 960a d9bf 8686 99aa 5ea0 d2bf
00000420: 95c3 255f 1b2a cfbf fb09 4256 1c37 d6bf
00000430: 6790 0eb2 6216 aa3f fd03 150f 9c0e aebf
00000440: aa5b cb39 dc5f e23f ff70 ee9d affe d8bf
00000450: f6eb 7fbc dc3a d73f 3ae1 7ef8 4bd9 dabf
00000460: a719 0439 9916 dfbf cf95 7c0b 3142 c03f
00000470: fd05 a4fe 45ef e7bf a4ae 171d bf0b a03f
00000480: cdae 666a 21af d1bf df28 e0f5 f95d aebf
00000490: 2e3d c9b4 4eb0 d1bf 929a fdb9 3acf d0bf
000004a0: a288 fe0d b9ca 8d3f c5b0 31eb 866e b5bf
000004b0: 0128 77bb 293a e5bf 6d42 9677 833d bbbf
000004c0: 042d 1780 4e71 c1bf 2afd be6e 1a84 d5bf
000004d0: 60ef b375 8d92 d6bf 8645 aa38 1e81 dcbf
000004e0: 5ff2 0c1e f3e8 d5bf 1d2d f138 6f74 d3bf
000004f0: 8540 05e5 16ce bf3f ed7f 631a 6550 cfbf
00000500: 77f1 62a3 8c79 e3bf b2cd 14fa 0505 ddbf
00000510: cfbe e204 bf70 ccbf 7a00 793f 5383 d7bf
00000520: 7c20 be48 f764 c9bf 63e1 1481 9eef c9bf
00000530: b4c7 91c2 3669 d7bf e935 0581 831a c03f
00000540: 5445 8174 2166 c63f c1bc edf6 646b e3bf
00000550: cb24 9225 3b91 d0bf 8fc7 9cb2 1271 c4bf
00000560: d88e 0829 1641 d2bf e0de 0d5f d5c7 d1bf
00000570: c521 99ed 14f0 dfbf a437 b2c3 1977 dbbf
00000580: fd37 3014 0aa0 e6bf efc9 bdc9 9fd7 e6bf
00000590: 4528 bcb0 35aa d9bf bae3 1a5d e6f5 ca3f
000005a0: 3474 1b6d 48d0 bebf edcd 5cd3 fd2b c33f
000005b0: 7ba2 289f a63b c43f e24e 11e8 1e7d ba3f
000005c0: 3bfd 38e5 ad81 9b3f 907a 775f ea04 acbf
000005d0: 7abd 0279 9ca7 a7bf 9b29 bc57 f184 c0bf
000005e0: 6993 160b a497 cdbf 1873 5b4c b326 e1bf
000005f0: c053 00f5 b076 dabf 60d4 c7be 4ff5 c0bf
00000600: d704 a754 01fe a1bf 4005 1f84 673e b0bf
00000610: a7bf bb62 6683 b83f aaa2 a59a f550 e6bf
00000620: a1cf e408 446a a53f a585 3e6c d59c ca3f
00000630: 923a b9c0 d44e bdbf e592 852a c916 cdbf
00000640: 084a 3a47 1d44 ebbf adc7 1551 8593 cebf
00000650: 7dbf 80d3 7b61 d9bf 838a ef6e 73d2 c53f
00000660: 0aee fbcf 0845 a4bf e090 bee8 c2f0 cabf
00000670: 48fd 13f7 d41a b4bf 2a9e f15d ca47 b23f
00000680: 877f 4d6f d8dd d8bf 2ab0 2a10 695e d8bf
00000690: 76d8 fa87 dde7 d2bf 9ec1 8dbc f838 d5bf
000006a0: f89c e5a3 83aa f0bf ebc7 8918 ffdd e6bf
000006b0: 3b54 e2cb 1b17 e4bf d9db 8752 bea9 cfbf
000006c0: c71c ad05 3475 cebf 844d 2cf5 53d5 ecbf
000006d0: 612c ef38 0b86 c8bf e923 f80b 9c98 d0bf
000006e0: 4cd8 82a8 200c edbf 12d0 71e8 65dc e0bf
000006f0: 05ea 732e efce c43f 394c 9c09 6535 7c3f
00000700: f544 d14b 0c48 8d3f a68a 435f 709a babf
00000710: 5b42 07c5 6b5e bf3f 7363 f57d 57d3 cabf
00000720: 1270 1289 0176 e1bf b68f 885c 0e62 dabf
00000730: f619 400a d1df c3bf e298 953a 3b14 cbbf
00000740: a19b 7f4c d9ed cfbf 8be5 640e 65de e4bf
00000750: 8ff5 d3a6 b70b b1bf e1ef f0d7 9326 b4bf
00000760: adb7 9189 7eb5 733f db07 2d05 5495 b2bf
00000770: 5cae bab5 0a71 d4bf 5062 ac2c 3ce5 e0bf
00000780: e210 7dac 21fb e5bf 197d c713 1a6f e4bf
00000790: b30d 7e40 35c5 e4bf 011b 87e3 1a24 ddbf
000007a0: 5349 edb3 bf18 d7bf 0484 24df d0a7 dabf
000007b0: 5ca0 a6c8 899a d2bf 0cc3 bf3b 6da5 debf
000007c0: 09b3 736a cea7 c7bf 563e e956 2297 c0bf
000007d0: 940d 9704 0f9c e2bf 10ac a640 c0ef cbbf
000007e0: 8e6a 69e9 075f d5bf a5e3 ea08 4c18 d0bf
000007f0: 5e5c b42d 5884 e7bf decb 327d 3b0e cf3f
-0.3829547008590122 -0.2311935938954957 -0.21661751480455602 -0.39293327883423707 -0.3296150851515485 -0.3300565579038274 -0.1292972900360977 -0.27554305570210147
-0.2569053703420495 -0.25469502517439313 -0.6000108373561527 -0.5152289918516287 -0.19425577699283106 -0.9375503429839002 -0.3089478640823861 -0.550684380698282
-0.20812095832621633 -0.4043536925586107 -0.12831232693218403 -0.4701973304762857 0.1426818292440792 -0.4394679195484389 -0.20777784103688046 -0.09621997180865265
-0.3640725582342492 -0.27387602770605934 0.07662899190267683 -0.3244977710383128 -0.5267572284390183 -0.6800582419422714 -0.19730564221189686 -0.5115563454768793
-0.25183033105517316 -0.05040179103299271 -0.4465622485694535 -0.14762645748383138 -0.7813479140124319 -0.273600543213268 -0.38625471059950345 -0.23632226493066924
0.23455929590411695 -0.5575872164423034 0.03877347859227585 0.047248807921946 -0.5389739852427313 -0.3867408075093794 0.016209190864439785 -0.3175292694873256
0.10139723543884167 0.789836052088305 0.30188158200147075 0.1491218125630572 0.3606892694018604 -0.04950248396972136 0.27632692377702395 -0.10335183102428795
0.43072416355935156 0.12369550540736389 -0.34757151541538983 0.5552058889611973 0.001088560177784875 0.11994826743651778 -0.17998318778726916 0.03709915464669652
-0.2637076098093177 -0.4199105946478455 -0.2288460581992071 0.18175868077913152 -0.05707622728194421 0.11571971269494502 -0.06141793392247054 0.3212925943457581
0.4436395703728194 -0.07230538991182187 -0.13162639529970943 -0.41958819705879435 -0.16475565045188117 -0.03328435967044614 -0.7489754848342266 -0.24571379125117315
-0.269426146917235 -0.11278105061184683 -0.32418747676297516 -0.32452835974007377 -0.23730167488915527 -0.2104210996940065 0.011036949763583674 -0.14434178754189356
-0.3379910133325058 -0.14115427728939223 0.06700952376135853 -0.17594710060690055 -0.1775092044867941 -0.5378883060729591 -0.008240076150579964 -0.2689573411591613
-0.292686804491469 -0.21897124782785826 -0.4248536423815783 -0.09360460397090875 -0.22477699537458107 -0.36141522858395453 -0.24246726875696556 -0.3850353855587881
0.3527854702618516 0.005605412191175492 0.706225524127712 0.431735378716408 -0.2581027937479623 0.07136569598618486 -0.08917347008024308 -0.007595131205359535
-0.1712835645831464 -0.26311144806620035 0.15728799996174253 0.5524081127026043 -0.3006552857893594 0.12201844720864272 0.24633394826414132 0.12222264704705746
-0.43083931576544865 0.26365673167703274 -0.26406213293431813 -0.26403164779691835 -0.12711187178386246 0.2369308996777988 -0.09337461409267575 -0.5878248206804848
-0.13149432172735082 -0.8002525414540156 -0.39127130403104216 -0.2910381952297957 -0.24347250123858247 -0.3471136896479547 0.05095203803583175 -0.05870521244151659
0.5742016915127028 -0.3905448000239317 0.3629676667039229 -0.4195127417292671 -0.48575430458040575 0.1270200067603313 -0.7479581807567112 0.031339618970233546
-0.27631411925061117 -0.05931073309337064 -0.2763859525193365 -0.2626482788386194 0.014546819438525486 -0.08371775857966941 -0.6633499776301052 -0.10640737218478487
-0.13627034429951135 -0.3361879426483535 -0.3526948594514945 -0.4453807404871316 -0.34234311995149896 -0.30398159561873844 0.12423842517205415 -0.24464095867642702
-0.6085875693457145 -0.45343160078047184 -0.22219073999939673 -0.36739045332433984 -0.19839373638047053 -0.20262509634791134 -0.36579674721644584 0.12580913352796522
0.17499178112715674 -0.6068596670937937 -0.25886419934302 -0.15970071526822635 -0.28522256858034956 -0.2778218677772042 -0.49902842715212287 -0.4291443263144805
-0.7070360559753223 -0.7138213100682246 -0.4010137773444778 0.21062926813263322 -0.12036564506293318 0.14978001423297319 0.15807039996549918 0.10347169080460675
0.02686187469066435 -0.054725002435351944 -0.046200647136511244 -0.12905709060607937 -0.23119020978370067 -0.535974167952733 -0.4134943382826428 -0.132486313013632
-0.035141030868098326 -0.06345221496214482 0.09575500402911406 -0.6973827381562689 0.04182636841360866 0.2079111841713203 -0.11448411660351557 -0.2272578675866931
-0.8520647421995031 -0.23887697657806709 -0.39657493261892524 0.1704849521330126 -0.0395891908537714 -0.2104724537322289 -0.0785344222276666 0.07140793603468212
-0.38854037160307836 -0.3807623536947654 -0.2954019382408498 -0.3316022721619677 -1.041629448149079 -0.7145991782438136 -0.6278208715544972 -0.2473676588994909
-0.23795175816687772 -0.9010410107170377 -0.19159069328302095 -0.2593145481956172 -0.9077304164154696 -0.5269040622647501 0.16256513374521844 0.006886858632941411
0.01429757696510812 -0.10391905141617971 0.12253449974310497 -0.20957463884658586 -0.5456550290286961 -0.41223486935109166 -0.15526783943660377 -0.21155491219105388
-0.24944607005383282 -0.6521477967391304 -0.06658504317234402 -0.07871364614487632 0.004811758314742604 -0.07259106756558202 -0.3193995260905689 -0.5279827950026377
-0.6869057053486609 -0.6385622392953422 -0.6490732440583343 -0.45532867640979197 -0.36088554926859223 -0.41649266997598056 -0.29068226427853516 -0.4788468440520297
-0.18480854223107482 -0.1296122478838579 -0.5815501298570092 -0.21825411946096596 -0.3339252261554656 -0.2514829718671144 -0.7349053280512512 0.24262183774189244

nn.1.linear.bias f8 [16]
00000000: 5fb7 11fb 2533 d3bf 4b3e a342 ed78 d8bf
00000010: 48de ad94 2a25 d5bf 9a2f ac76 466a c73f
00000020: baa6 c76e 2997 cdbf 20e4 995e 00c5 c4bf
00000030: 76fc 450e 31e7 c4bf c95b 702f 6504 bcbf
00000040: fe25 bb0f 87da d4bf 2e3a eb51 f37e d1bf
00000050: 041c cc95 a5cc d3bf 38f9 692f 07f4 d2bf
00000060: fd4a a254 9aa6 a9bf 0859 0992 d1ff d6bf
00000070: c914 fa01 3fa2 cdbf 71ea 5ed7 c390 d5bf
-0.2999968482825945 -0.3823807860144128 -0.33039345282984245 0.18293076319275486 -0.23117559346365174 -0.1622620069427123 -0.16330540844862512 -0.10944206627060206
-0.32583786522135927 -0.273373441695102 -0.3093656504501612 -0.2961442912127441 -0.050099203902524515 -0.35936393033388514 -0.23151385876204802 -0.33696075470257997

nn.2.linear.weight f8 [32, 16]
00000000: 773f a674 3b14 c93f a203 6053 72af c9bf
00000010: 25b3 f516 b69c d0bf 229d 9033 9f58 e3bf
00000020: 92b6 e697 c363 a1bf 2272 3c7e edec 733f
00000030: 5793 8898 02ca d3bf bd3d db8e c7e8 e2bf
00000040: 8b02 ac3d acd1 d6bf 87a7 3fd9 ebf4 dbbf
00000050: 690f 5738 56cf b33f b32f 9345 8877 ccbf
00000060: 7ddd 841a b56f e4bf 925a a9a1 6e19 c9bf
00000070: 7075 1640 4011 d1bf 76b2 fb12 3e63 dbbf
00000080: 0167 4290 e6db 87bf 47e8 2fee 16ef c8bf
00000090: 2215 1a6a 1bbb e0bf 6675 5ac4 3f65 b73f
000000a0: e1ba 1050 3ca5 cdbf ef38 f700 b078 bb3f
000000b0: 5686 406c 5413 d1bf a006 980f 6c7d d1bf
000000c0: 7693 1df5 1b58 92bf 8c9f 8ee6 bbe1 9cbf
000000d0: 2cf9 728d 51f0 e0bf dc71 5e85 15af dcbf
000000e0: 5cd0 e049 a9a2 b0bf af6e a432 d86a c0bf
000000f0: 59b8 fad0 760a d1bf 5478 1c4b 65be b0bf
00000100: c080 0441 2d5c 95bf 694e 931c 5109 c3bf
00000110: 36de bc42 45c7 72bf ebb3 1df5 ee49 dcbf
00000120: 9f88 f5a7 c879 d43f 0c01 a76d ccdb c2bf
00000130: ef1e 6a14 6e3f c9bf fd91 e9d5 512b b33f
00000140: 6cfc 49d2 368e ae3f eb6f 20c8 628e e2bf
00000150: 61d6 af06 bc61 c3bf 1ed1 5019 0586 ce3f
00000160: 1f1c 5cf4 f9a8 d4bf 8f26 4f0e cb22 e0bf
00000170: 68d1 894f 2d31 e6bf 9d5e 21c2 7baa b0bf
00000180: 24d9 656f e12c 8e3f 95f5 7727 a76c 93bf
00000190: 5f7b 16b6 6bd3 b2bf 2e5e 5359 1c44 e2bf
000001a0: 644f 387d 5487 cfbf dae4 40fa 040c dfbf
000001b0: 07af cadf ae79 dabf 1893 d2c8 5a12 d6bf
000001c0: ba8d 482a 67a7 ae3f e5d1 5960 8a52 dcbf
000001d0: 8d08 6586 56c7 d1bf 1645 4848 2d17 d0bf
000001e0: f0c9 8840 1f5f d8bf cbf9 a1d5 7faf 8d3f
000001f0: eeff c160 800e c5bf 0f15 6447 6578 a3bf
00000200: 2e34 8ba5 a6be ba3f 6ea5 fc6d 163e b63f
00000210: 1014 8954 6347 c53f a3a2 fc8f c05c e1bf
00000220: 8c75 d22f 3eb4 893f 786c 8131 b2d2 d1bf
00000230: 5602 c0c0 3a21 d0bf c882 78e1 b6db c1bf
00000240: b1c1 365c 352b cebf d2d8 3541 d7b5 bfbf
00000250: 170d 4fcd 1d28 d03f dd67 7375 3fa5 d7bf
00000260: 8cb7 1fb1 d4d3 bb3f 85c6 a3c6 4cbf 80bf
00000270: 3c90 264d ac70 da3f 1e13 6587 9a94 d0bf
00000280: 669b 6911 a7d5 cabf cd37 7097 b55f 98bf
00000290: ec74 6de3 6878 c13f aba0 51cb adf7 cdbf
000002a0: fd22 75b8 df38 d1bf 5613 1cae 03d2 e4bf
000002b0: a9b2 ab5e 264a c0bf 6970 5519 2612 d6bf
000002c0: a93c c1b2 79d6 d4bf 6009 2614 85f2 db3f
000002d0: be60 c357 ded5 be3f 0f3b e508 01b7 963f
000002e0: 5b43 0a60 bd68 a03f 1800 dd41 d839 d13f
000002f0: abd6 ca0a de03 c13f 8709 939e d868 ba3f
00000300: a07a 6f5b ad04 d53f ce32 476f a6a8 b03f
00000310: 29f6 04db 8939 c33f 0c31 2526 2826 c3bf
00000320: 4dfa 88e4 5248 c63f 8ea7 7be7 e2f6 d1bf
00000330: e81d 1a47 1ae6 d13f e32d d5d0 55a8 c1bf
00000340: 934a d6a7 ad5e bb3f 7ce4 538a 6385 c8bf
00000350: 7058 13ec d427 d83f dad2 95d8 3b91 e03f
00000360: 52a6 1d50 4a70 babf b42c e229 397c e63f
00000370: 6c97 eb6d 6eba 663f d15b 321f 70c9 d93f
00000380: dda0 02c5 b34f b23f 6e66 5f50 d7ec ccbf
00000390: 32ac 44a3 fa9e e7bf 1952 f798 0f88 e8bf
000003a0: c405 198e 05f9 ccbf 505e aab0 562e bbbf
000003b0: 5278 3f8d c47d e2bf b31e 2d41 8f88 8ebf
000003c0: 8e1b 5f55 77d7 d5bf 158c 29a1 ca58 e1bf
000003d0: 2d71 94c8 f7d2 cbbf b48a 89ad 562b e0bf
000003e0: 007d f6d3 3b91 c1bf 6dc5 c953 5b45 ddbf
000003f0: b401 d234 0afe d0bf cac3 ccee 61e2 debf
00000400: 2687 aed6 d4d0 ba3f 2a10 829b 3a4b b23f
00000410: a07a 0c91 fe2c cdbf 8058 fdde 6fd0 dbbf
00000420: 4242 342a d3ad c03f 357e f2b9 ea4e e2bf
00000430: f134 7f2b 88b9 a53f 3d0d 6876 f666 dbbf
00000440: 28f9 9091 bccc e0bf 6ca4 5e9a 550a dfbf
00000450: 15fd 2eb1 a15a a63f 21b2 8846 f799 dbbf
00000460: 02b7 cc86 3382 dfbf 871c aeb7 90bf d5bf
00000470: d2ea 0f5c 2295 bfbf 4e4e 1246 48a4 d3bf
00000480: e1c7 4303 a9cd a43f a15b b793 d246 c9bf
00000490: d6bc b929 f142 e0bf a66e e22d b4ad c4bf
000004a0: 3396 55bf 9137 d5bf e50b 5df9 a0e4 a2bf
000004b0: 1ed1 b0c7 56ca d3bf 4c91 bc29 9c82 bc3f
000004c0: 7f27 3a3b eca1 dabf e903 8fdf b342 dabf
000004d0: dd86 da92 e257 723f 4fc9 de46 4467 d1bf
000004e0: 021d 1e78 59d6 d0bf 1817 0a1e 7d65 ccbf
000004f0: f323 e1a6 48d4 cabf f306 1dd6 47f0 d1bf
00000500: f44e be9c 16cc c6bf 014e 4ecc 4a97 cd3f
00000510: f179 0305 2d20 e13f f5ba 5e5a 95aa cb3f
00000520: c8a5 2c45 6451 ca3f 2864 02dd 29f4 be3f
00000530: cda5 703c a6a8 d1bf bcbb 14a7 af54 d53f
00000540: 4a06 3eda 6a89 e13f 78f9 9811 a11b da3f
00000550: 5754 92a4 1ba9 5f3f 9a5f 59aa c751 c23f
00000560: 0646 4081 9ed4 ca3f be96 e73b af89 e13f
00000570: df05 7825 e5e2 e43f 6d71 80df 5f6a a9bf
00000580: b664 619e cc87 cdbf 42e3 2263 19a2 d5bf
00000590: b6a7 ba7e 675c bd3f 003b 0fa2 769b d4bf
000005a0: e119 648a c2a6 d0bf 58a9 382b 3aec e3bf
000005b0: f6f8 5db7 5392 e7bf 3c55 420e 3367 c13f
000005c0: ed0a 77bd e764 d9bf 84e0 7463 34cf 863f
000005d0: 026c c892 107b 363f ef5e c787 69a5 bdbf
000005e0: fe4c f2d6 2804 e1bf 5913 63ca 5f32 a4bf
000005f0: 570a 357b b10a a63f eaa0 2c74 0b82 ccbf
00000600: ca3c c794 63b1 d1bf f5ff 86ef 2703 cd3f
00000610: 7b5c 13b8 c040 c8bf 64f3 7237 5f4b c9bf
00000620: a4a0 75a7 a310 c3bf 77d0 6029 759b e4bf
00000630: 5918 8275 3905 dd3f 0cde 571c 5320 8f3f
00000640: 0de1 fc9f 4372 c13f dca8 5c81 f9c0 ccbf
00000650: 9795 42e7 c86c ccbf dc20 70f6 4253 cc3f
00000660: d4b7 7e4b 38ef c2bf 5395 67f6 3396 cf3f
00000670: 7f1f af6e 2408 cd3f 90b9 2e3c bbaf b8bf
00000680: 547f 55c4 9d9c 9a3f 2845 5204 75eb c9bf
00000690: 3415 2f31 48a5 c03f 2724 2373 0160 df3f
000006a0: 99cd 8c76 a836 b0bf 5dfd a7e3 29ac bf3f
000006b0: 6c89 e492 3b0d d33f 5418 68b9 180e b23f
000006c0: c104 c92a 42bf c5bf 99d0 bdb7 babe a03f
000006d0: 14dc 6a1f 7e00 bebf 5152 4506 7bc9 c03f
000006e0: 3d55 02ce d0b9 b53f 8e13 47a6 161a d83f
000006f0: b832 9cc4 1b07 a9bf 53bd 8ffc 5508 d43f
00000700: d7fd 743e 34db d43f 9870 f17f 22b6 a3bf
00000710: 3665 62ae 946d a33f a0fd 449d 7452 adbf
00000720: 3f7f 4dc6 cef7 a5bf a42d daaa 8a49 acbf
00000730: 4a92 c14f 2e66 a43f fda8 a7d5 fb99 b13f
00000740: cc36 3b38 b0f1 ad3f 3923 2c6b b4fc d5bf
00000750: b0f3 4d29 b9c4 e23f 16ca dac3 3b4a 903f
00000760: 21fc 273c 0f83 d1bf 7c3e 101f 8d3f dabf
00000770: 27cc 3251 e285 a83f c715 c601 6357 bc3f
00000780: 41d0 4f60 8e88 b83f 621a ec68 6f85 cdbf
00000790: f09a 06f4 0854 c33f 1598 e454 7f4c b8bf
000007a0: 8cf2 aff3 e865 cfbf fee0 ec78 30db cebf
000007b0: ccce 4ead 4871 d43f 3972 891b b334 d6bf
000007c0: e54a fb7a 9fc9 aebf 953f daa9 634d d7bf
000007d0: 9b5e 72b7 841f e33f b27e 9bf4 df06 903f
000007e0: 3fe3 822a 179b c4bf d188 12a5 967e d5bf
000007f0: dc3e 7f70 23f5 e13f 8ceb f3f1 c0d8 d7bf
0.195929939229696 -0.20066670485541943 -0.25956489793934373 -0.6045681006552608 -0.03396426419508915 0.004864623744449877 -0.3092047204575485 -0.590915469185283
-0.356547413088301 -0.43682380881966093 0.07738245845308502 -0.2223978366586131 -0.6386361616086301 -0.1960886277544956 -0.2666779161316617 -0.4279322801001294
-0.01164989593262389 -0.19479643469077443 -0.5228402206709328 0.09138868850501111 -0.23160509023133272 0.10731029532982793 -0.26680479594697226 -0.2732801582606985
-0.017914234958328966 -0.028204856822099653 -0.5293357622793216 -0.4481862833434016 -0.06498201421419608 -0.12826063606995805 -0.26626367958204394 -0.06540520747918893
-0.02085943898521303 -0.14872182746204324 -0.004584570455157746 -0.4420125383101651 0.3199330940461866 -0.14733271936530234 -0.197248229949984 0.07487975571127232
0.05967875782970897 -0.5798810871815453 -0.15142011953837467 0.23846496330373496 -0.32281350005399817 -0.5042472152210439 -0.6935030511363438 -0.0651013707114267
0.014734040462582039 -0.018969165595981236 -0.0735385245848028 -0.5708142990724292 -0.2463174449372857 -0.4851086086160429 -0.4136769471613068 -0.34487027751519994
0.059870933448361766 -0.4425378743101461 -0.2777916252563351 -0.2514146047479512 -0.38080579092198175 0.014494894702008395 -0.16450504993917953 -0.03802792068931115
0.10447160283656906 0.0868848818323806 0.16624108913143276 -0.5425722896807951 0.012550817331709728 -0.27848486742522693 -0.25202816794629734 -0.13951765069307087
-0.2356936168921613 -0.12386842100190457 0.2524485115975081 -0.3694609305363182 0.10870103191675023 -0.008177375614170099 0.4131270173477366 -0.25907004568243674
-0.20964516020031992 -0.023802602165282672 0.13648711304532612 -0.23412105968168836 -0.2690963078826341 -0.650636520441007 -0.12726287481873058 -0.34485771631239587
-0.3255905385639815 0.4366772362483484 0.1204508747354138 0.022182480018552882 0.03204910085071929 0.26915556365929794 0.1329305222222293 0.10316232558674275
0.3284104721950971 0.06507339684248878 0.1501934356146404 -0.14960195410311206 0.17408214720667772 -0.2806937466217442 0.2796693510394719 -0.13794968315993036
0.10691342685303544 -0.19157070402414778 0.3774311356950255 0.5177287321262967 -0.1032759137721311 0.7026639764821057 0.0027744442771674895 0.4029197983413129
0.07152865943737959 -0.2259778158611882 -0.7381566227753693 -0.7666089999789306 -0.22634953916899125 -0.10617582142946813 -0.5778525122402789 -0.01490890424396638
-0.3412760099130815 -0.5420888087941217 -0.2173757295030411 -0.5052903546714647 -0.1372446808790997 -0.45735819990576126 -0.26550536306606465 -0.4825672943143756
0.10474901429418235 0.07146040245612598 -0.22793562014063173 -0.43459698463755814 0.13030471382855252 -0.5721334106237409 0.04243112116783177 -0.4281593471825607
-0.5249922602741082 -0.4850057609097067 0.043660214308596824 -0.4312723339851648 -0.49232185520200755 -0.3398172181845855 -0.12336935756313075 -0.30690199702187193
0.040631562851458865 -0.19747383320529102 -0.5081716360999973 -0.16155102005437988 -0.33151668248169414 -0.0369005493544348 -0.3092247915367511 0.11136795062026755
-0.4161329821005139 -0.41032120544337986 0.0044783449681362305 -0.2719278995602012 -0.2630828545593006 -0.22184719054001145 -0.2096033873406494 -0.2802905646277473
-0.17810328153119992 0.2311795709216398 0.5351777170106385 0.21614329254722234 0.20560887696892238 0.12091313977943285 -0.27591854002329513 0.3332938319826402
0.5480245840592002 0.40793635099898706 0.0019324083280356696 0.1431207258017338 0.20961362181746795 0.5480571908962799 0.6526971561253808 -0.049639698059965244
-0.23070676549358432 -0.33801874810483323 0.11469122737858481 -0.3219887335407492 -0.26017821802852664 -0.6225863308111839 -0.7366121846569331 0.13596189686055904
-0.3967837667698138 0.011137398991749821 0.0003430285894709396 -0.11580524029647753 -0.53175775510536 -0.039446824508138696 0.043050333299579684 -0.22271865055632328
-0.27645196465614374 0.2266588134352784 -0.18947609890048853 -0.1976126690623473 -0.14894529034359494 -0.6439767654578777 0.45344387507828327 0.015198373129336161
0.136299565428779 -0.22463911835195105 -0.22206984798428372 0.22129094155412232 -0.14792541204718523 0.2467713311336107 0.22681098370071237 -0.09643144816684512
0.025988068683886326 -0.2024980803585461 0.1300440063625189 0.4902347206485182 -0.0633340157917729 0.12372075851452764 0.29768266053192494 0.07052759672669257
-0.16989924515841007 0.0327051495832233 -0.11719501750017997 0.13114869886580263 0.08486657170791019 0.376592314129362 -0.04888235831285698 0.31300878204543386
0.32587915515247573 -0.03849895297818867 0.037945410048630654 -0.05726971072953835 -0.04290624781310592 -0.05524857841109146 0.03984207843385386 0.0687558552378142
0.05848456083695694 -0.3435488745313254 0.5865140730598934 0.015908178166407515 -0.27362423777225514 -0.41012886079349875 0.04789645425025695 0.11070841592125823
0.09583368159638984 -0.23063461898000798 0.15100204387018534 -0.09491725752431564 -0.24529754542154014 -0.24106412796550808 0.31941430019945183 -0.346966530696395
-0.06013201118698478 -0.3640984686580791 0.5975974638885931 0.01565122538056469 -0.16098298621889204 -0.33585134621001794 0.561174125405127 -0.37260459545330415

nn.2.linear.bias f8 [32]
00000000: 90a2 485c e835 d6bf b3e0 e722 d13e cdbf
00000010: 1b68 3b1a 6f34 c6bf 9989 e2a4 0397 d5bf
00000020: ddb5 684b 2536 acbf a2cf e03f a351 8d3f
00000030: 4f11 6d63 5320 b0bf 23d1 12e4 cfa2 ccbf
00000040: 2940 c07e a5f6 d2bf 964f 605e 0465 d6bf
00000050: 7735 b9f9 a4dd d33f 2338 d1dd 2b34 d0bf
00000060: 2f2c 4f79 abd0 c1bf 8046 64a2 751c c03f
00000070: 2c72 eb45 5387 c0bf 90ce c591 1162 d1bf
00000080: 2a19 0f5a ec1f a43f b372 6738 7b44 d3bf
00000090: b1e1 c595 161e 9ebf 9349 a618 309e cfbf
000000a0: 0427 5e8b 5962 c6bf abf3 2d18 356d d0bf
000000b0: 4ab5 acdf a7a2 d9bf 6b5e 2a77 6cc9 acbf
000000c0: 8007 9095 8a54 d0bf 6f3f 4acd 209e ccbf
000000d0: 67e4 cd73 6310 d2bf bdc3 098e 26a0 d5bf
000000e0: 1501 60dd 742e cabf 6500 e10a 9140 d4bf
000000f0: 1415 f6ba 4538 b7bf fe36 1af4 1e81 c5bf
-0.34704026233752305 -0.22847952083953302 -0.1734751585088937 -0.33734217741052813 -0.05510059876938176 0.014315867792994489 -0.0629932515849465 -0.22371863018418833
-0.29630410554909986 -0.34991559235026537 0.3104031027513296 -0.2531842867073257 -0.13918059752754305 0.12586851529390586 -0.1291297999768103 -0.2716106341897353
0.03930605506279712 -0.30105476864063546 -0.02941165246144956 -0.24701501086799435 -0.17487639718120118 -0.25666549073485595 -0.4005527195284527 -0.05622424082428953
-0.25515999417995516 -0.22357568763663546 -0.2822502737904586 -0.3378998171893349 -0.20454273995711306 -0.3164408308257463 -0.0907023984382998 -0.1680029575258501

nn.3.linear.weight f8 [32, 32]
00000000: 0e32 bc6f 6326 63bf 7d35 a585 7269 d4bf
00000010: e491 7f7d a672 e1bf c8b5 9908 dbf5 bdbf
00000020: 233f e9b8 6fc5 e1bf a1fa 35d5 144d b9bf
00000030: b4eb 6000 8f00 d9bf 0388 8774 3ac1 b0bf
00000040: 4dfc 2c70 7e5f 99bf de4f 3536 7949 bbbf
00000050: 6483 4db5 2c83 e0bf 7d7c f57f ba94 c8bf
00000060: bdca 97bf 773b d43f d423 f2ba bc16 d3bf
00000070: 23cd 8f63 f7b5 a9bf c05f 0008 b527 cbbf
00000080: ec10 3114 a436 d1bf fdc3 767f cfed d1bf
00000090: cd11 7c6c 780d b6bf ee9b b76f 47b3 9b3f
000000a0: e5b9 b1ee b903 91bf edbc a07f fb8d d5bf
000000b0: e7fc dfdf 5c92 ccbf 860e 5038 dbbb c9bf
000000c0: 86ce 0843 0a76 bebf 5bbd 0b5c daf1 c5bf
000000d0: 23e9 4a1e 4d4b d5bf cb83 50e0 eedc ccbf
000000e0: 8980 6b27 dbb7 a3bf b28c 054a 186e d8bf
000000f0: 2e7d 43b3 2a0f d9bf f5fe 8133 2acd d4bf
00000100: c120 ff09 a49b e4bf dc1c 92c1 e260 d0bf
00000110: 2010 1aa3 b101 c0bf 1bd3 e6b4 d4fe d9bf
00000120: 2a66 90b1 f37d c83f 9e6a 722e 770a ddbf
00000130: daaa a6c1 fc17 e3bf 3fec a7ec fe25 88bf
00000140: 7879 5364 35f2 dbbf c076 f891 a7d7 cdbf
00000150: dac0 8aa1 5ef9 b6bf c020 c193 d9d1 d03f
00000160: 3764 05b6 3654 d1bf 89ca 7f8a 45b9 b2bf
00000170: 4783 1de6 b2f6 a43f 66be ff95 3d20 e0bf
00000180: c886 8eae f184 d8bf bceb 2e40 44e1 d0bf
00000190: d86f 1211 8f77 cbbf f38d e225 ee8c c33f
000001a0: 7f57 19a8 01ba b6bf 9b15 8624 3455 d7bf
000001b0: 4b1b f1dc 2b66 e2bf 6389 87de 055e c43f
000001c0: 50c4 60bc 7a82 ba3f 6bd0 d271 6ddb d0bf
000001d0: f10d d6e1 d6c4 753f 84b3 0a41 f906 d3bf
000001e0: ef52 d75d b23f c5bf e29a 0d88 cf09 c5bf
000001f0: 143d d6c3 0c0b c4bf 26de aca8 b71d d1bf
00000200: f0fd e181 ee8c 9f3f 72c9 1765 0fcd d3bf
00000210: ca5a a7be 0523 d4bf 1d4a 6db6 96d0 cc3f
00000220: 9c5e 9469 65fe c73f 5b06 162b 7e02 b8bf
00000230: 262d 3ea0 b5f2 debf e08c 2371 4d3c 8c3f
00000240: f176 e5e4 663a 81bf c649 694b 3e14 b23f
00000250: 2120 59bc 6b24 c2bf 048b 62f8 1a04 b1bf
00000260: 7044 a719 7f39 db3f 5c06 e7ef 1c9a d8bf
00000270: 8e6e 49a2 8063 c43f 077f b90f c1e7 d9bf
00000280: 3adf 9f55 e377 cabf c964 86dd b79e dabf
00000290: 995e e527 2de8 dfbf 1069 aabd 62da ca3f
000002a0: 08f8 a29f d516 c13f 940e c2f9 b291 d5bf
000002b0: 2338 7ea9 1926 d8bf 103a 66af cbe5 d23f
000002c0: 97e7 5227 630a b2bf 04f0 f5cc dcff d13f
000002d0: 4f02 7dcb e7d7 d1bf b6fe 0fab f904 d6bf
000002e0: e547 37c4 4c60 c6bf 2c98 f52f da8c dcbf
000002f0: 5e6c ab00 6c75 ccbf e203 72b8 db4b c63f
00000300: fa4f e175 34a3 bfbf 02da 80de 355f c4bf
00000310: 530e 423e 1822 b53f 1f57 6bd7 6aac d23f
00000320: 98eb 64c8 12a4 d0bf 4ec8 30f7 47f8 a03f
00000330: f826 571f adbc b83f 2518 4a52 9a0a cb3f
00000340: bb71 18ef f042 8f3f 73a1 e573 fd23 d7bf
00000350: feec d771 6402 ca3f 4141 162d c9f0 c43f
00000360: 92a2 007f 8ab4 e4bf 628c 830f 6988 af3f
00000370: 4291 9416 ed9f b5bf 96a3 87d1 bf49 d2bf
00000380: 5606 23ce f5c0 b53f 87a1 4cc4 4415 ce3f
00000390: c25a 290e dc95 cebf 904c aa6a dd38 c73f
000003a0: cc3f 4ce3 b3c8 dc3f e989 3ce4 2260 a53f
000003b0: 23a6 7303 a080 d2bf 5e22 38a7 a544 d53f
000003c0: 463b 8f19 6c75 db3f 294f b15b 9e7a c03f
000003d0: e4fa 1f80 5e29 cf3f 6c29 29d1 0d44 9f3f
000003e0: eb5d 87ff 70c6 6bbf fc53 8b13 84be c13f
000003f0: c461 1e49 4628 cdbf 269f 4075 e8b5 b7bf
00000400: 498e 6e84 badd ccbf 65c7 b426 2969 debf
00000410: 9e6d 665a f171 c5bf 0313 a52f c3bc d8bf
00000420: 3d4c f4e2 17c5 be3f e675 4996 8aa5 ddbf
00000430: 7f2b 0540 ab40 ddbf 79eb 825f 5e60 b0bf
00000440: e853 7b99 0e32 d5bf 16b7 0a3b af89 b23f
00000450: dfb5 a2a1 206c bcbf 9372 077b 5f06 cbbf
00000460: 914e bc6f 36fc bcbf ddd8 afdb 7568 a23f
00000470: 85aa e731 b86c d9bf 4843 5c6d 6be1 c7bf
00000480: 8f66 161b 5261 d4bf 76ea 5b51 266d ddbf
00000490: eafb 383e 3d61 613f dacf 00ba 3af7 dfbf
000004a0: 7a67 cdd3 ac0b cf3f f5a5 ea97 8085 dbbf
000004b0: ba40 2e2d 33e4 c1bf 6e40 c020 ffb5 c7bf
000004c0: ba1f 608f 84a4 e0bf a75c 8391 cba8 c4bf
000004d0: d200 baed 2ddc 94bf 9788 ae21 4f65 dabf
000004e0: 0d25 6abc 2486 a9bf 4a87 471f 288d c7bf
000004f0: e99c d25d 2e1b d1bf a2c3 7ed0 675e e0bf
00000500: 3b28 41f1 93a4 d43f 35d3 cab7 7019 cabf
00000510: 495c 1c23 5f15 c9bf 958f 8c3a 78ec d33f
00000520: 1eba bca1 5256 bbbf 02da 7af6 ea36 b33f
00000530: ced4 52e6 c474 bcbf 4c21 8441 4c79 d9bf
00000540: d99b 89fc 7ee5 acbf 56c9 e17b 5c3d d1bf
00000550: 58ee 2af2 359a dbbf b3a0 064a 674d a53f
00000560: e0ea 2943 9be9 d5bf f470 6f25 2b48 abbf
00000570: a632 2dfa 0b84 cbbf 8cd1 44f1 a903 ccbf
00000580: c699 10b3 b9fa a8bf a8ee cf44 5c3a c63f
00000590: 42ed 7f00 c86e d1bf 3750 5409 115b bc3f
000005a0: e5b6 7573 0cd7 b23f 8389 faf9 97f8 d8bf
000005b0: ae66 3dc5 655b c0bf b017 97a5 ca6b a0bf
000005c0: ad1f 9a31 ebad cabf 29fa 09fc 14df cabf
000005d0: 07e6 fb28 61fe e23f d424 4fe1 a727 ddbf
000005e0: bac9 3df4 d609 dabf 8116 4fa1 3048 b9bf
000005f0: fa01 fe96 f2d0 d4bf 314f c353 9db4 b73f
00000600: 3462 472d cf2b cbbf def6 b9cb b468 d6bf
00000610: 33d9 8003 0ead cebf ebd6 e448 0858 9e3f
00000620: c1ed c04f 7e18 e0bf da4a 20e6 2081 cebf
00000630: 03b4 6b65 e8c6 863f 634c 515c d93a c6bf
00000640: 0018 a3d3 85d1 bbbf 3dfa c18e 8171 b6bf
00000650: 63b9 142c c34b d3bf 1315 2051 f23b dabf
00000660: 85b0 db16 90b8 d1bf cd99 7126 0148 c8bf
00000670: b1e0 e044 8f8d d0bf f04a 19bf 05fb dcbf
00000680: d554 7a70 a232 d9bf d10b 92c9 d9db c7bf
00000690: efca 58e4 94e9 c43f 895a d1ec 3fe1 883f
000006a0: 3867 b440 49b9 d73f af0f 2717 8aa3 d53f
000006b0: 74dd 2024 4162 cbbf fbac d3db dd63 c9bf
000006c0: 047e 25cb 214c cc3f a011 1327 1a4b c73f
000006d0: f1f7 71df bc03 d0bf 283f 2a25 acc6 9dbf
000006e0: 36e8 94dc dae3 c8bf 2f91 db64 c2f7 b3bf
000006f0: 9ef1 e585 8a08 dfbf c3e1 211b bce9 aebf
00000700: 9305 fb9b 64ca bfbf f977 2033 63d4 94bf
00000710: 3971 3aad 6e5b c7bf 9474 62a5 439d a63f
00000720: 572e 06d1 3922 d9bf bd3c d77d f9f4 d4bf
00000730: ce56 82fe 019a d6bf 7c08 ed7e cf29 dabf
00000740: 50c9 5c68 9d7a ccbf 2936 8590 020e 9abf
00000750: ff26 ed4a 3a32 d9bf c33e d705 cec2 c33f
00000760: a4ff 6bae 9a3d d4bf cc6c 35dd 6900 cdbf
00000770: 620c 56d3 9edb dabf 306d f146 643a e1bf
00000780: dbe7 bf4f 48a5 c8bf 0b66 edc2 1715 bcbf
00000790: 923b 26b7 a1cb c0bf fa78 de2d 783a aebf
000007a0: d060 fcb8 abdd d2bf c3f7 2dcd 7a83 d8bf
000007b0: 9fa9 bf68 efc5 d4bf 3bc1 0ddb ecfe c2bf
000007c0: 7b09 18cb 8a72 dabf 65ab 69e1 b55d dcbf
000007d0: 50f4 31ea a705 c6bf 6247 ca45 26bb d4bf
000007e0: 49c1 24bf 4547 bebf 31e6 becf 8a27 c5bf
000007f0: e2c2 fdcc 6425 debf 4405 8668 b94c dbbf
-0.0023376409643616263 -0.3189359955911966 -0.5452454043520985 -0.11703270873996197 -0.5553511249108606 -0.09883241849272874 -0.39065909420940703 -0.06544843049007913
-0.024778342816031352 -0.10658986638492204 -0.516012529475216 -0.19203883407587688 0.3161296244644907 -0.29826277023727 -0.05021641817429614 -0.21214926615425433
-0.2689600178894256 -0.28013980338715766 -0.08614304207373565 0.027051082795789876 -0.016615777200451282 -0.3367909189573329 -0.22321663791078736 -0.20104542016644106
-0.11898864876348555 -0.17144326681543984 -0.33272102316154156 -0.22549234345299704 -0.0385120854969055 -0.38171965817145825 -0.3915507078763366 -0.325022268581946
-0.6439991183515518 -0.2559134378756889 -0.12505169357257362 -0.4061786429040681 0.1913437478076941 -0.4537637666304962 -0.5966781408545458 -0.011791221234480285
-0.43665823743312826 -0.23314375522106978 -0.08974257892510043 0.2628082220949288 -0.2707649972485941 -0.0731395209439062 0.0409446626570174 -0.5039356164615583
-0.3831142620711998 -0.2637491823949707 -0.21458614667505915 0.15273835038998093 -0.08877573350886613 -0.36457542006277216 -0.5749720874090171 0.1591193520135433
0.10355345820495754 -0.26339279285026035 0.0053146737894880095 -0.2973006377385945 -0.16600637037358676 -0.16436189788074446 -0.15658721506449835 -0.2674388072223074
0.030811049153724512 -0.3093908774600528 -0.31463760012176734 0.22511562259258336 0.18745105414631247 -0.09378803779511584 -0.4835638108131256 0.013786892905449155
-0.008412174091684462 0.07062138882728339 -0.1417364759129223 -0.06646889270863815 0.4253843069573753 -0.38440631320927365 0.1592865745941378 -0.40477015052418647
-0.20678369217761788 -0.415937391598686 -0.49854592224208144 0.209789602861584 0.13350935263400765 -0.3370177687686262 -0.37732545425467573 0.29527561310615713
-0.0704709979062542 0.2812416078156732 -0.27880282279878527 -0.3440536661655459 -0.17481383877617343 -0.44609694179087245 -0.22233343155571367 0.17419001108285587
-0.12358405950482157 -0.15915559162540666 0.08255149383517706 0.2917735198692401 -0.2600142437910846 0.0331442345854077 0.09662897124431058 0.21126107233084315
0.015264398857703356 -0.36157165830675025 0.2031980090976972 0.16359820081243906 -0.6470386963383865 0.06158760370615181 -0.0844715290191447 -0.28575129949472833
0.08497558863293739 0.23502406678131768 -0.23894835177880763 0.18142287929785939 0.4497499198632766 0.04174908672418438 -0.2891006501873525 0.3323148854256369
0.42904188629193063 0.12874202229669976 0.2434499860391589 0.03053304280391826 -0.003390522670297482 0.13862658457097143 -0.22779158182380688 -0.09261944639785877
-0.2255166193618712 -0.47516850261592075 -0.1675397578627384 -0.3865211453706225 0.12019490519405536 -0.4632288425108001 -0.45707207920047915 -0.06397046882459091
-0.3311802386136251 0.07241339866115157 -0.11102489420110072 -0.2111319876411427 -0.11322345951003344 0.03595321947789085 -0.3972607123711572 -0.18656676139701234
-0.3184399857069388 -0.45978696770877236 0.002121562590928762 -0.4994646851002905 0.24254379598533743 -0.4300233348427292 -0.13977660852515844 -0.1852415952603254
-0.5200827408125328 -0.16140122037061141 -0.020371167788199092 -0.41243341721759336 -0.049851558685142995 -0.18399526145281647 -0.2672840038525935 -0.5115241119548168
0.32254503784190874 -0.20390137647850684 -0.1959647103728648 0.31130796163255897 -0.10678593109762644 0.07505672948432365 -0.11115675566800862 -0.39802843473491545
-0.05643841583951543 -0.2693701944146104 -0.4312872757834376 0.04160616663585994 -0.34238320883711815 -0.05328497726415718 -0.2149672481122213 -0.21886181145385952
-0.048787882908345945 0.17365601882908277 -0.27238655136871526 0.11076456525580701 0.07359388178675948 -0.3901729527662143 -0.12778923159458117 -0.03207238456120309
-0.20843257829642195 -0.20993292147245882 0.5935521889179548 -0.45554539683196293 -0.40685056544966935 -0.09875778139311288 -0.3252531504186035 0.09259970946305597
-0.21227445326691596 -0.3501407613292552 -0.2396562115770365 0.02963269181164822 -0.5029899175346416 -0.23831568943622622 0.01112157401572667 -0.17367093093580185
-0.10866581360741634 -0.08766946540161143 -0.30149916939526217 -0.4099088470687359 -0.2768898223137131 -0.1896974027360571 -0.2586401150360969 -0.45282119428627166
-0.39371548637548176 -0.18639681188878268 0.16337834501026502 0.012148379721265161 0.3706839687234722 0.3381066537951893 -0.21393598808365832 -0.1983601878522235
0.2210733644414945 0.18197943599637956 -0.2502281362611703 -0.029078187721608334 -0.19445358057584067 -0.07799925768228343 -0.4848963077163492 -0.06037700492101152
-0.12418202217215528 -0.020341444011243912 -0.18247779329693417 0.04416858095030665 -0.3927139798404133 -0.3274520615495467 -0.35314988951118387 -0.40880191226109
-0.2224919089872608 -0.025444068976233112 -0.39369065587071356 0.15438246998973257 -0.31626002343545623 -0.2265751199837268 -0.41965456617635344 -0.5383778939825898
-0.19254402059578876 -0.10969685086219998 -0.13121434634055312 -0.059039836501357315 -0.29477971138977654 -0.38302488362375814 -0.32458100537646745 -0.14840470024092575
-0.4132410987223449 -0.4432196332260701 -0.17204760489758764 -0.32392269912189964 -0.11827503124800844 -0.16526923316796308 -0.47103233355214347 -0.42655787665724554

nn.3.linear.bias f8 [32]
00000000: d51c dad1 b1a7 d5bf c7d3 bfad 2283 c3bf
00000010: 1a17 7422 cac5 bbbf 01d0 203e a2ac c13f
00000020: 291b 2d90 1a71 d3bf c43b a0ad a34a cabf
00000030: 6f6d 4414 a454 d0bf 24b3 96c8 a554 d0bf
00000040: 9a6e 71a9 0109 aebf 7e57 e681 4289 cd3f
00000050: 38a3 ac81 a254 d0bf 7c1e 32b0 4c54 d0bf
00000060: 44a4 abd3 ff8a d1bf 5be9 0fed c8a5 b0bf
00000070: f732 608d 467a cfbf 0d91 f40a 4469 a7bf
00000080: 0a1e 692c 5766 c6bf 815a 1ee8 8151 b0bf
00000090: 185b c3ff 4091 ccbf 7487 978a 5417 d13f
000000a0: b88e 6ddb 9be2 c6bf 5b7b 9166 a8fc bcbf
000000b0: 672b 0f4b 6b7e d4bf 83cf beba 03d7 a93f
000000c0: 58d5 d53d ece9 d6bf e5cd 10f1 a454 d0bf
000000d0: e4d6 1415 3a30 c63f 473d 663d a454 d0bf
000000e0: 4a9c aaa3 0bfc bfbf 592a 2a4c 9954 d0bf
000000f0: d3c8 06e9 f9a4 babf ffb6 b155 af50 d0bf
-0.3383602666221582 -0.15243943675855418 -0.10848677960538247 0.13808086427309266 -0.3037783058138524 -0.20540281274631245 -0.25516607264736185 -0.25516647900330924
-0.058662464078875945 0.23075133650553065 -0.2551656977034784 -0.255145237032117 -0.2741088454336629 -0.06502967631960159 -0.24591905501474517 -0.04572498925907285
-0.1749981848572449 -0.06374370495755423 -0.2231827973216347 0.26704896482816953 -0.17879055227523621 -0.1132302523051129 -0.32021601037984343 0.050468555971206384
-0.3580275157795163 -0.25516627828184674 0.17334676770558766 -0.25516611095459435 -0.1249396586014068 -0.2551635021015151 -0.10407983721850948 -0.2549246155602844
