nn_14/models_3_1/001.pth (torch, 173698 bytes, 28 tensors)

nn.0.linear.weight f8 [16, 8]
000000 bc f0 05 e0 f9 99 74 3f de 22 c1 4c 05 fd d3 3f
       0.005029655527661155 0.3123181581072866
000010 dd 35 c0 1c 66 89 d0 bf bb bb 5b 4a 42 b8 cb bf
       -0.2583861618776078 -0.21656063681390755
000020 f4 47 96 c8 52 e5 de bf c4 0b 04 f8 86 bc c7 3f
       -0.4827467879159706 0.18544089422365861
000030 9a c3 aa e5 99 17 c9 3f e7 b5 f4 64 47 a4 d9 3f
       0.1960327502652291 0.4006517873666255
000040 40 9b 98 e4 6c 9c e2 3f eb 71 7c ff 05 a3 e3 bf
       0.581594892956538 -0.6136503210032606
000050 9e 97 bb 92 78 28 c2 bf 92 68 f4 de c2 e8 bc 3f
       -0.14186007656752236 0.11292665427427753
000060 77 7b 26 8f 71 fb ae bf b5 12 c7 db 4c 38 d1 3f
       -0.0605121123546643 0.2690612932458792
000070 3a d3 fa 9f 6a 2b be 3f 44 80 e2 04 71 0b da 3f
       0.11784998327023014 0.40694833256748475
000080 1a 97 25 74 69 56 d3 3f 1c e9 83 1a 06 18 e2 3f
       0.3021491655584768 0.5654325979114989
000090 b7 44 11 1b d0 c8 c2 bf 9a 86 cc 98 db 99 6f bf
       -0.1467533237614924 -0.0038575448037512896
0000a0 d0 21 e7 99 0f 4c d7 bf 3b 83 58 5d 7f 85 cf 3f
       -0.36401739148689405 0.24626152093790118
0000b0 97 3e 6a de 22 7b d2 3f 95 8d c2 f4 7a 49 8b 3f
       0.2887656375905662 0.01332374629448089
0000c0 64 c1 06 5b 1c bb e1 bf 84 8c d0 60 09 26 d4 3f
       -0.5540906694277905 0.3148215718703755
0000d0 f5 5e fe 7f 7e 4a b4 bf 30 73 26 26 b4 7b b6 bf
       -0.07926169037670745 -0.08782506877328156
0000e0 6e f1 88 29 6a 01 bb bf 7c a8 dc f6 46 0c b3 bf
       -0.10549033655201409 -0.07440608527091003
0000f0 c6 c9 8b bd b1 dd c8 bf 77 5b 22 9a 03 85 e9 bf
       -0.194265573074132 -0.7974870691713097
000100 5e 72 91 80 9e 93 6e 3f 5e e3 d6 58 a1 eb e8 3f
       0.0037324996706458577 0.7787634596962609
000110 e5 4d 90 c2 90 1e d9 3f 6c 42 3b 0b 74 23 cd 3f
       0.392490568164446 0.22764444874202938
000120 bd 13 d2 e9 6a 2c a7 bf df cd b9 4d f5 2b b3 3f
       -0.04526075462585009 0.07488949916460495
000130 fb 58 3e 1b 4b 34 e1 bf 29 37 d7 78 7f 87 b4 bf
       -0.5376334697819226 -0.08019253444873854
000140 99 19 89 73 f1 2f bb 3f 48 67 56 be ec 53 92 bf
       0.1062003047055441 -0.017898272626190065
000150 b2 32 cc d1 70 3c d2 3f e1 8e b4 ef 51 8b a2 bf
       0.28493900764514557 -0.0362191777333274
000160 78 b6 01 d0 03 64 e9 3f 76 72 a7 d6 c1 77 d5 bf
       0.7934588492041277 -0.3354343982917166
000170 a9 fa 80 51 2d 60 d2 3f 6f 7a 83 68 39 a2 88 3f
       0.2871201797424115 0.012028168203355364
000180 dc cf 25 8f 8b fc cd bf 52 e6 81 d9 d6 29 c8 3f
       -0.23426956643709118 0.18877683277587437
000190 52 aa 1d 35 ed da c4 bf 06 b2 14 f9 e2 a2 5d 3f
       -0.16293110936688265 0.0018088547261171386
0001a0 e8 b4 86 68 3f 28 d3 3f 57 48 31 c4 ff 69 c7 bf
       0.29933152396809115 -0.18292233543121725
0001b0 4e 72 7e 61 ab 48 b2 bf 78 0e cf a6 ce 51 ad bf
       -0.07142134790633145 -0.05726476465454494
0001c0 2f 3d 44 ef d0 a5 d6 bf e3 70 3c cc 05 41 b4 3f
       -0.3538706146800505 0.07911716686470842
0001d0 61 07 49 8d 36 c8 93 bf 04 8d a0 c1 08 67 a2 3f
       -0.01931843983971449 0.035942338596465034
0001e0 81 77 ab 49 1b 87 bf 3f 18 99 bc 63 0a 27 bd bf
       0.12315531300143158 -0.11387696204164788
0001f0 37 17 7d 30 20 ef e1 3f 27 72 ac 50 1a 3f af bf
       0.5604401537936842 -0.061028311107495896
000200 6e 96 11 59 f7 9c d8 bf e1 15 39 66 4f 99 8f bf
       -0.3845804567157306 -0.015429134661768042
000210 d8 2b 29 b1 6c 8e 89 bf 8e 86 97 23 28 9d bb 3f
       -0.012478684574622464 0.10786677235548778
000220 70 8e 56 94 9d 31 b8 3f 84 3a c1 f8 10 a9 e4 bf
       0.09450707313095008 -0.6456379755489512
000230 ca 47 e0 77 37 2b d2 bf ae 9a b6 f5 b9 26 a8 bf
       -0.2838877363839144 -0.047170459026621855
000240 f3 b4 74 10 a9 de d2 bf 47 11 d2 33 62 cc d7 3f
       -0.29484011275310634 0.37184958515742433
000250 85 42 92 3c 16 a6 d2 bf f2 3e ec 9f 5d 55 b5 bf
       -0.2913871375576849 -0.08333382753721333
000260 1d 86 b8 2c 86 c7 be 3f cf df 11 39 5f c2 df bf
       0.12023199645820921 -0.49623852322792755
000270 0f b8 3a c3 67 e8 ce bf a6 07 19 6b b7 24 c0 bf
       -0.24146744759258396 -0.12612049798377462
000280 2a bf 1d f5 23 e5 de bf 84 14 7a b4 00 f1 db 3f
       -0.4827356237137673 0.4365846407384384
000290 5f 8c 36 6d 3a 7c ca 3f b3 60 84 f4 c1 4e c2 3f
       0.2069161446825971 0.1430284923487811
0002a0 e3 65 44 00 8b f3 95 bf dc 67 63 1a 46 19 e2 bf
       -0.021436855212504723 -0.5655851855656198
0002b0 83 74 12 a9 cc a9 e2 bf 3c 8a 20 ae cd 83 d1 bf
       -0.5832274725140824 -0.27366964344597355
0002c0 2c 11 8e 85 db 5b a4 bf 28 ed a5 c7 72 39 e9 3f
       -0.039763317158789085 0.7882627391221932
0002d0 40 36 9b f1 a2 0e b0 bf 15 42 47 51 11 7d e0 bf
       -0.06272333525267815 -0.5152670466869177
0002e0 a8 d0 91 b9 3a 49 af bf 62 73 9d e2 e8 4a e2 3f
       -0.06110557093862329 0.5716442514491116
0002f0 5c b2 9a be ce fd b1 3f 8f 75 7a dd 80 c9 b0 3f
       0.07027904656815437 0.065574697563042
000300 20 6c 09 7f 56 41 d4 3f a0 48 d1 7a 2e 4d dc bf
       0.31648790746629807 -0.4422107886686124
000310 76 8c 64 60 f0 e6 e2 3f 8b 2b ac 33 80 aa d4 bf
       0.590690792338491 -0.32290654226442744
000320 33 b8 fc 5b b2 15 d4 3f 99 0a 90 d4 e3 29 c5 bf
       0.31382426245807266 -0.1653408801940557
000330 66 5a eb 45 55 ab bb bf 84 2a 66 5a 08 05 cc 3f
       -0.10808308560386024 0.21890358366029627
000340 6f 8c 7a ed 17 eb cd bf 98 f3 b0 83 52 2e e0 3f
       -0.2337369832576743 0.5056545803159791
000350 99 f7 c5 3e 58 87 d6 bf a5 e1 e3 2a fd f6 ce 3f
       -0.35201078539091096 0.2419125041412943
000360 a9 43 50 3a 24 8a ce 3f d9 c5 07 6c eb de dc bf
       0.2385907444700284 -0.45110593366470436
000370 55 21 0a 22 2e 69 c2 3f 7f 65 81 a8 2d 0d e2 bf
       0.14383484518135484 -0.5641086856004874
000380 71 41 25 cb 98 0b c4 3f ba f2 4d 2d c8 ef e4 3f
       0.15660390776839564 0.6542702565053198
000390 ea f5 82 36 8d ea b2 3f af 66 aa 34 07 ac d6 bf
       0.07389147358750106 -0.3542497648537432
0003a0 88 61 af e8 7d 5e db 3f 05 10 83 f6 e3 30 b6 3f
       0.4276423237147573 0.08668350952490307
0003b0 44 0a a9 b5 97 0a b9 3f 67 01 55 fb ae bc d7 3f
       0.09781788048807366 0.370891328278978
0003c0 db ac 3e 77 06 04 d3 3f 82 5d 21 36 65 6c e3 3f
       0.2971206821918721 0.6069818551285808
0003d0 c5 af 63 db 88 83 d7 3f bb 57 cd 1f c4 b5 b6 3f
       0.3674032347178094 0.08871103073519652
0003e0 30 99 42 32 8e 02 d1 3f 6b c6 85 9f e5 11 d0 bf
       0.2657809725591447 -0.2510923440778245
0003f0 10 60 f6 f3 45 5f c7 3f dc a2 cd 28 d3 83 a2 3f
       0.18259500896670078 0.03616199372374293

nn.0.linear.bias f8 [16]
000000 01 72 6c 0d c8 c4 c7 3f e2 cf 61 88 6e bd cf 3f
       0.1856927934212678 0.24796849879532973
000010 dc 31 54 e1 ac 7c ba 3f b8 ad 30 23 38 26 d4 bf
       0.10346489430612088 -0.3148327201513115
000020 e8 00 9e d6 d3 a2 b4 bf 59 a2 b5 51 4e 3d 94 bf
       -0.08060955037763373 -0.019765113579895608
000030 dd d6 40 08 e6 d7 c4 bf e2 ce dd fa 7b cc c6 bf
       -0.162838701276704 -0.17811536549890322
000040 f8 43 9e 8e f2 cd d1 bf 79 56 45 99 4f 36 c4 bf
       -0.2781950371509647 -0.15790743812492616
000050 56 f2 87 3a cc bb d1 bf 18 2b ee 3c 9e 0f d5 3f
       -0.277087266120167 0.3290782542250539
000060 a3 b9 3f ed 55 17 ce 3f 58 2c 72 1d 35 02 b3 bf
       0.23508714756412727 -0.0742524334802267
000070 ca ec bb be 76 52 a6 3f 69 3d fd 3e 62 2f ca bf
       0.04359789922997377 -0.20457103801389145

nn.1.linear.weight f8 [16, 16]
000000 bd 22 ce da ab fb d2 bf 61 95 ba 7c ba dd bc bf
       -0.29661079757401493 -0.11275830788743725
000010 d6 51 c9 1b b5 a3 ce bf d6 c9 90 d3 ed 7f d1 bf
       -0.2393709550548368 -0.2734331670827975
000020 6d 69 18 e5 4a 42 d0 bf f4 39 06 c4 a5 2e cb bf
       -0.2540461766490328 -0.2123610694074639
000030 d3 86 bf 92 11 43 43 3f 97 1f 58 90 91 b6 c4 bf
       0.0005878291899501182 -0.16182155178125576
000040 fb aa b9 c4 bf 87 c6 bf 98 7c ec d9 74 14 c1 bf
       -0.17601773362851944 -0.13343678131875403
000050 02 2c de 87 11 61 e0 bf 84 d1 c0 34 4c 24 e8 bf
       -0.511849179617798 -0.7544308691345099
000060 fa fa 69 e4 f6 6d b5 bf c0 df d7 40 c5 b0 eb bf
       -0.08370917393220259 -0.8653284327001458
000070 b9 6f 59 88 6f 77 cb bf 0b 89 28 1c d7 2e de bf
       -0.2145823875206341 -0.4716089034065056
000080 07 91 df 56 59 35 c2 bf 40 b3 19 00 2a 4c d1 bf
       -0.14225308172093085 -0.27027368554881903
000090 7b 15 fe 62 ee 64 a4 bf f5 79 e8 ef fa bd da bf
       -0.039832543930098795 -0.4178454726078649
0000a0 03 44 03 8d e3 75 ce 3f dd ba 6a 51 31 7e d4 bf
       0.23797268281353476 -0.32020218802328576
0000b0 34 64 48 60 7b 4e ad bf 02 44 b7 9a 01 2c b7 3f
       -0.05723939466788189 0.09051523234599304
0000c0 c1 45 7f 07 54 a5 db bf 80 76 9a ee 94 57 bd bf
       -0.4319658349241671 -0.11461764169004063
0000d0 2e 35 06 7a 36 c3 b7 3f 87 5f ed 73 5c c9 d3 bf
       0.0928224609289898 -0.3091651088811819
0000e0 63 fe 8a 54 b3 41 e2 bf 70 c5 a4 33 cb 35 e6 bf
       -0.5705200816373232 -0.6940666206993864
0000f0 a8 64 3d 29 6f 06 ba bf 03 13 55 54 e2 44 d2 bf
       -0.10166067845183824 -0.2854543517644716
000100 32 37 6b dd c3 b8 c6 bf ec b6 11 94 40 33 a6 3f
       -0.17751358329263095 0.04335977370724983
000110 df bb 17 69 2b 18 d5 bf 3d 11 07 98 dd dc c9 bf
       -0.329600193624115 -0.2020527832338618
000120 e5 b5 b0 39 62 01 e6 bf b3 6b 60 2b 8c 03 d1 bf
       -0.6876689078105157 -0.2658415244674714
000130 fb 38 67 6d 68 9a d6 bf e7 33 85 6e ab 09 d4 bf
       -0.35317431148440875 -0.31309018891334833
000140 0f 60 dc 25 d4 b2 97 3f 2d 31 4f 5b 4f a0 dc bf
       0.023143114863245325 -0.44728454510620247
000150 a8 bb 25 15 27 37 d4 bf 9f b8 a2 59 a5 14 d3 3f
       -0.315866251613381 0.2981351256702371
000160 cf 41 6d 75 e6 63 e0 bf 7d 7c a7 7f 5f 53 d2 bf
       -0.512194852208319 -0.28633868662104317
000170 ba 42 65 3e 5e 4a 60 3f 13 69 6a 1c dc 7c ca bf
       0.001988586492338432 -0.2069354189632767
000180 68 be 84 22 86 66 5c bf db 4f 16 23 cc 26 e4 3f
       -0.0017334279928710398 0.6297360120101944
000190 28 97 db 90 0e d3 a5 3f f5 fb 0a ff 05 4f cc bf
       0.0426258613422717 -0.22116160348193117
0001a0 af e1 67 c5 db 4b a8 bf 54 a6 c9 ef b0 ea cc bf
       -0.04745375427950493 -0.2259122057760573
0001b0 8f 59 1e b5 f1 3b 89 3f d5 cc 6f 73 61 60 e7 bf
       0.012321365680503486 -0.7305152182219908
0001c0 5d e1 84 47 5a 33 c1 bf 9b a1 5a ca f5 eb d2 bf
       -0.13437965862409387 -0.2956518627275046
0001d0 73 dc fd c6 dd f5 e8 bf 13 ec b7 7c 23 a1 ca 3f
       -0.7800129782252853 0.20804256047981137
0001e0 2a 67 f1 65 35 80 d5 bf e9 39 d8 83 4e 6d d0 bf
       -0.33595023112649136 -0.25667155147030357
0001f0 d3 b5 ef 66 2f bf db bf 2d 41 a0 43 ab d3 d7 bf
       -0.4335440163839312 -0.3722942505273917
000200 48 6d 34 0c 3d f1 c5 bf 86 c9 7f b1 51 87 e3 bf
       -0.17142451377808698 -0.6102684466152801
000210 55 d1 ce 16 11 20 c5 bf 37 ac 48 5c 9c 9f c8 3f
       -0.1650410996786699 0.19237093454407425
000220 58 20 1d 19 db 4d 5f 3f 3b f0 a3 d3 d4 f7 a1 bf
       0.0019106521253480415 -0.0350939281797484
000230 9a 13 c0 a3 df de a8 bf 5f 16 d9 35 31 5e cd 3f
       -0.048575390566873725 0.22943701867386587
000240 1b 90 58 62 fd 6c a9 bf e6 3c e3 9b bf d9 ad bf
       -0.049659651045914376 -0.05830191400456801
000250 ef 60 e6 47 2f 30 d9 bf 05 1c a9 be 97 f9 d7 bf
       -0.3935659601352332 -0.3746089326782001
000260 75 5d 86 c0 26 e1 dc bf 8d 79 a6 aa d5 aa c4 3f
       -0.45124214936500745 0.16146345932515907
000270 8d a9 23 68 46 a7 e4 bf f9 e6 1e c0 f0 ac cb bf
       -0.6454193147631472 -0.2162152231301702
000280 a8 10 47 f2 cb c3 cd bf e4 a4 01 c1 6e f5 d0 bf
       -0.23253774003945193 -0.2649800190761893
000290 b0 43 e9 49 2c 4b d2 bf 92 a7 bc 5b d9 74 d1 bf
       -0.2858381959713894 -0.27275690039334066
0002a0 c7 13 57 ec 7f a2 ca bf 07 fd 55 a7 2a d7 dd bf
       -0.20808409729047936 -0.46625772801776616
0002b0 38 7d 4d d3 2a 5a b1 bf 40 b4 6a eb e7 c7 cd bf
       -0.06778209360844734 -0.23266314501725738
0002c0 3e 3b 8a 6b e1 f3 d7 bf 2a 8c 78 b4 68 9c c6 bf
       -0.3742602873034463 -0.17664822399191965
0002d0 18 6a be 03 0f aa b2 3f 3c 79 87 5c 79 7a d2 bf
       0.07290738908196948 -0.28872522388509814
0002e0 e2 c4 fd 24 16 b5 db bf 65 ee 1d 6b b1 ae e3 bf
       -0.43292764294080943 -0.6150748340728113
0002f0 81 f9 f3 09 4e 24 ce bf 54 3f 68 f2 cf 81 d6 bf
       -0.2354829357718238 -0.3516731135614368
000300 aa ba 6e a9 fa a6 d2 bf 95 f2 09 b3 ad ea d3 bf
       -0.2914415983786208 -0.31119863971961453
000310 93 c6 a1 b4 1e eb db bf 1d be a3 bc 8e e9 bc bf
       -0.436225582502723 -0.11293880563220467
000320 8c a8 c9 23 54 ce cc bf 7a 3e b1 52 62 b5 d7 bf
       -0.2250466513390318 -0.37044580531526317
000330 1c f3 ca ef e1 2e d0 bf 7b e5 50 bb a6 1e d9 bf
       -0.2528614846922197 -0.39249580662325173
000340 68 11 5e 74 23 b0 c6 bf 2d 34 ba 45 12 9a 83 3f
       -0.1772503202629523 0.009571211579237094
000350 d4 19 54 51 9e 3b bf 3f 01 c1 e4 2f 31 13 c7 3f
       0.12200345502433346 0.18027319754174445
000360 3f cf 54 8f 29 7b d9 bf fc 00 fd d1 7e 8e c3 bf
       -0.3981422328681567 -0.15278611424765376
000370 5b 2f 20 0a 44 57 c1 bf 23 46 fc 49 77 f8 7e bf
       -0.13547564024372147 -0.007561174366644194
000380 8e 96 24 07 e4 bd c3 3f 54 a2 3a 7a 81 4a d8 bf
       0.15423250530982496 -0.3795474713938678
000390 32 ef f5 55 b5 7a e2 3f f8 bc 64 ef fd 9a e3 3f
       0.5774790457648804 0.6126699138311826
0003a0 b1 48 c3 bc 35 fc d1 3f 3f a5 0a 4d 4f 40 32 bf
       0.2810186713587753 -0.0002784913640803861
0003b0 c0 48 06 81 72 38 e1 3f c9 23 2f c9 fa c1 d3 3f
       0.5381405372629828 0.30871457716835643
0003c0 fe 63 d1 41 cb bd ae bf a0 49 1d 75 48 31 e0 3f
       -0.06004176310006669 0.5060159957304684
0003d0 5b e2 5f f5 2f 2b bf 3f f2 8b c3 58 c6 32 cb 3f
       0.12175273647870581 0.21248702367947164
0003e0 a3 a9 a7 64 49 67 dc bf 9c 9c dc 02 b8 2d da 3f
       -0.443804119392235 0.4090404537150307
0003f0 da 9c 12 92 cf 5d a2 bf 9b e8 43 dd 7f 26 c4 bf
       -0.035871969777241566 -0.1574249105831925
000400 11 41 de eb bc ec ae bf 3d f4 d7 21 c0 02 e4 bf
       -0.06039991740465401 -0.6253357563979375
000410 27 13 40 90 13 d7 d5 bf 9d c1 ec d0 80 4d d2 bf
       -0.3412522228903065 -0.28598041918578493
000420 16 c9 b2 86 ca 90 bd bf 61 e1 63 f1 b7 92 c6 bf
       -0.11549058712515534 -0.1763524941122894
000430 0a c5 ef a2 72 5b c8 3f 1a 93 d0 ef c0 ec b1 3f
       0.19029076534165085 0.07001882414676822
000440 04 64 10 2e 32 7c cb 3f 81 d5 3a 04 93 9b d7 bf
       0.21472766160221124 -0.36887050068920507
000450 c2 9d bb c2 36 a2 ba bf ac 48 88 b2 b4 e4 db bf
       -0.10403768781872372 -0.4358340972404544
000460 5f 80 2e 47 4c a7 dd bf dc 5b 37 33 1d c4 d3 3f
       -0.4633360571988358 0.3088448524626395
000470 37 15 64 17 41 f4 e5 bf b1 02 0d 45 b9 1e c8 3f
       -0.6860661942343204 0.1884376132166117
000480 1a 20 4c 19 02 8a cf 3f d3 21 25 24 20 9b c7 3f
       0.24639917597983257 0.1844215561379899
000490 a6 91 62 4a 44 af c3 bf f7 63 34 70 b6 d2 a4 3f
       -0.15378621704179557 0.04067010993657754
0004a0 21 71 66 b3 27 d7 7d 3f bc 01 b9 24 f7 06 b5 3f
       0.007285265999964958 0.08213753363180037
0004b0 08 8c 82 3e 9b a1 c1 bf fe 6b 57 12 f9 67 d9 3f
       -0.1377443366264688 0.39697100440179145
0004c0 e8 82 20 0f e3 37 b9 3f 31 af ae d1 78 91 d1 3f
       0.09850901717483007 0.2745039031676582
0004d0 09 fc e6 2c 04 55 92 bf b8 26 f0 ab 17 0d d5 bf
       -0.017902436485879778 -0.32892410078839474
0004e0 f4 7d 0e 94 c4 e5 ce bf fc c2 cd 6e 7d 21 df bf
       -0.24138695935560828 -0.48641906567267745
0004f0 4f 43 d5 f9 71 6a b8 3f 6f 87 24 fc b9 b9 cd bf
       0.09537422513427639 -0.23223042308478223
000500 da 34 72 64 d1 e4 e2 bf 00 4c 29 fc cc c6 d3 bf
       -0.5904318773115407 -0.3090088331711627
000510 e0 4c 0f 9f 80 b4 cf bf 2a 99 12 41 48 55 d3 bf
       -0.24769599691953825 -0.3020802150225729
000520 da c1 ef 06 b4 66 cc bf 95 42 56 4d d5 0b b3 bf
       -0.22188425387095273 -0.07439931047543731
000530 9d 2c 80 4d fc c1 d0 bf bf f6 87 2e 13 71 d0 3f
       -0.2618399388163171 0.256901545944725
000540 c7 74 17 b0 2e 14 d2 3f 13 39 e1 31 86 ec e1 bf
       0.2824818343777448 -0.5601225828375241
000550 09 1c 80 0b be 75 d2 bf 16 b1 26 71 dc 63 cb bf
       -0.2884364235218873 -0.2139850189681815
000560 e2 81 98 f4 c6 9e c7 bf 22 2c 87 fa cf b4 ca bf
       -0.18453299468184442 -0.208642957046636
000570 a6 d4 85 23 a3 1a e1 bf f8 85 8f ea f1 cc dc bf
       -0.5345016187481135 -0.4500088492041807
000580 b7 06 70 3b 53 a2 e5 bf e9 6d fe cd 22 6b e6 bf
       -0.6760650788202928 -0.7005781195943516
000590 50 10 0c af b5 8f d7 bf 6f 69 5d ca 82 9c c9 3f
       -0.3681463441319055 0.2000888336286368
0005a0 8b d6 05 1c 05 ad b4 bf 7e bd 07 bf ad 64 b6 3f
       -0.08076507505560408 0.08747373498748875
0005b0 fe 85 b6 7a 71 89 c4 3f b9 42 b9 cf a4 93 cb 3f
       0.16044443599552943 0.21544323103673493
0005c0 e6 3d a9 ab a8 a4 b5 3f 06 7e c9 7f 26 34 a8 bf
       0.08454374495453684 -0.047272875880249685
0005d0 68 a6 98 98 23 0c c3 bf 43 0c 71 9c 89 a2 d6 bf
       -0.14880795432081872 -0.3536705043554244
0005e0 6e e3 ad e8 53 a9 df bf 1e 3c f2 f0 59 27 e0 bf
       -0.49470994684775504 -0.5048036294919063
0005f0 97 f9 4d 04 a3 9a dd bf 85 2e c8 e4 9e be b8 bf
       -0.4625632802998551 -0.09665864072320048
000600 b3 60 e3 23 fd 27 c1 3f 1f 73 42 2d b0 67 96 3f
       0.1340328622088741 0.021879914057183144
000610 75 fe 9b 1b b8 59 d4 3f a4 68 a7 61 ed b5 c0 bf
       0.31797602363801697 -0.13055197971590815
000620 0e a0 ed 2e 6b 90 e2 3f 3a 91 f7 2d 5f 80 c2 3f
       0.5801292339865556 0.14454259628758753
000630 98 00 a6 0f 79 41 d0 3f 8f c1 e8 db 6a 72 71 3f
       0.25399614837807283 0.004259507577942036
000640 e2 1a 01 dc 9d b0 da bf 3f 9a 4b 49 90 ae c0 3f
       -0.41702982411190537 0.13032725886223948
000650 a6 44 af 23 e2 db bf 3f 19 c9 69 8e e6 09 e6 3f
       0.12444890376288473 0.688708570624189
000660 da f7 9d 16 8c f6 db bf 8c bb cb da 1a 8a ce 3f
       -0.4369230481023557 0.2385896271075264
000670 25 c6 19 06 f5 12 c6 3f 75 e0 ed da 54 60 db 3f
       0.1724535255230403 0.4277546060543565
000680 43 b6 b4 5c 70 ea d4 bf a7 75 16 bf f5 bc d3 bf
       -0.3268090157824625 -0.3084081998911991
000690 07 2f c0 f3 ae 55 cf bf 62 47 22 64 52 c1 b5 bf
       -0.24480235006227977 -0.08498110718417487
0006a0 b1 8a 86 9d ab 93 ef bf 13 06 a5 25 ea 33 e5 bf
       -0.9867761685057613 -0.6625872359510957
0006b0 00 ad 75 49 b4 80 e4 bf 2b d4 98 b2 98 f0 d2 bf
       -0.6407109675177765 -0.2959348434554296
0006c0 36 cf 27 62 80 a3 d2 bf c4 dc b7 c8 f2 62 ed bf
       -0.29122933946131313 -0.9183286590840898
0006d0 1b 3c 8f 03 20 d2 9d 3f 40 9b f7 70 2c d4 b5 3f
       0.029121875970130256 0.08526876218784896
0006e0 4a eb 7c a0 27 3d ea bf c0 30 87 26 b6 e8 dc bf
       -0.8199651846437999 -0.45170358431347424
0006f0 20 d7 9d db 40 1b c3 3f b8 91 80 6b 13 9a b5 3f
       0.14926920627083806 0.08438226103368762
000700 3d f0 0a 2d 3d 3f c9 3f 12 00 f7 11 63 f2 a1 3f
       0.19724240016319242 0.03505239099786207
000710 ed 4b 58 99 fa b8 cd 3f 56 8d 20 12 21 45 df bf
       0.2322076081041752 -0.4885943104765905
000720 b7 32 ea 96 ca 94 e4 bf 4d c8 19 52 20 ed da bf
       -0.6431630084567449 -0.4207230378880283
000730 19 7c 83 43 03 a9 cd bf c9 ca 6e 38 26 16 d2 bf
       -0.23172035976946928 -0.28260188590062946
000740 51 c8 72 ea 4a a0 d1 bf c0 2f 55 d3 76 de f0 bf
       -0.2754084863219122 -1.054312539595216
000750 ac d2 bf cf 31 65 d1 bf ee 08 ae 9d d0 71 85 3f
       -0.2718014267732467 0.01047099095535883
000760 12 7d 15 5d 7b bc c8 3f ea 6d e4 f5 51 3c c4 bf
       0.19325201077570192 -0.15809082514247957
000770 ba fd 8d e3 18 4e d6 bf 52 7e 2b da 3b 74 e0 bf
       -0.34851667616018356 -0.5141886960154329
000780 f4 93 12 4a 94 14 e5 bf 7a 20 2f 6a 93 30 df bf
       -0.6587621161203274 -0.48733983392276736
000790 dc 87 20 c9 de fd e2 bf 83 42 9f 6d 67 02 da bf
       -0.5934900215399881 -0.4063967295196919
0007a0 ff 7f 86 b6 2d 24 d4 bf 46 4e 19 9c 4c 52 ce bf
       -0.31470816445107624 -0.23688657400144758
0007b0 6f 23 9d f9 56 ff ce bf d6 76 24 36 94 4e d4 bf
       -0.24216735065627001 -0.31729607856128206
0007c0 ad 3d 30 1b 60 3f c5 bf f4 cd 23 56 4d 38 ba bf
       -0.16599656417427636 -0.10242160180114707
0007d0 2a 25 92 8f 97 16 e0 bf 20 61 8b 1a df 15 d1 bf
       -0.5027578167074911 -0.26695993034583587
0007e0 a8 8b fb a0 ed 1f d1 bf 05 37 94 62 e4 e8 c5 bf
       -0.2675737449737263 -0.1711698037474251
0007f0 44 4b 56 74 58 fd e4 bf 41 00 c3 6e 0f fb d2 3f
       -0.6559259674271307 0.2965735036523292

nn.1.linear.bias f8 [16]
000000 3a 73 91 52 37 b8 c6 bf dd 3c d5 78 53 76 c6 bf
       -0.17749682933472305 -0.1754860248570144
000010 4b 3e 76 fd 02 fa d1 bf d0 e5 60 54 3f 10 be bf
       -0.2808845019544363 -0.11743541536352287
000020 46 05 26 b2 e6 d8 d1 bf c2 d7 99 6e 6e fe d1 bf
       -0.2788635959369298 -0.28115425873636124
000030 3d 33 55 f3 44 c7 c6 bf b4 5e ae 87 3c 40 c5 3f
       -0.17795621758923544 0.1660228407388239
000040 74 f3 f6 7e 7c c3 c6 bf eb e1 b7 99 47 15 c7 bf
       -0.17784076880880273 -0.18033690458084037
000050 8b 41 00 98 71 ea c6 bf c7 a2 e6 d8 56 13 d2 bf
       -0.17902965471195062 -0.2824303739712772
000060 62 19 07 10 1e 6f c6 3f 51 2b a7 5c 61 30 d2 bf
       0.1752660349140554 -0.28420290039200774
000070 8c 55 90 03 4b 70 c6 bf 56 cc 9f 06 b9 eb c6 bf
       -0.1753019111062425 -0.17906868766258083

nn.2.linear.weight f8 [32, 16]
000000 0c b9 01 31 03 28 d9 bf c9 9a a7 1c 24 1d bf bf
       -0.3930671671468111 -0.12153840732171796
000010 a1 a6 af 15 26 b7 d5 bf 0c 5e 3e a5 b6 dc dd bf
       -0.33930351369654416 -0.46659628045151247
000020 68 15 de d8 2d 88 b9 3f b7 37 a7 4a 24 d5 c1 3f
       0.0997341780149178 0.1393170704381512
000030 d7 88 a8 41 a1 fe d1 bf 42 8e 52 bb ab 69 e1 bf
       -0.28116637622782775 -0.5441492708818674
000040 09 e5 a0 e1 8c ba c6 bf 38 a7 2b 25 52 89 de bf
       -0.17756806389824245 -0.477131401347481
000050 60 6a a6 78 d5 6a c0 3f 3a 5b 66 12 49 26 c4 bf
       0.12826031104198687 -0.1574183788149755
000060 47 2a bc 62 52 0e e3 bf bb 42 a2 a1 6c 13 d1 bf
       -0.5954982689302789 -0.26681056770852835
000070 47 2b 77 cc 3b 23 d2 bf d1 2c 72 05 15 14 d0 bf
       -0.2834004875882567 -0.25122571498714047
000080 09 28 7e 6a ea 5f e2 3f bf 8b 5a fc 28 a9 c5 bf
       0.5742084579408139 -0.16922485658605343
000090 a3 5e 22 30 04 40 dc bf e8 2f 4e 42 c9 dc c9 3f
       -0.44140724850283614 0.20205035913056624
0000a0 4e c2 18 d4 44 44 ce 3f ef 3a 1e d0 75 80 e3 3f
       0.23645840030941873 0.6094311775976545
0000b0 5d 6b 2c b9 53 7f d6 bf f0 d9 a0 97 32 34 d0 bf
       -0.3515214260420885 -0.25318589026883753
0000c0 7c db 01 d1 9a 0b 82 3f ef 3e 43 08 92 e3 8e bf
       0.008811196807284587 -0.015082493664891198
0000d0 3f 3f c7 8b fb d2 da bf 0c 5e b0 d4 0f 6c b0 3f
       -0.4191273560545489 0.06414889280892327
0000e0 72 ac ce d9 47 93 b2 bf 74 fd 20 3e ef 4c c4 bf
       -0.07255982463418478 -0.158597855888711
0000f0 22 ea 7c e6 bb 4b d1 bf 1a 56 94 62 eb f1 ad bf
       -0.27024743565167075 -0.05848632410394945
000100 da 2c 52 72 cf f6 db bf 1f b4 2a a7 34 0d e3 bf
       -0.43693910755309917 -0.595362020967176
000110 4a 83 50 41 20 54 b2 3f 71 4a 52 f3 b5 92 d4 bf
       0.07159616083710066 -0.32145451318607515
000120 cb a7 a7 3b f7 3a c7 bf ac 77 d5 00 5f e5 e4 bf
       -0.18148699200474847 -0.6529994026457095
000130 99 52 4d ac dd a0 c1 bf a0 42 2f 47 27 f7 d8 bf
       -0.13772173798738122 -0.39008504821416956
000140 01 d5 e7 ef e4 c0 d2 bf d9 46 1c 44 5e 2c e0 bf
       -0.29302333286553056 -0.5054160433084817
000150 3e 5a c4 85 57 e8 c3 bf 7e 99 55 ef 73 af d2 bf
       -0.15552801162330526 -0.29195879337785147
000160 d2 42 44 19 5a ae c7 bf f4 f9 68 30 95 a5 da bf
       -0.18500829919550782 -0.41635637023492156
000170 b7 33 6d 6d d3 be e7 bf b7 fa 7c 87 c6 c9 81 3f
       -0.7420441758382513 0.008685637483379123
000180 f4 0c 40 99 0b 21 b9 3f 03 00 9d 49 2b 4a 96 3f
       0.09816048137149719 0.02176730763244451
000190 c2 d0 cc 95 bc 82 c0 bf 4a 7f f9 8a 91 0d db bf
       -0.1289897662587745 -0.42270315715540063
0001a0 e2 3f 08 43 dc 11 b7 bf f1 06 91 ce e9 cc d5 bf
       -0.09011627804306913 -0.3406319157839866
0001b0 14 00 d4 70 f6 51 d6 bf 44 aa 01 0b d5 e9 d1 bf
       -0.34875260370608996 -0.27989698481420455
0001c0 5a fc 29 9a d0 13 cd 3f 4d 84 83 c5 27 b9 de bf
       0.22716720130481144 -0.4800509861798375
0001d0 1f ea e7 89 1f 33 ca bf 56 90 1e 41 e0 b2 c5 bf
       -0.20468515618979752 -0.1695213621106883
0001e0 05 e3 75 8d 39 21 d8 bf 90 10 0d 29 a7 42 af bf
       -0.37702788176061147 -0.061055396805870576
0001f0 c8 97 84 27 6b 3d d1 bf 16 c6 32 4e c2 fc b7 3f
       -0.2693736921231644 0.09370054635180511
000200 19 ec 79 90 46 9b b2 bf 72 26 9d 15 a7 ea b4 3f
       -0.07268181826832211 0.08170551564867326
000210 e6 50 2f 35 ce a0 b5 3f 64 ef 30 07 3b 4f e2 bf
       0.0844849471898815 -0.5721717014743999
000220 d2 03 04 5f aa 4d b6 3f 89 58 e4 77 6e 14 cb 3f
       0.08712258166998701 0.21156102041340244
000230 4a 12 ac 2d 1e e9 cc bf d5 55 45 c0 09 41 d4 3f
       -0.22586419324956558 0.3164696099896365
000240 a6 71 57 56 d9 1d d3 bf 8d b2 c8 72 a3 d2 cc bf
       -0.29869683677477565 -0.2251781759709001
000250 f7 b1 40 78 b2 0a d6 bf a6 57 d4 2c d4 91 d6 bf
       -0.3444029020636487 -0.3526506841457099
000260 3d 2f 8b c1 a3 cc b6 3f 28 da 38 ab 77 2e db bf
       0.0890600535887502 -0.42471114846140035
000270 08 16 7c d7 bf d0 3b 3f ca 36 d7 fd a7 ba d0 bf
       0.00042442973743592226 -0.2613925913727654
000280 e1 cd 6a 06 f6 13 ad bf d1 9b e2 45 cf 9d ca bf
       -0.05679291561446199 -0.20794096863138958
000290 38 f9 73 18 87 f1 d6 bf e5 5a 59 b9 95 d9 d9 bf
       -0.3584916819380797 -0.40390532589428424
0002a0 40 2e bf eb 78 48 d0 bf 95 1b 90 30 f2 33 e1 bf
       -0.2544233610358084 -0.5375910709852741
0002b0 a6 1d ac e1 a5 d5 c1 bf 03 ec 7c a7 e3 64 d5 bf
       -0.13933251876026737 -0.3342827926277893
0002c0 01 89 a4 0a e9 98 d7 bf 84 e7 80 63 17 01 b2 bf
       -0.3687079051907319 -0.07032915286336389
0002d0 f5 74 e4 2b 1f c2 dc bf 6e 55 f4 ed 3c 75 84 3f
       -0.4493482521664441 0.009989238750260223
0002e0 91 fe 7f b2 df 2a d5 bf 8b ba 3e 15 fd 0c c6 bf
       -0.33074181014669884 -0.1722713807807462
0002f0 af 88 58 03 17 85 da bf ce d2 b5 9f d1 e9 a6 bf
       -0.4143731625246216 -0.044752646203880184
000300 7a 80 17 b5 d8 74 b3 bf 12 a3 41 bb a0 a7 d5 3f
       -0.0760016862982428 0.3383561924625137
000310 fa 1d 00 15 58 10 af bf 00 eb 1c 4c 4b 08 d3 bf
       -0.060671570361645125 -0.29738123352915125
000320 7e 79 da 35 37 2a d2 3f a9 43 3d dd 9c 37 d6 bf
       0.28382663973925293 -0.34714433293725705
000330 ed a2 8f a8 0a 48 d7 3f f6 e9 03 b3 01 78 d2 bf
       0.36377207242052984 -0.2885746238895587
000340 d9 c8 48 6d 21 43 9e 3f 0e 97 30 eb 15 00 cf bf
       0.029552957816300605 -0.24219011291386788
000350 3f 95 77 81 b0 89 d4 3f 96 a5 a4 36 3d d1 dc 3f
       0.3209038986518244 0.45027094207997587
000360 01 74 b2 56 a4 d8 ca bf c2 34 3f 22 dc b2 da 3f
       -0.2097363875699614 0.4171667417948123
000370 b0 04 9e 90 f6 7e b3 bf 64 cb 57 b5 41 8b d5 3f
       -0.07615605383581925 0.3366245528151721
000380 75 30 0f 3d 44 a9 cf 3f 02 2d c7 24 59 1c d0 bf
       0.24735310536778213 -0.2517302378807501
000390 73 2a 83 bb 55 47 e1 bf 72 24 94 ac 66 c2 e8 bf
       -0.5399578726149471 -0.77373059946798
0003a0 1f 0d 23 7f 6e 53 ca bf 92 9b 3f 71 b3 3e be bf
       -0.20567113120896693 -0.11814424052100339
0003b0 c7 6e 16 b8 eb 02 d9 bf 93 30 6c 4f 03 ee cc bf
       -0.39080327012355237 -0.22601357820565635
0003c0 a4 31 8b 46 6f 34 dd bf d7 c0 b4 3d aa 27 e1 bf
       -0.456325358286245 -0.5360919194409018
0003d0 49 69 3a 3c d3 b7 be bf 47 14 db 96 c8 40 d8 bf
       -0.11999244900144847 -0.378954074211212
0003e0 fc d7 fd 98 91 ac c5 bf cc c7 38 70 42 4f cf bf
       -0.16932888002673951 -0.24460630874233258
0003f0 04 be be 32 a2 7f c4 bf b2 7d 87 94 94 07 d0 bf
       -0.16014506795680472 -0.25046267037211145
000400 2d 56 b7 7a 5c 40 b1 3f 6a f6 06 e5 63 d5 bc 3f
       0.06738832469940155 0.11263107625469507
000410 2a 25 f2 b9 e6 a2 c9 bf 1e 88 39 d2 32 d0 d7 bf
       -0.20028385238064433 -0.3720824292159949
000420 88 92 f1 65 0d 94 c0 3f fc e3 7f ba ec 43 e2 bf
       0.1295181987544718 -0.57079159188936
000430 3b eb ce e7 63 a6 a7 3f ee 7c 44 91 85 78 da bf
       0.04619133190813903 -0.41360606371195174
000440 00 02 c8 ee 73 99 e0 bf b5 12 12 0e 9a f8 e4 bf
       -0.5187320388504872 -0.6553468966308943
000450 79 81 44 9b 46 51 d0 bf 86 91 7d 5c b6 92 db bf
       -0.25496068156100865 -0.4308296111323887
000460 90 f1 66 1b 10 ea dd bf 48 9b 33 05 ce bf d5 bf
       -0.4674110667799818 -0.3398318339154014
000470 cf de 3f 56 b5 4e c3 bf 85 9f c5 7c eb d5 d3 bf
       -0.15083948813820888 -0.30993163285028685
000480 01 26 83 27 66 8f c2 bf 9f 81 70 ca ec 69 bd bf
       -0.14500119141875703 -0.11489753668184342
000490 12 76 30 19 95 a5 d4 bf c5 53 2c 97 ba 28 be bf
       -0.32260634860890136 -0.11780897322417079
0004a0 07 4f 10 81 e3 2c cd bf df 39 ff 34 a6 b4 b0 3f
       -0.22793239404619944 0.06525648874160293
0004b0 a6 4b 23 83 a9 6e ca bf b2 47 8b 46 22 cc b0 bf
       -0.20650214102951486 -0.0656148359514919
0004c0 6d d5 c8 c1 be e1 cd bf 77 06 60 fd c7 77 cf bf
       -0.23345169508108246 -0.2458429324324702
0004d0 87 d9 39 39 5f 11 b4 3f 01 eb c5 01 b8 45 d5 bf
       0.07839007517927686 -0.3323802964511487
0004e0 f9 dc 30 76 e1 1e c1 bf 73 f9 5e df 31 01 b3 bf
       -0.13375490447081242 -0.07423698142426875
0004f0 99 62 54 9e c6 94 cf bf 66 1c da 4f 0e bb c2 bf
       -0.24672777872981014 -0.14633349322341188
000500 5c 84 7e 2a 88 6c d3 bf 33 58 e4 6a bf 76 b7 bf
       -0.3034992613775722 -0.09165569648425347
000510 2d ea db 54 ec ac c6 3f 85 c0 fe 3d fe c6 a7 3f
       0.17715219634540472 0.04644007212425642
000520 97 8f 6a 74 00 25 d7 3f 99 d5 a4 f1 2b 1f 82 bf
       0.36163340920233494 -0.008848517715345493
000530 8c bd 5f 70 b8 23 d5 bf 30 2f a6 dc 81 be c4 bf
       -0.33030520414373465 -0.1620638205898728
000540 ab a2 83 9c aa e3 ca 3f b6 4d 19 3f bf 34 a0 bf
       0.2100728286962029 -0.03165242810487305
000550 07 42 95 37 3c 40 e3 bf 9f 29 7e de 86 4e d8 3f
       -0.6015912137609697 0.379792897489688
000560 40 25 29 fa a8 41 c7 bf 60 3a 9f 57 74 cd c5 3f
       -0.1816912862289346 0.17033247259537898
000570 25 02 32 68 1f 7a d0 3f 4a c3 97 00 81 58 db bf
       0.2574537770779293 -0.4272768502988141
000580 80 99 aa 06 a6 ad c3 bf b6 83 84 94 80 84 d8 bf
       -0.15373683286197704 -0.38308729652095097
000590 4d a4 b0 d7 18 a1 a1 3f d4 be c8 73 5c 42 cf bf
       0.03443219788489014 -0.2442126813270905
0005a0 69 ec 13 86 fc 53 c3 bf 71 6f 85 76 c3 85 d9 bf
       -0.1510005621601949 -0.39878927778567347
0005b0 82 79 22 fb 13 49 e9 bf 56 09 9e ca 70 ff b3 3f
       -0.7901706604932743 0.07811646410667569
0005c0 ab 93 ed 2c aa f5 dc bf 27 61 be 79 79 b7 b0 bf
       -0.45249418628219 -0.06529959890611235
0005d0 49 44 70 c7 bd 9d bb 3f 10 6f b1 9e 00 20 ca bf
       0.10787569159607914 -0.20410163639723367
0005e0 85 44 6b 03 2c 5c e3 bf b2 fe b6 1f 49 70 be bf
       -0.6050014559533713 -0.11890084289825145
0005f0 83 72 5d 4d 07 79 b0 bf 41 9e 7b a9 5b c3 d1 bf
       -0.06434674872202532 -0.27754870940268367
000600 c3 28 be 75 ea 71 e0 bf 76 48 cd 6c db aa e3 3f
       -0.5139057445205925 0.6146065831219534
000610 a3 90 68 cb d0 c5 b8 3f 10 df c6 c0 d3 36 e0 bf
       0.09676842657114774 -0.5066927685902289
000620 94 68 53 7b 86 6e cd 3f 4f a5 80 3e da 5c e5 bf
       0.22993546506660734 -0.6675845356705085
000630 0f 46 a9 ee ca a6 e3 3f 60 86 2f b0 0f 7b db 3f
       0.6141104375221306 0.42938606458310424
000640 81 a9 5d 6c 12 61 c2 3f a3 d9 7e 1e c6 9e bb bf
       0.14358740130712636 -0.10789144749182937
000650 7a 51 25 88 4b d8 dd bf fa 56 d0 51 73 f3 c8 bf
       -0.46632660193906583 -0.1949295186502054
000660 07 ab 6c be cc ad af 3f 91 95 d5 96 a4 a8 cd 3f
       0.061872862096001006 0.2317090736861869
000670 a9 12 78 b3 88 32 9e 3f ed e0 5d 3e d4 5f e2 bf
       0.02948964686767633 -0.5741978853320951
000680 35 d4 c4 a5 8f bc e2 3f 3e 73 bf 1a 46 03 c9 3f
       0.5855177152321916 0.19541240984008285
000690 c6 78 46 21 fb ab c6 3f 28 b6 03 94 03 24 d7 3f
       0.17712344288606213 0.3615731187299809
0006a0 d4 59 13 9d 7a 93 c9 3f f2 53 a6 ac 51 9d d5 3f
       0.19981320066172137 0.3377269922287375
0006b0 59 43 62 4d 84 4a d6 3f c9 7a 5e 7e 3b a3 c0 3f
       0.34829814488425864 0.12998145742763814
0006c0 cd 1b f3 b9 89 73 b7 3f f9 8f a0 ff f9 48 99 3f
       0.09160671987329679 0.024692445971723462
0006d0 86 12 5c 43 5a bb dc 3f 05 2d 34 ec ef a3 dc 3f
       0.4489350946244389 0.44750593249109755
0006e0 bc 33 5a 30 ec ae c4 bf 5d 38 23 ae c1 c1 b4 bf
       -0.16158821450190242 -0.0810814905300687
0006f0 83 d2 93 79 6a dd c7 3f 94 7c d5 0f 6e 31 d4 3f
       0.18644457756422037 0.31551696344644964
000700 87 87 77 b4 4f 29 d1 bf 54 84 ce 84 6a 0d c3 bf
       -0.2681464445469079 -0.14884692654325937
000710 28 83 fd 5e d2 04 c5 3f 95 dd d0 ae d4 c3 aa bf
       0.1642096484966029 -0.052275320377187
000720 c8 84 a4 0a ff 3f c6 bf 86 89 5f 0f 71 98 c6 bf
       -0.17382801074658105 -0.1765271496834197
000730 22 d2 14 d9 6e 6d a1 3f f6 21 68 b5 03 be c1 bf
       0.03403803253096195 -0.13861128194572786
000740 00 80 7a 7d d3 2f 6d bf b3 00 93 33 fd b4 cd bf
       -0.003562844340038396 -0.2320858480288784
000750 8f d4 4c 45 79 c7 af bf a7 df 48 3f 0c 6c a4 bf
       -0.062068738660323246 -0.03988683960454802
000760 a2 d7 a4 af 01 e1 c5 bf 8e 39 bc 96 5c ac cd bf
       -0.17092915607798626 -0.23182256088371073
000770 b0 9b 17 08 26 84 c5 bf 1b 48 bd 2b 2a 95 94 bf
       -0.1680953540337362 -0.020100268287315353
000780 ef 88 86 0f 06 b5 dc bf 95 0b 5a 76 60 a7 d2 bf
       -0.44854880825199833 -0.29146586950099024
000790 d2 c4 f6 7c 60 8e c3 bf 00 cd e7 01 da 15 dc bf
       -0.1527824983764164 -0.43883371530610304
0007a0 28 5d 4e 4f b6 2d cf bf 2d 66 47 66 89 e2 bd bf
       -0.24358252403610803 -0.116737925978122
0007b0 32 4d 6b 64 81 58 d7 3f 2a 0b bf 96 bb 71 db bf
       0.3647769432693223 -0.4288166973239408
0007c0 af 8c 74 ea c2 bc cd bf 23 7c f7 51 26 2f d9 bf
       -0.23232304046641647 -0.39350278858722926
0007d0 19 52 78 34 25 9f a1 3f d0 d1 78 ef 99 f2 b2 bf
       0.03441730752470935 -0.07401430222018424
0007e0 60 b5 42 2b 01 7c c3 bf 30 29 0b 37 6c 18 dd bf
       -0.15222181904156695 -0.45461564421988765
0007f0 bc 72 89 df 3d d4 ac 3f 5c 71 9c d0 5d 1b df bf
       0.05630677560541161 -0.4860453164308376

nn.2.linear.bias f8 [32]
000000 6c a7 a3 b4 3b ee d1 bf 5e d9 56 76 70 95 c5 bf
       -0.2801656021171002 -0.16862302568706417
000010 89 47 73 e4 50 c6 c6 bf 20 af d8 c4 1f e3 d1 bf
       -0.17792712359237964 -0.27948755477221887
000020 63 fa be a2 40 9c ca bf 42 81 1e b3 54 d8 c6 bf
       -0.20789344736654689 -0.1784768938641808
000030 99 16 ac c5 0c d6 c3 bf 44 88 e1 78 76 30 db bf
       -0.15496978427852495 -0.4248329334715246
000040 e5 9d 31 64 b9 02 d2 bf d2 5a 8c 4e 28 c2 c6 bf
       -0.28141627106239603 -0.17780021510471627
000050 61 6f 78 31 04 40 c6 bf c1 91 2d cc 63 65 d3 bf
       -0.1738286248736314 -0.3030633443761666
000060 37 ff 30 be 37 71 92 3f bf db 05 70 30 3c be 3f
       0.018010016425477473 0.11810591444905948
000070 d4 c5 3b ef 5e dc c6 bf 58 e7 b2 c5 f0 f7 d1 bf
       -0.17860018426249147 -0.2807580881741294
000080 c6 8f 1e 6f 21 02 d5 bf 5e 15 de 1c c7 29 c9 3f
       -0.32825504161359864 0.19658745679422912
000090 cc cd 48 96 7e 69 a6 bf 25 23 db 53 53 d6 c6 bf
       -0.04377360901380775 -0.17841569513827796
0000a0 62 78 f5 38 26 84 d0 bf 14 ff cc 99 e1 ea d0 bf
       -0.2580657535780856 -0.2643360139809243
0000b0 54 8d a5 ec d6 fc d9 bf e4 16 1a f8 d5 7f ce bf
       -0.40605710134533024 -0.23827623953200494
0000c0 5f 7e 73 62 ff e8 c6 bf 47 09 44 80 59 42 d0 bf
       -0.1789855223387233 -0.254049659022844
0000d0 36 5d 1c a2 5b 53 d0 bf bf 55 13 6a bf e5 d1 bf
       -0.25508776503689334 -0.27964768752039143
0000e0 8f 58 d8 a1 9f 9f c6 bf 21 d8 39 38 1d a2 cb bf
       -0.1767463245639118 -0.21588483090789715
0000f0 5d ba c1 67 80 b1 c5 bf e5 c1 bb c5 f8 df d1 bf
       -0.16947941843268924 -0.27929515180497183

nn.3.linear.weight f8 [32, 32]
000000 74 ea 5f 96 51 b0 c1 bf f0 0e 4e 2e ff b6 c8 bf
       -0.1381933197261166 -0.19308461914999198
000010 19 6f 7c f3 46 3b db bf eb 5b f0 f9 5c 0a 8b bf
       -0.4254929902833609 -0.013203359963922487
000020 6a 3a 19 9d dc a8 de bf 42 c5 5e 60 f6 46 c0 bf
       -0.47905650464682614 -0.12716560082984968
000030 f8 46 ed f8 9f 97 d4 bf 37 29 93 6d be ef d9 3f
       -0.32175444897903516 0.4052578039233085
000040 b0 d5 34 84 8f c2 b3 bf 27 51 64 59 e1 66 d8 bf
       -0.07718750932402574 -0.3812793133704581
000050 82 5e 05 99 b5 b1 d5 bf 32 0a d9 52 d3 c6 cc bf
       -0.33897151893095423 -0.22481767220786392
000060 09 b2 ff 35 df f4 d0 3f 3f 03 38 9f 79 6e c6 bf
       0.26494579575845073 -0.1752464320598168
000070 b0 81 10 29 69 0f b4 3f 1a 7c 94 a1 83 ca b2 bf
       0.07836014988470796 -0.07340262121987032
000080 84 7f 13 17 21 d9 d0 bf 7b 39 5e 8e 40 80 c6 bf
       -0.26325251821071327 -0.17578894568982747
000090 44 28 bf 9b bc 40 b5 bf 2d 94 93 d8 81 3a db bf
       -0.08301905443582408 -0.4254459967617688
0000a0 36 f9 d4 6f 17 1a b7 bf cf 6c 82 22 6b c0 d7 bf
       -0.09024187546035453 -0.3711192929274149
0000b0 5f 26 36 91 ad d7 bb bf a0 65 68 0e bb 67 a0 3f
       -0.10875973506167601 0.032041402348294
0000c0 73 59 d4 dc e1 95 a5 bf 71 e5 bf f3 c1 20 71 3f
       -0.042159136015629615 0.004181630731176043
0000d0 e2 fd fb 89 6b ea cb 3f 9c 33 9c f9 cd e5 a5 bf
       0.21809143292919858 -0.042768894882193126
0000e0 f8 47 29 fa a8 5e b0 bf 35 34 bf f3 6a 8a da bf
       -0.06394439799740315 -0.41469835093886626
0000f0 7b 8c ea a9 31 1c da bf 21 3f a9 d3 0a 87 d5 bf
       -0.4079708251321745 -0.3363673274043198
000100 bd eb 0b 0e 1d 91 e4 bf df 76 2f df f5 64 c2 bf
       -0.6427140497538556 -0.14370606801724414
000110 66 8f 25 07 89 53 c0 bf 5a f9 0c 98 8f 17 e2 bf
       -0.12754929398499398 -0.5653760881175842
000120 77 9d ec 25 76 af d6 3f 26 58 77 6a 4a f8 df bf
       0.35445932105581995 -0.49952946087921857
000130 0c f8 b3 4d e7 39 c2 bf e2 b2 63 77 6d 95 d5 3f
       -0.14239207548229194 0.33724533709646043
000140 17 a2 78 3c 5f bb c8 bf 27 a7 c8 68 e6 c4 bf 3f
       -0.19321814015099 0.12409820612142806
000150 5a c0 20 e9 68 8a c5 3f c2 18 0d 12 7d ff d6 bf
       0.16828643210601762 -0.3593437839775896
000160 53 2a 31 93 12 cc b2 bf b3 9d ad b0 1d a4 b4 3f
       -0.07342640012317618 0.08062921107704461
000170 06 49 da b7 f8 3c b8 3f d3 7e a7 e9 23 5c e0 bf
       0.09468035210219136 -0.5112475932655464
000180 00 d4 22 5b 78 64 c5 3f 3e 58 25 9e 61 92 e0 bf
       0.16712860536577523 -0.5178688133989977
000190 54 d7 06 c0 b5 ed 60 3f bf c2 52 10 63 dc b0 bf
       0.00206647394244445 -0.0658628382541435
0001a0 82 3f 07 cf 1a cc c7 3f 90 37 d9 c8 4f 4d d0 bf
       0.18591628178409897 -0.25471872915374494
0001b0 e7 c4 bd a9 4c 1d b9 bf 08 24 58 c1 08 80 d3 3f
       -0.09810332435678824 0.3046895874145439
0001c0 4e fc ee e2 ed 19 e0 bf 0a e2 b5 8b 9e 37 c5 bf
       -0.5031651909156467 -0.16575986692238615
0001d0 2e e5 8f 7d 55 43 cf 3f 0a 90 41 04 ab 13 dd bf
       0.24424236899339163 -0.4543254415095822
0001e0 89 18 0d 42 f0 20 d4 bf 98 13 69 27 26 0c b6 bf
       -0.3145104069739167 -0.08612287962121312
0001f0 05 d9 98 ac d8 33 d0 bf 97 f0 20 e4 d2 84 da bf
       -0.2531644521253756 -0.41435692098799265
000200 48 71 b9 59 4a 3b c5 bf ba 1e e1 5c 06 57 d4 bf
       -0.16587190037797428 -0.31781157560588336
000210 fa e2 09 80 1d ef c9 bf 78 ea 1e ea 07 86 a9 3f
       -0.20260971786390042 0.04985069973868844
000220 e9 67 84 7c f2 16 8d 3f dd 2b 17 a3 a0 35 d3 bf
       0.014203924584354115 -0.30014816214378276
000230 52 ac 07 bd 4a ec db bf d2 a8 30 a7 eb 94 bf 3f
       -0.4362971158977348 0.12336609679974522
000240 d2 55 a8 1a 35 43 b5 bf 14 f4 47 96 71 24 b0 bf
       -0.08305675412005734 -0.06305608672114743
000250 50 bd 85 b0 0b df c3 bf 6e fe 8e 17 21 14 30 3f
       -0.15524431342371736 0.0002453404227331428
000260 4c 2c 8e da f5 bb cd 3f be 2c 56 82 11 f2 da bf
       0.23229859515808682 -0.42102468231378143
000270 56 0a 12 7d 63 2a c4 3f df 65 74 f7 5f 51 d3 bf
       0.1575435982413917 -0.3018417278813938
000280 0f a3 96 24 4e 5a d7 bf 24 a6 01 01 7f 10 d3 bf
       -0.36488679478729663 -0.29788184259686745
000290 39 64 1a 21 df db d6 bf 0d d8 8a 83 08 1c d0 bf
       -0.3571698973915463 -0.25171101423200143
0002a0 44 86 d6 84 96 ea d7 bf d0 4d ce 42 0d 21 c3 bf
       -0.3736931130643806 -0.14944616090779883
0002b0 73 50 5f e5 75 5e d8 bf a0 fd bc 43 70 b4 d5 bf
       -0.3807654132808757 -0.3391380940920161
0002c0 78 89 34 ec d2 41 7b 3f aa c6 09 9b b8 41 d0 3f
       0.006654571453767459 0.25401129856536875
0002d0 a0 0a 1d e4 2e fd d4 3f c3 47 22 20 38 b7 d6 bf
       0.32795307423308806 -0.35493281496121315
0002e0 c5 d4 c2 e0 8b db c7 bf 92 c2 b2 95 7e b9 d0 bf
       -0.18638752436314668 -0.26132168406460565
0002f0 02 b0 15 81 f4 74 d5 bf 30 92 91 ed 9c 82 c5 3f
       -0.3352633724778117 0.1680484924319372
000300 0d 98 52 d8 5a fc ca 3f 68 b9 35 47 08 ec a0 3f
       0.21082625925663515 0.03305078381787291
000310 7d e8 52 c7 d3 cd bf 3f 19 28 f9 fc 25 78 d0 3f
       0.12423442474656272 0.2573332758371421
000320 ff ef d4 6e 1d 57 a9 bf 5c 34 93 69 ed 5f c6 3f
       -0.04949275949408615 0.17480247168569718
000330 67 48 03 94 21 a6 d3 3f bd 8a 29 db 8e 54 c8 bf
       0.30701484159829423 -0.1900805063370025
000340 54 5b bf c8 2a d5 e0 3f bc 9a c4 da db 83 c8 3f
       0.526021377644478 0.19152401144056863
000350 37 9b c9 b6 67 cf e0 3f 46 2e fb 69 09 0b d1 3f
       0.525318009383091 0.2662986311886225
000360 c6 9d be 8e 60 a1 e7 bf 6b fd 04 3b b0 78 93 3f
       -0.7384493625622148 0.019015077211631686
000370 90 1b 9e aa 18 2f d3 3f d3 0a 49 e7 82 d9 b5 3f
       0.29974953328967846 0.08535020968069355
000380 bf 39 87 c3 0c a5 b7 bf 9e 64 b7 cb 82 61 c5 3f
       -0.09236221097601226 0.16703829714859791
000390 14 52 5f b6 72 52 d1 bf 79 cf 46 11 6b f9 b9 3f
       -0.27065723237800055 0.10146207019607613
0003a0 3d 64 59 69 bb b4 e0 3f 5b 84 d7 f3 99 5e c4 3f
       0.5220620210267338 0.15913700491276725
0003b0 2b 83 b2 6e be ab 80 3f 9c 18 35 89 2c 91 d3 bf
       0.00814007544824021 -0.3057357158580858
0003c0 f6 f7 ea 16 41 29 d6 3f 70 01 ce 94 c8 f2 a5 bf
       0.346267959957799 -0.04286791626418818
0003d0 f1 9b bb 58 5e 22 ce bf 3c d2 44 56 72 55 d6 3f
       -0.2354238446489201 0.34896524834337916
0003e0 3e 7f 3a 5b ac fe de 3f 34 95 9b b2 97 e9 d5 3f
       0.48429402264627075 0.34238235895311964
0003f0 0e a0 83 46 43 ce d2 3f 56 eb 4d 9a 26 84 c9 3f
       0.29383928190372977 0.19934542211907552
000400 25 4f 6b cb 0b 0a c4 bf 12 f9 14 f6 04 a3 db bf
       -0.1565565818078706 -0.43182491332471884
000410 99 cb 75 b5 3d f9 56 bf 87 75 6c e7 f5 18 d8 bf
       -0.0014021971345214766 -0.3765234718319665
000420 d9 b8 a2 65 65 21 c6 3f 90 2f 30 d7 1f 85 db bf
       0.17289416754414935 -0.4300002671668546
000430 3e 09 ad 4d c3 94 db bf 0f 1c 30 8a 61 72 cd 3f
       -0.4309547670892647 0.23005313155610493
000440 4c 30 91 18 f1 23 d5 bf 67 4b 37 85 af 9e d1 3f
       -0.33031871222624853 0.27531040200590556
000450 7a ca 26 b3 78 41 a5 bf 08 8f e8 42 89 cd d4 bf
       -0.04151513277920045 -0.3250449326899205
000460 2b 88 22 4c 45 ac c0 3f 7b 70 0c e6 f0 c5 c8 3f
       0.13025728433155 0.19354068024484036
000470 7b 76 b4 4f 60 4c d6 bf ba a2 62 a5 cf ca ca bf
       -0.34841163428959704 -0.20931430411771662
000480 9b 05 45 c3 b9 e3 d0 bf d9 a5 9e 6f 70 40 e1 bf
       -0.26389926976488604 -0.5391161136696453
000490 76 a2 9e e7 53 b7 cc 3f 56 c5 4a 43 42 e0 e0 bf
       0.22434471902421976 -0.5273753465936959
0004a0 f8 ab 97 c8 e0 5d d7 3f 47 aa 9a b2 5e 8b e3 bf
       0.3651048621092623 -0.6107629288065447
0004b0 d2 55 34 45 8c ab af bf c8 ef 66 b0 92 97 a9 bf
       -0.06185568184643454 -0.04998453524919416
0004c0 d7 d9 4a 05 56 56 e3 bf 91 fb 25 9c b6 dd 89 3f
       -0.6042890647284435 0.012629915848035885
0004d0 43 4b 6b c3 d5 8f a6 3f fc 6e 80 6d f8 9c d9 bf
       0.044066124062416744 -0.4002057141640163
0004e0 83 b3 04 f9 08 27 c6 bf b4 13 ee be d1 9a d4 bf
       -0.1730662551794034 -0.32194942136294036
0004f0 75 09 8e f6 95 c1 cc bf 18 07 ed ab 62 68 e1 bf
       -0.22465776957330844 -0.543992362778428
000500 e0 5f b4 71 b4 ba c7 3f 71 1f 01 3a 4c ef 7b 3f
       0.18538528015119393 0.006820009002758685
000510 9b f5 9a a4 92 40 c1 bf 6a a3 4e 57 d9 4b b9 3f
       -0.13478310620659503 0.09881361371539091
000520 12 ac b1 e7 bd d2 cb 3f 03 67 2f 0c e1 9c 94 3f
       0.21736882985291622 0.020129696243976102
000530 3d c3 e4 f7 af 3d c5 3f 5f 19 cd 4c 41 08 b6 3f
       0.1659450493257512 0.08606346249607587
000540 06 fd e6 a7 74 2f de 3f d5 4f 7a 35 83 8a d7 3f
       0.47164646527012655 0.36782913420142666
000550 71 18 c0 f5 57 e2 cd bf fe 28 b6 41 e1 eb d5 3f
       -0.23346995830087594 0.3425219670977099
000560 6c 03 73 ce 71 e1 b1 bf 8a 79 b6 b4 2d c7 a1 3f
       -0.06984626093163876 0.03472273665396404
000570 60 03 9a 4d 11 84 71 3f d1 9c 80 98 7d 2f d5 3f
       0.004276340093952807 0.3310235966950588
000580 19 ec a3 0b d0 15 e1 3f ef 4a 30 6c 00 1d d7 bf
       0.5339126803731943 -0.3611451202897759
000590 51 d7 03 3f 81 cf 8a bf 3d 45 4f 65 aa 68 e1 3f
       -0.01309109662586719 0.5440265635208231
0005a0 ba 6a 2d ac ad 92 db 3f a7 03 86 08 97 68 cb bf
       0.4308275395793931 -0.214129332696783
0005b0 aa 70 ef 8a fa 9d dd 3f 5d 08 f8 19 39 15 c8 3f
       0.4627672535696187 0.18814767616283037
0005c0 0a cc e9 56 40 10 d2 bf 7a b7 9f cf 02 9e 90 3f
       -0.28224190223335255 0.01622776405559232
0005d0 3f 12 d2 df d4 c6 d6 3f c8 14 e2 cb d7 7c c7 bf
       0.3558857141254385 -0.183497404625234
0005e0 34 86 cb a9 d5 24 db bf e6 93 43 c3 3b 43 87 bf
       -0.4241232069162806 -0.011358706375583293
0005f0 9c 4b 34 0b 8f f7 d4 bf d1 f7 66 20 92 38 d6 3f
       -0.3276097878853592 0.34720280803946674
000600 92 10 af c0 ae ef c0 bf f4 16 4e 63 97 67 d8 bf
       -0.13231453331366488 -0.38132271478421775
000610 9b 3a 5d 04 6c 3a c2 bf f0 33 07 e5 d5 f3 71 3f
       -0.14240789616674907 0.004382930303518315
000620 ef 4d c0 ae ad f1 e0 bf 41 a6 54 c7 a8 e9 d0 bf
       -0.529501763640324 -0.26426143136868424
000630 9d d3 d2 f9 f5 6c e1 bf 5b b6 8a 79 d9 45 c6 bf
       -0.5445508841863674 -0.17400663790378953
000640 2e 60 ec c3 6f 8c c2 bf 9b 76 fb 1d 7c 21 be bf
       -0.14491078440255606 -0.11769843799580786
000650 23 66 b3 d0 9a 00 d5 bf c5 e2 fa 6e fc 3f e0 bf
       -0.3281619108289268 -0.5078107993677682
000660 43 7e ae 2d a8 5c d4 bf aa 43 05 9e 65 5a cc bf
       -0.3181553312406075 -0.22150869575355375
000670 6c 41 ee af fa 18 d2 bf 87 57 d5 c4 1d 16 d8 bf
       -0.2827746122429946 -0.3763498708916519
000680 17 ac 8e 8a d0 59 cd bf 4f 8b a1 0d a6 b4 bb bf
       -0.22930342450612848 -0.10822522957600465
000690 7b fb f5 a9 d0 a5 b8 bf db 69 1d 17 8e 99 b6 3f
       -0.0962801375335242 0.08828056396797683
0006a0 60 2c fe b4 ed b6 d7 3f e1 8d d1 1e bc 89 c9 bf
       0.3705400722034877 -0.19951583390057606
0006b0 f6 f8 bf de dc ac cf bf b7 7d a6 a9 0d b0 d1 bf
       -0.2474628532072029 -0.2763704449407344
0006c0 da a5 37 05 68 41 c9 3f a0 11 13 27 1a 4b c7 3f
       0.19730854277376758 0.18197943599637956
0006d0 0e 31 53 a3 f4 f5 cf bf 60 ed f9 42 36 48 ae bf
       -0.2496934697613899 -0.05914468352872393
0006e0 05 20 ff b1 4b 95 d2 bf 04 6e 63 21 5e f9 b3 bf
       -0.29036228544691794 -0.07802379908701346
0006f0 3c bd 14 3b 28 4f d4 bf 02 4b ee a9 9a c5 b7 bf
       -0.3173313691103947 -0.09285895012571291
000700 3c 80 99 7a bb 5a a6 bf db 34 ff ec e4 9a b7 bf
       -0.0436609828145724 -0.09220724855477462
000710 79 a5 05 54 2f b4 8a bf 37 43 c7 e8 63 80 53 3f
       -0.013038987876557983 0.0011902785946526614
000720 95 fb cf 62 b3 75 dd bf 0d 53 db 59 f2 c3 d6 bf
       -0.4603088822331583 -0.3557096364504993
000730 ed 20 af cc 06 41 dd bf b9 4b 10 74 88 25 da bf
       -0.457093906294644 -0.4085408338007102
000740 13 6f 58 de 17 48 d1 bf d7 b0 29 5e d9 ae b3 bf
       -0.2700252219526515 -0.07688673542878931
000750 9d 16 f9 d4 c3 69 dd bf 53 ee 06 fb 75 e3 c1 3f
       -0.4595803813757387 0.1397540546148429
000760 54 e9 24 53 85 0d d9 bf 57 b4 39 46 7e 9e d2 bf
       -0.39145024413632723 -0.2909236608309746
000770 8f 70 24 f3 5f cb dc bf 67 f6 00 14 ea e3 e2 bf
       -0.44991301292771707 -0.5903215780924257
000780 8e 69 0c db 01 9e d5 3f 84 36 6a 43 43 15 94 bf
       0.3377689971108787 -0.019612360944441423
000790 df a6 0f b9 87 af d7 bf 91 a8 16 d2 1e 70 91 3f
       -0.3700885112035461 0.017029267857346545
0007a0 a0 bd b4 b4 9f dd d2 bf 4e 35 ff 01 77 83 d8 bf
       -0.2947768463809215 -0.38302397913942776
0007b0 2c a3 47 25 38 8f db bf cb 25 67 22 e3 6f d8 3f
       -0.43061641350373026 0.3818290554014225
0007c0 b3 f8 94 22 5c 51 d4 bf fe a3 76 e6 4c 21 c2 bf
       -0.31746581437245 -0.14164124730203292
0007d0 7b d9 e0 3e 06 ee d6 3f 12 4d 00 5b 6e c1 da bf
       0.35827785625897207 -0.4180560959514007
0007e0 d9 f7 a7 aa 79 e2 be bf 94 6f 04 54 7a 27 c5 bf
       -0.12064323822411839 -0.1652672682038171
0007f0 6c 6f 0a 6a 03 4e df bf 19 84 4c 3f b4 6f de bf
       -0.4891365562013934 -0.4755678766396741
